notebooks/best_model_k_tbnn_w_hparm.pth (torch, 309486 bytes, 14 tensors)

linear.weight f4 [32, 10]
00000000: f5d4 e73d 191d 6e3d ce35 a23e b522 253d
00000010: ecdb e93d 39b9 413d bd70 bf3e 696d 10be
00000020: 84cc 933e 8392 3ebe a383 8dbe 120b 713c
00000030: 03e9 b7be ba01 a63d a21e 3b3e 12d5 5dbe
00000040: 8c95 013e 6a9f fc3e 4016 5b3e 0892 25bc
00000050: 653b 07be 6bc0 3a3e 5b99 aebd ddec 83be
00000060: 1d26 283c 3822 843e e6a3 693e a2f8 29bf
00000070: 90b7 80be 1be2 d63d 7fa7 5c3e e40b 833e
00000080: fca6 cdbe 077f 103e 4972 30be c543 87be
00000090: bb72 a3bd ffa0 9e3e 8273 473e 38b3 c13d
000000a0: 27a6 7f3e dc72 073e e19c 493e 908a 09be
000000b0: 9e29 8fbe afa0 3f3e 9e08 893c 8e92 98be
000000c0: 52bc 673d a8ae 64bd 05bf 113d 522a 853d
000000d0: 60bb 913e 67e5 0bbe abcd c73e 8bd9 073f
000000e0: 226c 62be f4a3 30be 72a1 99be 3541 2bbd
000000f0: 73d7 b53b 3299 bcbd 6150 1cbd bb52 033e
00000100: ec43 b7be d422 b9be 2dad c4bd 7b19 123e
00000110: d2d6 03be ecfd 873e 4ced 0cbd edff 943e
00000120: 3a0a 89be a3a0 473e 089b b4bd 660e 923e
00000130: 0438 99bd ea89 c83e 7a0a 4dbe ec1e 4a3d
00000140: dd74 3c3c 554b 253e 4650 d03e 985b c6bd
00000150: d306 e63e 4821 32bd 5a0d 7a3e bac6 2c3e
00000160: 65c7 e1bd cab2 263e 8190 3dbe a356 f4bd
00000170: 1460 b1be e017 123e ea5e 6c3e 161c 393d
00000180: cf73 043d 2b9b 24be 7173 ac3d aba1 583e
00000190: c83b 883d 9bf2 513e 104b c83b 5b0a 42be
000001a0: c03e cbbd 988a e43e f337 6b3e 7d4c 5bbd
000001b0: 7cf6 a2be d636 e53d 6337 5b3e 06e5 8abd
000001c0: a5b9 eabd 0864 9cbc 4f88 8d3e 2791 43bd
000001d0: 6cfa ccbe 2cb1 a43e eea9 22be 08fd 1f3e
000001e0: 79b0 2dbe 2f30 b2be 527d a3bd e254 093d
000001f0: edb2 0d3f 4af1 243e 373d 07bf 60b1 8e3e
00000200: 54b8 6dbe bca1 1abe ae6c d23d 4a93 753e
00000210: 1e65 e8be 605d c43b 74de bebd a54a 84be
00000220: afd0 24be f733 a33e 628f 9fbd 00eb 60be
00000230: c536 66be 5b92 e43d 1584 193f 9c8d 11be
00000240: 1bf1 113e f6f5 a43e f93d 9a3e c75b 153d
00000250: 6171 243d 70f1 593e f7b0 46be 9582 a5bd
00000260: 5acc 003f f62e 57be 85fe dfbd d749 0dbc
00000270: 6e7c a7bd f36b 99bb de6e dabd 648b 853d
00000280: 40af b93d c89a 80be ca78 48be 126d 613e
00000290: 9bd6 c1be 6c24 0b3d bb7c 883d 4841 84be
000002a0: 0f07 453e c2d9 5a3e 70d3 c43b 0ee7 d43c
000002b0: 85f0 b6be ac31 04be 94e8 f6bd 123b 583e
000002c0: 69b8 36be 5441 f0be 484a 47be 0296 8bbe
000002d0: dc1f 553e cba2 92be c002 37be 2913 c8bc
000002e0: 65b5 123e 9b3d 9b3d 9611 523e 74b8 07be
000002f0: 4017 313e c29d a9be 824a 743e 3f3f ae3d
00000300: 27fa acbe 5e9f 8e3e 12ab 2ebe 4a04 bc3d
00000310: a4c2 e0bd 47b5 5c3e 5b3d 14be 79f8 1f3e
00000320: 67a2 203e 7f5b 103e 1253 f63d 03c2 cbbd
00000330: 94b5 80bd 9b42 5a3e c8bb fc3c 23b7 7c3d
00000340: 53aa 7e3e 8446 423e 0cc6 4ebe b525 a13c
00000350: c9b5 823e e38a 8f3e 450a b93e 3deb 863e
00000360: efaa 05bf b39e 333e 34ca 4fbe 97d8 ab3e
00000370: 31ed 573e b0b8 d33d d618 96be 6376 7b3e
00000380: acbb aabe 7cd2 373e 781b 873e e1b1 fa3e
00000390: c890 4fbe 3f43 8d3d 434e 2abe e129 5fbe
000003a0: 90bc 09bf 2e2a fd3d ece1 0bbe 61ed 01bf
000003b0: d02b 43be bb62 9f3e f0f8 7dbe 35f3 93bd
000003c0: f7f5 43be 00fd 9c3e 6996 b5be 5b88 cf3d
000003d0: f0e0 503e 7039 253e 54f6 75bd d62a 273e
000003e0: ae52 a63e a359 94bd b568 163c 2833 6abe
000003f0: 3b96 543e 12bf 733e 489f dbbe 88bd a1be
0.11319915 0.05813322 0.31681675 0.040316302 0.114189 0.047295783 0.373907 -0.14104237
0.2886697 -0.18610577 -0.27639493 0.014712112 -0.3591996 0.08105798 0.18273404 -0.21663311
0.12654704 0.49340373 0.21395206 -0.010105617 -0.13206251 0.18237464 -0.08525344 -0.2576665
0.010262993 0.25807357 0.22816429 -0.6639501 -0.25140047 0.10492345 0.2154827 0.2559501
-0.4016646 0.14110957 -0.17231096 -0.26418892 -0.079808675 0.30982205 0.19477656 0.094580114
0.24965726 0.13227409 0.19688751 -0.13431764 -0.2796144 0.1871364 0.016727742 -0.29799312
0.05657608 -0.055830628 0.03558256 0.065022126 0.28463268 -0.13661729 0.390241 0.5306632
-0.22111562 -0.17250043 -0.30005985 -0.041810233 0.005549365 -0.09208907 -0.038162593 0.12824528
-0.35794008 -0.36159384 -0.09603343 0.14267533 -0.12874916 0.26560915 -0.03440599 0.29101506
-0.26765615 0.19494872 -0.08818632 0.2852661 -0.07481387 0.3916772 -0.20023528 0.049345896
0.011502472 0.16142018 0.40686244 -0.09685439 0.4492708 -0.04348877 0.24419156 0.16872683
-0.110243596 0.1627914 -0.18512155 -0.11930587 -0.34643614 0.1426692 0.23083082 0.0451928
0.032337006 -0.16074817 0.08420456 0.21155421 0.06652027 0.20502703 0.006112464 -0.18949263
-0.09924078 0.4463699 0.22970562 -0.05353974 -0.31828678 0.111921 0.21407847 -0.06781964
-0.1146119 -0.019090667 0.27643058 -0.04774585 -0.40034807 0.3216642 -0.15885136 0.15623868
-0.1696185 -0.34802386 -0.07982887 0.033528216 0.55351144 0.1610767 -0.5282778 0.278697
-0.23214847 -0.1510076 0.10274635 0.23981968 -0.45389646 0.0059925765 -0.09319773 -0.258382
-0.16095231 0.31875584 -0.0779102 -0.21964645 -0.2248183 0.111607276 0.59967166 -0.14214176
0.1425213 0.32218903 0.30125406 0.03646448 0.04014719 0.21283507 -0.19403444 -0.08081547
0.50311816 -0.21014008 -0.109372176 -0.008623562 -0.0817803 -0.004682058 -0.106656775 0.06520727
0.090666294 -0.2511809 -0.19577327 0.22014263 -0.37859043 0.03397028 0.066644154 -0.25831056
0.19240974 0.2137213 0.0060066506 0.025989082 -0.35730377 -0.12909573 -0.120560795 0.21116284
-0.17843784 -0.4692484 -0.1946193 -0.27262884 0.20812935 -0.28639826 -0.17872143 -0.024423199
0.14327009 0.0758011 0.20514521 -0.13253957 0.17294025 -0.33128172 0.23856547 0.08508157
-0.337846 0.27855963 -0.17057446 0.091805056 -0.10974625 0.21553527 -0.1447653 0.15622129
0.15686952 0.14097403 0.12027563 -0.09949114 -0.06284633 0.2131447 0.03085126 0.06169809
0.24869661 0.18972212 -0.20192736 0.0196713 0.25529316 0.2803565 0.36140648 0.26351348
-0.5221395 0.17541008 -0.20291978 0.33563682 0.21086575 0.10337961 -0.29315823 0.2455688
-0.33346307 0.17951387 0.26388144 0.48963836 -0.20270073 0.06897592 -0.16631417 -0.2179332
-0.5380335 0.12361561 -0.13660401 -0.50752836 -0.19059682 0.31130013 -0.24801993 -0.072241224
-0.19136797 0.30661774 -0.35466316 0.101334296 0.20398307 0.16135192 -0.06004937 0.16324934
0.32484955 -0.07243659 0.009180238 -0.22871077 0.20760433 0.23803356 -0.4289496 -0.31589913

linear.bias f4 [32]
00000000: 71dd 9cbd 99f3 3a3e 4f79 86be 2889 073e
00000010: e63c 6bbe 813a a23e 2735 9f3d cca0 1cbe
00000020: ac66 89bc 3fd5 c3bc fc95 8fbb b13c 1a3c
00000030: 0b73 c1bd 0bb1 4f3e 9925 d13d cfb4 64bd
00000040: 60ce eabb 57e9 943e 3023 8dbe 49b3 3d3e
00000050: a8f7 4abe a24d 1d3e b1a7 6e3e 2012 47be
00000060: 918b 95bc fdb5 3a3e d075 20bd ca6e 30be
00000070: 4940 9a3d 5bf2 85bd a09f 123e 85de 8abd
-0.07659424 0.18256988 -0.26264426 0.13235915 -0.2297245 0.3168526 0.0777381 -0.15295714
-0.01677259 -0.023905395 -0.004381893 0.009413884 -0.09445771 0.2028238 0.10212249 -0.055836495
-0.007165715 0.29084274 -0.27565908 0.18525423 -0.19821036 0.15361646 0.23306157 -0.19440508
-0.018255027 0.18233486 -0.039174855 -0.17229763 0.07531793 -0.06540366 0.14318705 -0.067807235

hidden_layers.0.weight f4 [32, 32]
00000000: 0412 13be 2224 45be 78c6 06bd 58b9 00be
00000010: 09cf 40bd b68e a53e 8f48 b5bd 524b 0d3e
00000020: c008 173d 91b8 2b3d 40e0 c2bd 92f6 353e
00000030: 25f3 7f3d 8412 aa3d 796f 283e 6854 81bd
00000040: b019 11be 39be ff3d fb42 53bd f038 3bbe
00000050: 2a31 a73c 2e21 c1bd 4d2f 79be 6157 beba
00000060: 4d7a 11be 2eb6 973d f131 853d 5ffe 1cbe
00000070: 9f6c f2bc 9bd6 2f3e 7d9e 4c3e 3fd7 383e
00000080: c888 bbbd 6b26 df3c b38b 233c bd98 4a3e
00000090: 2101 49bc 35f9 0c3e 8241 d2bc 343c e1bd
000000a0: 52fa c6bd a48c b33d ff35 eebd 9fb8 41bd
000000b0: b17f a93d 8b7b f03c 02f1 743c 61da 91bb
000000c0: 2c83 debd 6cef 0d3e f692 60bd c042 d93d
000000d0: 6391 c6bc 5e50 e3bc 6099 d53d ced0 3f3e
000000e0: cfee f13d 7c7b ad3c bf60 ac3a fb40 88bd
000000f0: e0b6 45bd 9ff8 903c 5671 403c c355 d23c
00000100: d4b8 d83d 4a1b 373d 1dfc f5bd 499b 1d3e
00000110: b327 af3c 9fb3 dbbd ec0a dc3d 379e 173d
00000120: 47d0 dabd ab4c 23be 5e21 04be 70b1 f33d
00000130: ba09 04be d58f 8ebd d569 d1bd 7bdf 0bbd
00000140: aebf 0d3e 870d 7dbe 496a 373d 0a2f ee3d
00000150: 9a96 a03d a01c 97bd 6c3a 953d b388 d93d
00000160: e895 8cbc 57c1 01be 5bbc 26bd 3cba 143d
00000170: f8bb adbe dcda 493d fddd 353d 6492 a0bd
00000180: 73ef bb3d 209c 97bd 4af0 963d 246b cb3d
00000190: 48f6 053d 3676 453e 4ec2 4bbc 2662 ccbd
000001a0: bca9 77bd 52fb f2bd 1f34 b13d a403 f63d
000001b0: 7ebb 153e 4561 25be b3f5 3c3d 348b 523d
000001c0: 8442 b13d e656 28be d4cd 983a f32b 5ebe
000001d0: d738 c63d 42fe c33d a8c1 c13d bf89 c0bd
000001e0: 902d d1bd 9a54 20be 3b1a adbd f97f efbd
000001f0: 1e60 efbc 410a ae3d 0a83 9cbd dd25 493e
00000200: a04b b7bd e3fd 4cbd 6f0a a1bd b90a 44be
00000210: d636 6b3d 3d92 b53e 2343 01be a260 023e
00000220: a9d4 723e 68ce 613d 8e55 f83d e394 07be
00000230: e6a8 1f3d 5819 2d3d f515 503e d22b f43d
00000240: fcb3 49bd a0de 0bbe b22a b13c 8dca 8fbc
00000250: 083b d33d d6f5 c03c 6409 9f3d ba9c d4bd
00000260: da54 8fbd 5921 7c3d 069c 503e 5dff 1a3e
00000270: 6faa 26be ba73 94bd e688 5a3e 4e7e 3ebd
00000280: 60f6 7c3c d51f 163e 97f3 413d 1918 053e
00000290: c7a3 193e d9ae 1a3e 80a4 d83d a0d9 013d
000002a0: 1359 ad3d 3f4d 0cbc 9d2c c63d 1ba5 043e
000002b0: a998 c53d 2e67 f73d 71ac c73c a3d3 bc3d
000002c0: c59a 903d 3dc1 423e fbd8 cd3d dd5c 94bd
000002d0: 44b2 8a3d b0e9 793d a995 0d3e a26d b5bd
000002e0: 7d7d 93bd 443a 283c 5b04 a93d 5116 ff3d
000002f0: 2981 babd d5ac ff3d 97bd 50bd 2f96 0dbe
00000300: dc06 24bd c162 0cbe 1c02 05be 68bb 613d
00000310: 0df6 0a3e e03f 3bbd 78cb 9fbc 254a dfbd
00000320: c508 ba3d 1950 43bd 2304 7e3d 575f 59bd
00000330: 0de6 873d 2d14 9b3d 1d36 673d 9e84 b03d
00000340: 308b 22be 8571 18bd 5631 d5bd 6d89 c83d
00000350: 7249 febd fe44 a4ba d80c 11be 8600 23bd
00000360: 5169 85bd 552e c73d ea2f 413e 8dd0 64bd
00000370: d5c9 4abe d00b 373e 0e0b d83d 1db0 923d
00000380: 7dc9 16be 306c 2ebc fdc2 00be dd2c 1f3e
00000390: 83c9 c13c 8103 403d a1da debd ef44 d3ba
000003a0: a830 2abe 6168 193e 9542 85bd 5e1d 86bd
000003b0: 7044 853d c2d9 133e 0f0d ae3d 0838 15be
000003c0: 2221 ff3d 3b0f e13d 43a6 41be d35b 093e
000003d0: 39f1 52be 6c8c 283e 5f21 943d 4e78 64bd
000003e0: 8980 eb3c 20e9 ddbd 6e9c f73b 5803 01be
000003f0: adba 033e 8e91 a03c 0895 de3d 59b8 aabd
-0.14362341 -0.19252065 -0.03290412 -0.12570703 -0.047072444 0.32335442 -0.0885173 0.13798264
0.03687358 0.041924063 -0.095154285 0.1776984 0.06248774 0.08304313 0.16448773 -0.06314927
-0.14169955 0.12487454 -0.05157755 -0.18283439 0.020409185 -0.09430157 -0.2433445 -0.001452189
-0.1420681 0.07407795 0.06503666 -0.1533141 -0.02959281 0.17171709 0.19982333 0.1805086
-0.09156948 0.027239999 0.009982037 0.19784828 -0.012268336 0.1376694 -0.025666002 -0.10997811
-0.097157136 0.087670594 -0.11631393 -0.04729521 0.08276308 0.029355785 0.014950039 -0.0044510816
-0.10864863 0.13860863 -0.054827653 0.10608435 -0.024239248 -0.027748283 0.104296446 0.18731996
0.11813127 0.021177046 0.0013151391 -0.06653019 -0.048270106 0.017696677 0.011745771 0.02567566
0.10582128 0.04470376 -0.120109774 0.15391268 0.021381235 -0.107276194 0.10744271 0.03701612
-0.10684257 -0.15947215 -0.12903354 0.11899078 -0.12894335 -0.069610275 -0.10225264 -0.034148674
0.13842651 -0.24712192 0.044779096 0.11630066 0.07841225 -0.07378507 0.07286534 0.106217764
-0.017161325 -0.1267141 -0.040706974 0.03631042 -0.3393247 0.049280986 0.044401158 -0.07840422
0.09176531 -0.07402825 0.0737005 0.09932545 0.032705575 0.19283375 -0.012436463 -0.09979658
-0.060464606 -0.11864342 0.086525194 0.12012413 0.14622304 -0.16150387 0.046132755 0.051402286
0.08655265 -0.16439399 0.0011658021 -0.21696453 0.0967881 0.0956998 0.09460765 -0.09401273
-0.102137685 -0.15657273 -0.08452269 -0.11694331 -0.029220637 0.084980495 -0.07642181 0.1964335
-0.08949971 -0.050046813 -0.07863318 -0.19144715 0.057425343 0.35463133 -0.12623267 0.12732175
0.23713936 0.055128485 0.12125693 -0.1324039 0.038979433 0.042260498 0.20320876 0.119224206
-0.049243912 -0.13659143 0.021626804 -0.017552638 0.10313994 0.023554724 0.07765463 -0.10381456
-0.06998606 0.06155524 0.20372018 0.15136476 -0.16275953 -0.072486356 0.21341285 -0.046507172
0.0154396 0.1466058 0.047351446 0.12997474 0.15003882 0.15105762 0.10578251 0.031701684
0.08464255 -0.008563339 0.09676478 0.12953608 0.09648258 0.12080227 0.024374219 0.09220054
0.0706077 0.19019027 0.10051151 -0.07244275 0.06772283 0.061013877 0.13826622 -0.088588014
-0.07201669 0.010267798 0.08252784 0.124554284 -0.091066666 0.12484137 -0.050962057 -0.13826822
-0.040045604 -0.13709547 -0.12989086 0.055110365 0.13570423 -0.045715213 -0.019506201 -0.10902814
0.09083704 -0.04768381 0.062015664 -0.05306944 0.066356756 0.075722076 0.05644809 0.08619045
-0.15873408 -0.037217636 -0.10409801 0.09791837 -0.12416352 -0.0012532768 -0.14165056 -0.03979542
-0.06514228 0.09725634 0.18865934 -0.055862952 -0.19803555 0.178756 0.105489835 0.07162497
-0.14725299 -0.010645911 -0.12574382 0.15544458 0.023655659 0.04687834 -0.10881544 -0.0016118566
-0.16620123 0.14981224 -0.0650684 -0.0654857 0.06507194 0.14438537 0.084985845 -0.14572155
0.124574915 0.10989233 -0.1891108 0.13413934 -0.20599832 0.16459817 0.072329275 -0.055778794
0.028747814 -0.10835481 0.0075564897 -0.12598932 0.1286418 0.019600656 0.10868269 -0.08335943

hidden_layers.0.bias f4 [32]
00000000: a9a0 063e d7b6 253e 6fc9 ea3d 6828 9d3c
00000010: 43c3 753d 2d4d 003e 8639 0e3e a9c0 68bd
00000020: 75c2 34be bb59 b13d 332b 3f3e a8ae b4bc
00000030: bfe0 c9bc 9e9f 3cbd 9ba4 babd 6a52 083e
00000040: 7a49 033e 816f 1d3d f345 c63d 63a9 c2bd
00000050: f33a 523d 9f27 cfbd e591 41be 966e a53d
00000060: bd4a adbd 9aef 0f3d 1e73 803d 47f5 47be
00000070: 0569 ab3b cc1f 67bc b5c9 c8bc 510a d83d
0.13147224 0.16183029 0.11464202 0.019184306 0.06000067 0.1252944 0.13889131 -0.05682436
-0.17652304 0.08659693 0.18668823 -0.022055939 -0.0246433 -0.04605066 -0.09113427 0.13312688
0.12820998 0.038436417 0.096813105 -0.09504964 0.05132575 -0.10114979 -0.1890331 0.08077733
-0.08461521 0.03514061 0.06271957 -0.1952716 0.005231025 -0.014106702 -0.024510244 0.10548843

lstm.weight_ih_l0 f4 [400, 32]
00000000: 015c b0bd 8fd3 a2bd 3571 95bd ce39 ab3c
00000010: 919f cc3c 7ae1 3fbd 8fcf edbd 1e2b 6cbd
00000020: ad38 e23d f6fe 013e 2e23 80bd 8e04 bb3c
00000030: 2e97 2a3c 45b3 21be 4a3b 8a3d a771 b93d
00000040: a917 9c3c 2a2c c33d 8b14 1a3d 9007 f1bd
00000050: 8f28 25bd f398 9bbd 435f 9d3d 7aef 0c3d
00000060: 6ca4 cfbd 77aa ab3d e5b6 03be 8d01 30bd
00000070: bff7 5abd 6318 babd a360 b7bd fa8e 95bc
00000080: f61c adbc d9e8 8d3d b1b1 c1bc 46f9 0d3c
00000090: b796 7a3c 2bfd 003d a503 20be 164a 583d
000000a0: af80 1d3d 935b 433c 5932 10bd 64e8 d7bc
000000b0: a7d3 ac3c 482f e8bc 7c7f 133d 7c2e 8c3c
000000c0: badd a23a 08c1 70bc 467e 90ba fb69 aabc
000000d0: bca0 f9bc 7a69 8b3c 266c f0bc e09a 50bc
000000e0: ee2f 253d 68be 51bc cc2b 7fbd 14bf 813d
000000f0: 5af9 1ebd 9643 b33d ba59 993c f331 303d
00000100: ce66 cebd da7d f33d 0f19 1abd 7b94 0dbd
00000110: f8a0 0b3e 3f0d 0d3d 6621 b93c a25a f03d
00000120: 80e3 0f3e e512 563d 28b4 a3bd a04c cb3d
00000130: 881b 1d3c 18cb 1bbe bdd1 79bd 3686 bf3d
00000140: 03a4 03bd 03a9 0f3d 26d4 9e3d 71a9 a0bd
00000150: 31a3 9e3d 7594 333d 92bc 85bc 1dc0 16bd
00000160: be56 903c 51f8 9d3d b097 9ebc 015e e5bd
00000170: af7b 293c a20b 91bd 5fe4 993d bd5d bd3c
00000180: 21d3 48be d4c2 8b3c ab0e 30bb 48d7 67bd
00000190: abef f5bd fd61 cf3d 0a38 13bc c39c 493c
000001a0: ad67 263e ef95 1d3e c803 04be c439 2d3d
000001b0: bba6 59bd 6d04 1ebd 40ca e23d 33a1 ea3b
000001c0: 954a b1bd b634 c43d 78a6 e23d 6a47 03be
000001d0: f573 c4bd e64b 8a3d 8cad a03d 0532 bd3c
000001e0: 2892 8bbd 6973 cfbc a48b 09be 10b7 6f3c
000001f0: bd11 01be 3d6c 47bd da65 dcbc f080 9bbd
00000200: 0a4a afbd 62d1 9fbc e599 6f3d 02d7 173c
00000210: 479f bf3c 93dc ef3c b1a4 a5bd 8d8c 983d
00000220: 999a d43d f5c0 003d 2cd7 46bb 00d4 c93b
00000230: 059e dfbd 2540 6ebd a6ee e73c 2758 d9bd
00000240: 4428 6e3c 4fc2 f53d 7edb 2a3d 4b0c 873d
00000250: fa54 023d 1b4d cc3d 38cf 723d 07ac 9ebc
00000260: e39c 7dbd 9f03 af3c 6533 16be 35a8 073b
00000270: 9ced d6bc 1014 a1bd 0330 c03b ce87 fc3c
00000280: 5490 aa3d 4245 c93d a327 ef3c c777 2fbd
00000290: 1d9a 963d 2ee0 b23d c120 d03d 7b57 cfbc
000002a0: 5993 2fbd 5c60 d7bd 4c4f a63d 6310 ccbd
000002b0: 3474 a7bd 3917 203c ed3a c5bd 4e03 693e
000002c0: 5432 87bc ed74 273d 59d6 88bc 1ca2 90ba
000002d0: 30bb 49bd bf5b 9d3c 09fe 9a3d 51cd 493d
000002e0: 3eb0 33bd d576 99bc 32c3 8fba 3a07 633c
000002f0: 4af0 e93d 5d5c b0bb 25de efbd 933f 063e
00000300: 1640 a83c c22e 973d 51f4 38bd 41b0 e8bb
00000310: 9916 bfbd dd63 39be 06d3 a3bd b8d4 c63d
00000320: 3071 a3bc 2d32 b9bc 593a cebd 0f48 4dbc
00000330: 557f a6bd 6141 d8bd 2415 d5bc 297d 56bd
00000340: 8084 4f3d 7494 383d 6cf4 b33d 050f d0bc
00000350: 8ddd 3bbe 078d c6bc 8def 1d3e 16a4 3bbd
00000360: 525b 2fbd 17f5 a63d 1cad 803c 0a98 093e
00000370: 685b e93c e774 02be 3c11 b33d 4b90 9bbd
00000380: 7458 9e3c 1ceb 9c3d 95fa e0bd bda8 40bd
00000390: 6b2a 14bd b472 86bc 42ea 6cbd 2e52 083e
000003a0: 23f5 263d e9d5 51bb f7c8 75bd 8639 1b3d
000003b0: db7e c13c c0f9 a1bd 3f26 a8bd 8aae 0ebd
000003c0: d17f 813a 3c71 fa3d 0374 fc3d 81a8 e7bc
000003d0: 678d e0bd a67d b73d 6fb8 023e 99b2 8dbd
000003e0: cba2 763d 3f43 74bc 5843 92bd 0c67 783d
000003f0: 434f c9bd 1d1d 15be 3e66 7a3c bdc3 973c
-0.08611298 -0.07950508 -0.07296983 0.020901587 0.024978431 -0.04684589 -0.11611854 -0.057658307
0.11045966 0.12694916 -0.0625671 0.02282932 0.010412021 -0.15791042 0.0674959 0.090548806
0.01905425 0.09529908 0.037617248 -0.117690206 -0.040321883 -0.07597532 0.07684185 0.03440807
-0.10138783 0.08382123 -0.12862737 -0.04297023 -0.053458925 -0.09086683 -0.08953979 -0.018256653
-0.021131974 0.06929178 -0.0236443 0.008665388 0.015294722 0.03149144 -0.1562639 0.05280503
0.0384528 0.011923688 -0.035204265 -0.02635593 0.021097017 -0.028342858 0.03601025 0.01711201
0.0012425699 -0.01469446 -0.001102396 -0.020802489 -0.030472152 0.017018069 -0.029348444 -0.012732238
0.040328912 -0.012801744 -0.062297627 0.063352734 -0.03881202 0.08753125 0.018719543 0.043016385
-0.10078202 0.11889239 -0.037621554 -0.03456543 0.13635623 0.03443646 0.022598933 0.11736037
0.14051628 0.052264113 -0.079933465 0.099267244 0.0095890835 -0.15214193 -0.060991038 0.093517706
-0.032138836 0.03507329 0.07755308 -0.078448184 0.0774597 0.04384275 -0.016325269 -0.036804307
0.017619487 0.07713378 -0.01935944 -0.111995704 0.01034443 -0.07082297 0.075142615 0.023115987
-0.1961179 0.017060675 -0.0026864212 -0.056601793 -0.12008604 0.10126112 -0.008985529 0.012305441
0.16250487 0.15389226 -0.12892067 0.042291418 -0.053137522 -0.03857844 0.110737324 0.0071603297
-0.086568035 0.09580366 0.11066908 -0.12820211 -0.095924295 0.06752758 0.078456014 0.02309514
-0.068149865 -0.025323587 -0.13432175 0.014631048 -0.12604423 -0.04868721 -0.026904035 -0.07592952
-0.08559044 -0.019509021 0.058496375 0.00926757 0.023391379 0.029279983 -0.08088053 0.07448683
0.1038105 0.03143402 -0.0030340655 0.0061593056 -0.10918812 -0.05816664 0.028312039 -0.10612517
0.014535967 0.11999952 0.04171323 0.065941416 0.03181932 0.09975644 0.05927965 -0.019369138
-0.061917197 0.021364031 -0.14668043 0.0020699624 -0.026236348 -0.07865155 0.0058650984 0.030826475
0.0832831 0.09827663 0.029193705 -0.042838838 0.073536135 0.08734165 0.10162497 -0.025310269
-0.04286513 -0.10516426 0.081205934 -0.09964063 -0.08176461 0.009771162 -0.0963038 0.22755167
-0.01650349 0.040882993 -0.016703771 -0.001103464 -0.04925078 0.019208787 0.075679846 0.04926807
-0.04386925 -0.018733421 -0.0010968207 0.013856703 0.114227846 -0.0053821043 -0.117122926 0.13110189
0.020538371 0.07381965 -0.045154873 -0.007101089 -0.09330482 -0.18104501 -0.07999234 0.09708542
-0.019951433 -0.022606933 -0.10069723 -0.012529387 -0.081297554 -0.10559345 -0.026011057 -0.052365456
0.05066347 0.04506345 0.08786854 -0.025397787 -0.18346234 -0.024237169 0.15423413 -0.04581078
-0.0428117 0.08152216 0.015707545 0.13436905 0.028485969 -0.12739907 0.087435216 -0.07595881
0.019329287 0.07662031 -0.10985295 -0.04703592 -0.036173265 -0.016412117 -0.057840593 0.13312599
0.040761124 -0.003201837 -0.060006108 0.037896655 0.02362006 -0.07908964 -0.0821042 -0.034834422
0.0009880011 0.12228629 0.12326815 -0.028278591 -0.1096447 0.089595124 0.12765668 -0.069188304
0.060213845 -0.014908611 -0.07141751 0.06064515 -0.09829571 -0.14561887 0.0152831655 0.018525952

lstm.weight_hh_l0 f4 [400, 100]
00000000: b41b 33bd 7396 dc3d ff8b 7c3d a045 dd3d
00000010: f0b7 2f3e a2a6 e63c 06e9 28bd a434 793d
00000020: e45f 12bd e0bf cc3d c932 d7bc 945a 30bd
00000030: 4aa1 873d e937 2bbd 0e7e babd 240d f03c
00000040: f7c2 2a3d 5fc1 ec3c 6205 8fbd 8740 8c3d
00000050: eef2 8c3d 88cd 2d3c bf9c 0ebd 891d 6b3d
00000060: 7c46 7f3d 082f 31be d795 bdbd 3df3 a03b
00000070: 1c1d 36bd 44ec e2bd 1ed3 1c3d 90d3 49bd
00000080: 14ad 0fbe 6340 3f3c 5e0c 6dbd 33d5 013d
00000090: 42ab efbc 593f b03d 1da7 a23d d76f 7fbd
000000a0: 9362 c63d 4c44 823d f045 66bd 6762 8cbd
000000b0: f706 073d 10d0 903d b7a0 b4bd f0c1 4b3d
000000c0: ee3f e4bd 3220 9f3d 1d63 9fbd b875 e8bd
000000d0: 6f2c 69bd 725f e03c df89 8abd f22a dd3d
000000e0: ecbb 0c3d f00a 2ebc 66a5 113d 63bf aa3d
000000f0: 456e 4d3c 90d7 c13d a8fd cbbd 991c 613d
00000100: cd31 8aba fffd 8a3d e699 c63d 32f4 09bd
00000110: f9c3 ac3d 1d0f cd3d 6fe3 d4bd 320f 1c3d
00000120: 440f f2bc 8562 1c3d 787b 69bb d3c9 5dbd
00000130: 6cd6 ea3c 21f2 4b3d 39b8 91bd 351a ee3c
00000140: 90dc 38bd 8e3d d83d 11b0 b8bc 05b8 b13d
00000150: c1d7 9ebd c683 ba3d 67b9 82bc 74e7 1fbd
00000160: 0c26 37bd 18cc dbbd 31d5 b83d 68da 75bd
00000170: 7941 023c 3c68 ad3d a709 00bc 7d8a 84bd
00000180: 62d4 2f3c 4fd0 d53d a94c 0a3d 31c8 0cbe
00000190: 24a5 c5bd ec48 fcbd 67fe 55bd b68d 0fbd
000001a0: 415d 40bc 6730 783c af20 93ba a3f4 ae3d
000001b0: 6ae2 9bbd 3f57 3b3d 26fb d4bc 1e04 2d3d
000001c0: 90b9 97bd cadf 79bb 2032 0dbe 96b6 36bd
000001d0: 02d6 e1bd 86a7 8cbd 5173 1ebd 83a7 1d3d
000001e0: 9a2e b23d ab22 99bd 9790 b3bd 608e e6bd
000001f0: 366c bf3d 925b b3bd 4987 983d a325 053c
00000200: f499 263c 505b d1bd cfdf 0e3e eb1d 653d
00000210: 290e 563d 4830 5e3c 155d 0c3d d8d8 b1bc
00000220: afa0 b33d 319e ef3d 11c7 283d c1c9 1b3d
00000230: 8210 b83d e9cf cf3c 982a debd ab28 8bbd
00000240: 770b d43d 37c9 d73c 9300 90bd fb1d 8b3d
00000250: dc19 ae3c 43f6 1d3e ce7a abbd 047c e2bc
00000260: 340f 58bd b946 c63c abe1 b1bd c01a c23d
00000270: 8dae 023d 03bd 813c 0a1c 01be 8e6c 6e3d
00000280: b697 62bd d55d e4ba d0ad 163e c341 63bd
00000290: c896 1f3d 1367 36bd 51fa fabd 3bdd 17bd
000002a0: 3d19 8839 496a 253e 92f9 9c3d db50 9cbd
000002b0: 5a86 063d 046d dabc c205 cbbc b247 ce3c
000002c0: 129f a7bd 5cac 523d 07aa 4bbd cc00 fb3d
000002d0: 95d7 953d 7871 d63c cef6 963d 0e3f c5bb
000002e0: decb 063e 67f5 37bc c0a1 e6bd 3d65 a93d
000002f0: 2c94 86bd 921b 1c3d 8f9c 23be ef11 e2bd
00000300: 1d80 1fbd f816 d23d f509 e33c 7a9d dbb9
00000310: 6a05 b13c 0e5a a5bd 5da6 603c a9fd 21be
00000320: 680e 92bd 82bc 98bd 2464 34bc 1d6c c9bd
00000330: 9806 093d c320 b63d b8d3 ac3d 6b8e 0d3e
00000340: cbd8 e4bd adbe a53c 5547 0b3e 1980 663d
00000350: 8b99 05bd a2b0 4e3b a0cb 36bd 2e4b afbd
00000360: 590c 13be 27d8 ae3d c00b d3bd 62c6 563e
00000370: 87c2 61bd edc1 40bd 246e 413d b605 4bbd
00000380: 6154 e2bc f7b3 233b ce69 683d a0cc e03d
00000390: 04dd d5bd fa18 833d e041 923d c5ba 473d
000003a0: 350d cabc ddab 563d 4253 af3b 19b6 a33d
000003b0: 21d7 ad3d b59f e0bb c69d 88bc 8db7 9bbd
000003c0: 3eb7 33bc d586 d93c 2807 d83d 1418 573d
000003d0: 5c74 013d f74d 86bd 3910 f73d 4511 d63c
000003e0: 8284 663e 8a13 d83b 26ba c4bd 71da 92bd
000003f0: 30a4 0bbe dfe7 1d3d c575 073d 5a82 943d
-0.04372759 0.107708834 0.06165695 0.108042955 0.1716001 0.028155629 -0.041237853 0.060841218
-0.03573598 0.09997535 -0.026269333 -0.043055132 0.0662256 -0.041801367 -0.09106074 0.029303141
0.04168984 0.0289008 -0.069834486 0.06848245 0.06882273 0.0106080845 -0.034817453 0.057401214
0.06232308 -0.17303097 -0.09257095 0.0049118088 -0.044461355 -0.1108022 0.038287275 -0.049274027
-0.14030868 0.011673066 -0.057873122 0.031697463 -0.029256467 0.086058326 0.079420306 -0.06236252
0.0968677 0.06360683 -0.05621904 -0.06854706 0.032965627 0.07070935 -0.088197164 0.0497455
-0.11145006 0.07769813 -0.07782576 -0.11350578 -0.05692714 0.027389262 -0.06764578 0.10799207
0.034358904 -0.010622725 0.035558127 0.08337285 0.012538497 0.094649434 -0.099604905 0.054958913
-0.0010543406 0.06786727 0.096973225 -0.03368015 0.08435816 0.10012648 -0.10394942 0.03810043
-0.029548295 0.038179893 -0.0035626572 -0.054147553 0.028666697 0.04979146 -0.07115216 0.02906523
-0.04513222 0.105586156 -0.022544893 0.08677677 -0.077559955 0.09107165 -0.015957547 -0.03903909
-0.04471402 -0.10732287 0.09025038 -0.06002274 0.00795018 0.08467147 -0.007814801 -0.06471727
0.010731788 0.10440122 0.033764515 -0.13748242 -0.09650639 -0.12318596 -0.05224457 -0.035047255
-0.011740983 0.015148259 -0.001122495 0.085427545 -0.076115444 0.0457375 -0.025998663 0.042240255
-0.0740844 -0.0038127773 -0.13788652 -0.04460772 -0.11027147 -0.0686789 -0.038684193 0.03848983
0.08700295 -0.074773155 -0.08767813 -0.112576246 0.093468115 -0.087577 0.074476786 0.008126649
0.010168541 -0.102224946 0.13952564 0.055936735 0.052259598 0.013561316 0.034268457 -0.021709844
0.08770882 0.117000945 0.04120547 0.038034204 0.089875236 0.025367694 -0.10847968 -0.06794866
0.10353749 0.026341064 -0.070313595 0.06792828 0.021252565 0.15425973 -0.083730325 -0.027647026
-0.052748874 0.024203645 -0.08685621 0.094777584 0.031904746 0.015837198 -0.12608352 0.058208995
-0.055320464 -0.0017422984 0.14714742 -0.055482637 0.038962156 -0.044531893 -0.12254775 -0.037076216
0.00025958745 0.16153826 0.07664789 -0.076326095 0.03284297 -0.02666331 -0.024783019 0.025180671
-0.08184637 0.051433906 -0.049722698 0.12256011 0.0731651 0.026177153 0.07371293 -0.0060194796
0.13163707 -0.011227942 -0.1126132 0.08271263 -0.0657123 0.03811223 -0.15977691 -0.11038577
-0.038940538 0.10258287 0.027714709 -0.00041888264 0.021609027 -0.08073817 0.013711539 -0.1581942
-0.07131654 -0.0745783 -0.0110102035 -0.09835074 0.033453554 0.088929676 0.0843882 0.1382386
-0.111741625 0.020232523 0.1360143 0.056274507 -0.032617133 0.0031538387 -0.044627786 -0.08559261
-0.14360179 0.085373215 -0.103049755 0.20974115 -0.055117156 -0.047059942 0.04722418 -0.049565993
-0.027628126 0.0024979094 0.05674153 0.10976529 -0.10442546 0.06401248 0.07141471 0.0487621
-0.0246645 0.052409995 0.0053505013 0.07993717 0.08488298 -0.006854976 -0.016676795 -0.07603369
-0.010968981 0.02655355 0.1054824 0.052513197 0.03160511 -0.06557839 0.12063641 0.026131282
0.22511485 0.006594126 -0.096058175 -0.07170571 -0.13636851 0.038551208 0.0330713 0.07251425

lstm.bias_ih_l0 f4 [400]
00000000: db77 8c3c e02f f4bd 7905 3dbd 7e52 55bd
00000010: c6dc 66bd 6e2f 7c3d 066d 0ebe 690a fcbc
00000020: ae5b abbd cdc7 20bd 30f9 5dbd b271 e3bd
00000030: 9aeb 00be 917f 753d e3fb bebd bfe9 96bd
00000040: 1773 e43a dc64 adbc a703 e1bc f88a 31bb
00000050: e0db 3ebd ecbc a8bd 9066 c7bd 00dc d3bd
00000060: 6804 1fbe 5bde 84bd 6cb6 443d 4acb 763d
00000070: 0d0d 6a3d b3b0 d7bd fd08 cbbc d4a0 4f3d
00000080: 75d9 ee3c ccc9 b6bd f545 acba d9d0 cebd
00000090: de6f 83bd e46a 32bc 92ec 413c 229a 90bc
000000a0: e6bc bf3c 8bb3 4fbd 2423 7f3b 4e37 7bbc
000000b0: 3720 493d 2b33 8fbd 409b b2bd d791 1fbd
000000c0: 72db 10bd fa92 07be e6e1 0c3c e31c 4bbc
000000d0: f5e5 bc3c 1b5e 0cbd 1cef c03a cc3e d1bd
000000e0: f7fa 133d 41d8 5e3c 3663 b33d a02d e13c
000000f0: 45a1 7fbd 2970 c5bb 251c 0cbe 195f c73d
00000100: 276d d6bd 8715 1e3d 82c4 28bd 02c9 8a3d
00000110: a8ce 51bc f593 68bd 445a 6fbb 46cb 44bb
00000120: 014d ce3c a0b4 76bd c08c a5bd ef85 83bc
00000130: 0ac4 1e3d 5924 80bd b443 673d 1a00 ac3d
00000140: 3ad6 0c3d 197d dcbd 38d9 adbd a18a a83d
00000150: 9ff1 733d 0125 3cbd 2c9f dfbd fe27 b6bc
00000160: 8a07 c63d 96e0 e93a 5389 05be ced1 a23c
00000170: ede5 19bd b96b f1bd a97b 88bc 2034 093d
00000180: 8278 453d bd14 993d cddb c7bd ba6b 54bd
00000190: d30c 823d c0ce 8b3b 050b 16bd 405a 0c3d
000001a0: 5012 9d3d 4433 923d 5bcd 5f3d 0b8d 73bd
000001b0: c27b b7bc 17fe c4bd 39f0 d93d 373c 8b3d
000001c0: aff2 6cbd 7ffb 303d 0a49 80bc 2402 933d
000001d0: 8106 b9bc 1754 0fbd 911f 953d f136 0c3e
000001e0: d524 223d ed62 1ebd 9e13 fa3b 4e95 8b3b
000001f0: 1de2 ef3c ce4b 1dbc cb5e d4bb 89ad 433c
00000200: 4a92 d53c 4f5a 4fbc dac8 e73d c1ba f1bc
00000210: a6c0 c9bd 969c 0cbc a1f3 13bd 343c c3bc
00000220: 0ecd 3e3d e535 47bd 86b5 903d 85c5 0f3d
00000230: 6606 cfbd baed f9bc 8efa f73d ca00 9f3c
00000240: 27f2 043e cfae 6a3b aca0 e23b 9061 403d
00000250: ad82 8e3c 0568 15bd 6b88 3b3d 05b2 a3bd
00000260: f6e6 aebd 2888 2b3d e110 91bd c4cd c9bd
00000270: f165 833c 78ed 2abd 075f 1abb a295 8fbc
00000280: 50f9 ed3c 4990 413d 32a0 87bd 027a 0b3e
00000290: 766f ccbb 59a1 d6bc 0fca 2d3d ae52 dc3c
000002a0: 410c 9bbc 9aef 973d 4faa 633d 7b03 04bd
000002b0: a9b2 16bb 9e85 31bd f2e4 a8bc 689b ba3d
000002c0: 7309 943d be31 d8bc 0e67 023d 891d 223e
000002d0: 3e13 1a3e 1a32 08bd 4c45 0a3e b481 a0bd
000002e0: b550 c4bb bfcd 88bd 07fa 223d 63f2 5cbc
000002f0: 7d3b b33d d3ca 6fbb 3862 74ba fd2a 0e3d
00000300: 7b46 8a3d ccf8 8c3d 7634 de3b 33b4 783d
00000310: ea86 543d 852a b1bd 1a60 a53d 34cf 273c
00000320: 96b3 fd3c 53a6 fbb9 741c c93d 6a27 a83d
00000330: 4d36 a4bd 6d03 703a 2ebc 1b3d a442 e0bd
00000340: 1e1a 93bc c4cd 63bd 3176 aa3d 8dba babd
00000350: 0487 01bb ed03 a0bd b766 4b3c 14a3 583d
00000360: 9c04 603d 64c5 a9bd 4ed6 51bd 1216 2ebd
00000370: 7837 36bd 7415 473d 78c1 9abd 34d8 5a3d
00000380: b2ee 303d 2dbc 2bbc 697a d73c f221 2f3d
00000390: cea9 0abb dfc5 22bc 8715 253d 6904 8dbd
000003a0: d2ba d93c 0089 893d 4037 05bd 89d9 d5bd
000003b0: 3886 59bd c123 c1bd 5698 ec3c 3268 b5bc
000003c0: 4190 a8bd 1f57 f6bc d76e 86bc 0155 e53c
000003d0: e638 ddbd 78f4 b3bd 021a 85bd 0930 e73c
000003e0: 8bff 76bd 705c 79bd 6f47 16bd bef2 05bd
000003f0: 1835 f43d bb8a 54bd 1eab 323d c52f cfbd
0.017146995 -0.11923194 -0.046147797 -0.052080624 -0.05636289 0.06156867 -0.13908777 -0.030766683
-0.08367096 -0.039253045 -0.05419272 -0.1110567 -0.12589875 0.05993611 -0.09325387 -0.07368802
0.0017429319 -0.021166258 -0.027467562 -0.0027090888 -0.046596408 -0.08239159 -0.09736359 -0.10344696
-0.15529025 -0.064877234 0.048025534 0.060252465 0.057141352 -0.105317496 -0.02478456 0.050690487
0.029156426 -0.089252084 -0.0013143407 -0.10098428 -0.06417821 -0.0108897425 0.011836188 -0.017651621
0.023405503 -0.050708335 0.0038930858 -0.01533301 0.049102988 -0.069921814 -0.08721018 -0.038957443
-0.03536553 -0.13239661 0.00859878 -0.012397024 0.02305887 -0.034269433 0.0014719698 -0.10217056
0.03612801 0.013601364 0.08759157 0.027487576 -0.062409658 -0.0060253334 -0.13682611 0.09734935
-0.10470038 0.03859475 -0.04120303 0.067766204 -0.012805618 -0.056781728 -0.0036522308 -0.0030028387
0.025183203 -0.06023085 -0.080834866 -0.016055075 0.038761176 -0.06256933 0.05646105 0.08398457
0.03438399 -0.10766048 -0.08488697 0.08229566 0.0595566 -0.045933727 -0.109190315 -0.022235867
0.09669407 0.0017843421 -0.13040666 0.019875433 -0.03757279 -0.117881246 -0.016660528 0.033496976
0.04821063 0.07474659 -0.097587205 -0.05186055 0.06350102 0.00426659 -0.036631603 0.034265757
0.076695085 0.071386844 0.0546392 -0.05946068 -0.02239788 -0.09618776 0.10641522 0.067985944
-0.05784863 0.043208595 -0.015659828 0.07178143 -0.02258611 -0.034992304 0.072814114 0.13692833
0.039585907 -0.03866856 0.007631733 0.004259742 0.029282624 -0.009600593 -0.0064810268 0.0119432295
0.026070733 -0.012655809 0.11317606 -0.029507997 -0.09851198 -0.008582255 -0.036121015 -0.023832418
0.046582274 -0.048635382 0.07065873 0.03510048 -0.10108642 -0.030508865 0.121083364 0.019409556
0.12982999 0.003580976 0.0069161262 0.046968043 0.017396295 -0.036476154 0.045784395 -0.07992939
-0.08540146 0.041877896 -0.070832975 -0.098537 0.01603982 -0.041730374 -0.0023555176 -0.017527405
0.029049546 0.04725674 -0.06622352 0.13620761 -0.006238873 -0.026199983 0.042429026 0.026894893
-0.018926742 0.07418747 0.05558234 -0.03222988 -0.0022994673 -0.043340318 -0.020616982 0.09111673
0.07228365 -0.026390906 0.03183656 0.1583158 0.15046403 -0.033250906 0.13502997 -0.07837239
-0.0059910663 -0.06679868 0.039789226 -0.013485524 0.08751581 -0.0036589399 -0.0009322497 0.034708966
0.06751724 0.06883392 0.006781156 0.060718726 0.051886477 -0.08650688 0.080749705 0.010242272
0.030969422 -0.00047998372 0.0981988 0.08210643 -0.080181696 0.0009155784 0.03802126 -0.10950211
-0.01795679 -0.055616155 0.083233245 -0.09117613 -0.0019764313 -0.07813249 0.012414626 0.0528899
0.054691896 -0.082896024 -0.051229768 -0.042501517 -0.044486493 0.048604444 -0.075564325 0.053428844
0.043196388 -0.010481876 0.026303487 0.042756982 -0.002115834 -0.009934871 0.040303733 -0.06885607
0.02657834 0.06715584 -0.032523394 -0.10441882 -0.053106517 -0.09430648 0.028881233 -0.02214441
-0.08230639 -0.03007084 -0.016410274 0.027994635 -0.10801868 -0.08786863 -0.06499101 0.028221147
-0.0603023 -0.06087917 -0.036689218 -0.0327022 0.11924189 -0.051890116 0.04362022 -0.10116533

lstm.bias_hh_l0 f4 [400]
00000000: a806 67bd 3181 42bd 5cf0 88bd e62f 2ebd
00000010: 8c43 ba3c d198 413d 12e2 0cbe 8043 0dbe
00000020: 0b32 8e3d 79b4 3fbb 8f2c aebd 7e53 f83c
00000030: 0350 d6bd 2b22 763d 94b1 333d 9455 9b3d
00000040: bfbf 0b3d 305a 363d e01d 833d d074 1b3d
00000050: 2687 b0bd 9414 7abd 5eba b0bd e320 903d
00000060: bce9 a9bd 7743 303d 73e7 ab3d 0736 ee3a
00000070: f759 223d 1428 5bbb b26b 823c 5e5a 8bbc
00000080: 9f1a 05bd e8b4 cebd 05c3 58bd ecdc cebd
00000090: 36be 60bd 06e8 8fbd 3cbd afbd cdc7 4bbc
000000a0: 614d ffbc 447f bd3d fddf 6c3c fad9 85bd
000000b0: 2004 47bd 066f 423d 5c0e f3bd 78d1 d5bd
000000c0: bf74 ccbc eee7 2ebd 07e1 bcbd 1273 423c
000000d0: 851b 7bbb ddf6 723c 59f3 8dbc 729b bfbd
000000e0: 091a 84bd 46f4 913d ca73 8dbd acdc b4bd
000000f0: e53d 4cbd 7fa3 e63c 6660 12be 069a 953d
00000100: 560c 6c3c 7257 ee3b 27ad ad3d 061a a9bd
00000110: d952 b8bd 8fdb ddbc 39b7 223c 1c3e cf3c
00000120: e451 ffbd 4d49 433d 421e 943d e331 f43c
00000130: d489 95bd 98ce 1b3d 5845 4ebb 826c c53c
00000140: 1298 a0bd 31e2 13bd e4e2 a6bd f71c c63c
00000150: 267e d03c 25d1 d2bd c26e 94bd 4736 bb3d
00000160: b4db 55bc 2606 6ebd d4a0 66bd 416c 81bd
00000170: d296 36bd c3e4 04bc ecd9 16bc bb88 10bb
00000180: 20f3 3dbd b01a 33bd a851 1f3d 6b07 843d
00000190: a534 af3d a759 833d bac2 003e 69d6 883d
000001a0: 1a76 ccbd fbb1 4b3d f9fa df3d 664d a03c
000001b0: ffed d13d 07e2 8d3d 0960 d83c 92d9 a83d
000001c0: 86e6 2b3c fbcb 41bd ffd6 abbd b7e4 dabc
000001d0: 0b1b f53d ff3f 03bc 1c37 533c 56ec 6f3e
000001e0: cd75 97bb 9853 d43c 5a60 c2bd 8d87 043a
000001f0: e8c2 dc3c aa65 7c3c 127c b63d 309b 78bd
00000200: a1b8 ec3b ccb8 b4bd 522e 99bd 4be8 02bd
00000210: 30ef 3d3d 4f96 b93d bc62 0a3c 9a6d 553d
00000220: 8c26 413d 45f2 11bd e42f 92bd 2192 a03d
00000230: 8006 afbd d652 3dbd 4d99 eabb 0fc4 f1bc
00000240: 2ab5 513d 7986 cfbd 623e 3abd 5513 0ebd
00000250: ce7a b2bd 254e 4dbc 4537 a13d 3921 d3bd
00000260: f6e4 753c dbd3 8e3d d052 8a3d 3267 5ebd
00000270: b922 013e ada2 e7bc 978d aa3c e8a5 6fbd
00000280: 76fe 6bbc 55c1 b63d d9c4 6dbd 131b dd3d
00000290: 98f3 b6bd 2e8c a5bd 88b9 94bc 1ff4 ca3d
000002a0: 46da 1dbd 74d6 e13d ca29 02bd 91d5 2abc
000002b0: 5428 c0bd 1c80 a6bc 4e80 ebbc 0015 d63c
000002c0: a7b5 4fbd 413c 503c 61dd 1e3c bde4 e03d
000002d0: c9a0 7c3c 0683 9e3d 0507 3d3d 7f9f a5bd
000002e0: cf10 cebd 22e0 163c 3f5c 99bd 946a fa3b
000002f0: ce3f 82bc 0ebb 88bd d9e2 463d bf71 40bd
00000300: 023d 203e ffef ad3d 9d05 453d ab80 e83c
00000310: 231c a8bd 73bc 993a d393 9ebd 0657 873d
00000320: ad71 313d 1d4f 633d 700e 443c e4cd bebc
00000330: 9102 a8bd a6ff 953d 4af7 dabc 94c0 113d
00000340: bfc4 80bd 6723 7bbd 755c 923c 1ce7 a33c
00000350: 6e59 b3bd e380 a13c bc5c 7bbc 4588 413b
00000360: 32e5 25bd 1ee2 243b 7956 413c 4bbb b73d
00000370: eef9 e43b 4382 4e3d 547a c63c ed84 03bd
00000380: 6dbf a33d 2853 cb3d ad01 443d a371 9c3d
00000390: 03b4 0fbc 6f5b 593d df02 b4bd 4ca5 a53d
000003a0: 55b5 12bc d8d4 3bbd 3678 993d c826 9d3d
000003b0: c190 483b 6e92 d2bd 1a6d ec3c 1918 08bc
000003c0: 7148 d3bc ba8c 6d3d cf73 343c 2531 7e3d
000003d0: 89bf dabd 2757 a3ba c75a 9b3c a3df 9f3d
000003e0: 79ea 3f3c 7c69 953d 9ca8 38bc 3c8e c5bd
000003f0: 7f3a 8dbd 3e30 d4bc 3679 953b 01fa a5bd
-0.056402832 -0.047486488 -0.0668647 -0.04252615 0.022737287 0.047264878 -0.13758114 -0.1379528
0.06943139 -0.0029251857 -0.085045926 0.03031325 -0.1046448 0.06009118 0.043870524 0.07584682
0.03411841 0.044519603 0.064021826 0.037953198 -0.086195275 -0.06105478 -0.08629297 0.07037523
-0.082965344 0.04303309 0.08393755 0.001817406 0.03963658 -0.0033440636 0.015920494 -0.017010864
-0.03249609 -0.10093099 -0.05292036 -0.10100731 -0.0548689 -0.07026677 -0.085810155 -0.012437773
-0.031164827 0.092527896 0.0144577 -0.06535716 -0.04858792 0.04746916 -0.11867973 -0.104403436
-0.024958013 -0.042701654 -0.09222608 0.011868255 -0.0038315963 0.014829365 -0.017327951 -0.09355821
-0.06450278 0.071266696 -0.06906851 -0.08831152 -0.049863715 0.028154133 -0.14294586 0.07304768
0.014407238 0.007273608 0.08480292 -0.08256917 -0.09000177 -0.027082233 0.009931379 0.02529817
-0.12466791 0.047677327 0.07232334 0.029808944 -0.07301679 0.03803882 -0.0031474438 0.024099592
-0.07841505 -0.036104385 -0.08148745 0.024183733 0.025450777 -0.102937974 -0.07247688 0.09141212
-0.01305287 -0.058111332 -0.05630572 -0.06319476 -0.044577427 -0.008111182 -0.00920723 -0.0022054154
-0.04637444 -0.043726623 0.038896233 0.06446727 0.08554963 0.06413584 0.12574282 0.066815205
-0.099834636 0.049730282 0.10936541 0.019568156 0.10250472 0.06927877 0.02641298 0.08244623
0.010491973 -0.04731367 -0.083906166 -0.026720388 0.11968049 -0.008010863 0.012891557 0.23429999
-0.0046221972 0.025918767 -0.09491034 0.0005055599 0.026948407 0.015405098 0.08910383 -0.060694873
0.007224158 -0.0882431 -0.07479538 -0.031959813 0.046370685 0.09061872 0.008446392 0.052106477
0.0471559 -0.035631437 -0.07138041 0.07840372 -0.08546162 -0.046221577 -0.007159388 -0.029512433
0.051198162 -0.101330705 -0.04546965 -0.034686405 -0.087148294 -0.012530838 0.0787187 -0.10309071
0.015008202 0.06974002 0.067540765 -0.054297633 0.12610902 -0.028275812 0.020819468 -0.05850783
-0.01440393 0.08923594 -0.058049057 0.107961796 -0.089331806 -0.08083378 -0.018154874 0.09909844
-0.03853824 0.11027232 -0.031778134 -0.010426895 -0.09382692 -0.02032476 -0.028747704 0.02613306
-0.050710347 0.012709678 0.0096963355 0.10981128 0.015419194 0.077398345 0.046149272 -0.08087062
-0.100618 0.009208711 -0.07488298 0.0076420996 -0.015899565 -0.06676303 0.048556183 -0.046983477
0.15648273 0.08493041 0.048101056 0.028381666 -0.08208492 0.0011729136 -0.07743039 0.06608395
0.0433213 0.05549537 0.011966333 -0.023291536 -0.082036145 0.07324152 -0.026729245 0.035584047
-0.06287526 -0.06131306 0.017866353 0.020007662 -0.08757292 0.019714778 -0.015341934 0.0029530686
-0.04050178 0.002515919 0.011800402 0.0897127 0.0069878018 0.050417196 0.024228252 -0.03210919
0.07995496 0.0992797 0.04785316 0.07638862 -0.0087709455 0.053065713 -0.0878961 0.080881685
-0.008954366 -0.04585728 0.074936315 0.076734126 0.0030603858 -0.102818355 0.028860617 -0.008306527
-0.025791379 0.057995535 0.011013939 0.062058587 -0.10681064 -0.0012461887 0.018964184 0.07806327
0.0117136175 0.0729551 -0.011270668 -0.0964627 -0.06895923 -0.02590191 0.0045615686 -0.08104325

post_lstm_layers.0.weight f4 [100, 100]
00000000: d4cd c73b ef44 b33d a89b 96bd e4a1 c23d
00000010: 3c1a 78bb 5729 cabd 2275 7e3d b0ea 913d
00000020: f207 b03c 7a73 493c 877b 4c3c 7a95 533c
00000030: ad3d f1bc 69c2 d53c 3eda 9a3d c328 a7bc
00000040: add2 62bb 8ad5 873d 13cb 8a3c 10ba d23b
00000050: f0b4 f63c ee1a 5f3e b294 303d 2edd 80bd
00000060: a575 d03d 3b1e b13d 090f 793d ab67 a43d
00000070: e68f 14bb a442 35bc 44d5 383b 438c 193d
00000080: 0232 803d b964 103d bc65 5c3d 88a4 7bbd
00000090: 89eb 253d 2081 86bd 44f0 bfbd 42bc 83bd
000000a0: 26d9 f13d a341 693d e09c edbc 7f0a bd3d
000000b0: 301a 9abc bca3 b8bc 7065 3bbb e822 54bc
000000c0: 107f b8bc 8371 883d 4638 70bb 4bc8 993d
000000d0: 101d 2bbc 81ac ff3d beb8 dfba 7eed afbd
000000e0: ba44 a0bd 4c6c 86bc 2032 60bc 456b 233d
000000f0: 76f1 883d a80a 6e3d f52b bcbd d7e7 8a3b
00000100: e077 43bc 2d31 533d db45 a23d 2818 62bd
00000110: 2654 cd3b 91b9 053d 8c47 a1bd 6164 423d
00000120: e9b2 543d ab4d 77bc 26d6 433d a7cd a13d
00000130: 717c e03d 45cc bc3d 7d75 6e3d 1866 49bd
00000140: 77c0 ccbd 8d94 aa3d 3ca3 cdbd bd90 983d
00000150: 48f0 c53d 56d6 3c3d a5b1 c03c cbb0 aebd
00000160: d772 173d 7ff1 26be f18d 8a3c bcee 80bd
00000170: 55c1 c33d 2a59 213d b771 d23a 7a3e 07be
00000180: c106 60bd a3f6 c9bd afdc 553d 5942 683d
00000190: f14b 87bd 30da 273d 2d17 2c3d 8f43 8d3c
000001a0: 0bda fb3c 038a b3bd d089 9a3d 47a2 413d
000001b0: 5a75 21bd 9bff 10bc 0514 70bd 7ab5 873b
000001c0: 2121 ca3c 8897 6cbd 704e 8cbc 7dbd aa3d
000001d0: cd9e 8f3c 8dde 89bc 9167 3dba 5ee7 fe3c
000001e0: ec98 3cbd f3c5 3d3e 0963 b0bb a89e a53d
000001f0: ac70 c13d 50a2 e6bd 4c95 08bd 153a 02bd
00000200: 8521 ff3c f31f 153d 0552 113d 1bf1 42bc
00000210: 6db3 853a 2785 61bd a70e a53c 3c43 cebd
00000220: fd6b 503d 4e5e c63b 3392 1a3d 1e70 95bb
00000230: c532 203d 1540 50bd 5bb9 1fbc 151f 51bc
00000240: cc73 773d baab cbbd ae41 9f3d e733 f8bb
00000250: 300c abbb c7aa 3e3d d718 87bd 830e 98bd
00000260: 8f13 b13d e332 b53d 3248 0e3d e0be d93d
00000270: 660e 8cbd 32de 4c3d cd0d 003d 6c03 3abd
00000280: bc52 4ebc e528 8f3b 06db 85bd 7c1c aa3c
00000290: a70a 3d3d a041 ffbb c987 01bc e7e5 423c
000002a0: ebcd 923d 006d cc3c b95b 323d 8815 1a3d
000002b0: cf25 9c3d 8a4d 4cbc 44cc b1bd 5485 bebd
000002c0: 8e0a b33b a993 ab3c 510c 75bd 275c 4ebc
000002d0: 7610 1a3d c582 113d 5750 83bd 6462 043c
000002e0: e335 44bd 0c9e 6fbd 311e 193d ef1b abbd
000002f0: e439 53bd a9a6 b3bc 5351 f4bb 791a 1bbd
00000300: 8ae9 933d a077 babd 2993 4abd 001a d4bc
00000310: 28bd 183c 9e65 82bd e57f 1bba 5be7 85bc
00000320: b23a 933d 4fe0 b33c 8646 b4bc e3ae a63c
00000330: fc24 50bd 378b 373c 5297 9d3d 0a7d afbd
00000340: 46d6 433c c019 f43b 051b 543c ae20 a53c
00000350: 2fa8 2cbc 83c3 a23d dc19 95bd ccc8 ea3c
00000360: 0da2 983c ebed 203d f933 d73d f49b e8bc
00000370: b331 dcbb 359c 053c d472 67bd d50f 1e3c
00000380: 1ba5 34be 0b82 ce3d 19d5 653d 7953 913d
00000390: 497a 6a3d 6f66 fcbc e358 2fbb c9cc 03bb
000003a0: 3f68 babc 44b9 53bd 632f 8b3c b859 75bd
000003b0: fffe 883c e2ff f537 fc58 78bd c554 133d
000003c0: 765f dd3c ea54 aabc 6b70 37bd 6dda 06bd
000003d0: 9d17 0fbd dc75 ff3c 7226 38bd 4592 6bb9
000003e0: 9653 153d 1332 eabd 3f9e 9bbc 7d3e 4abc
000003f0: 6b3c 763d af2f 09bd 11d9 a0bd 587a 83bc
0.0060975347 0.087533824 -0.07353908 0.095035344 -0.0037857434 -0.09871166 0.062123425 0.07124841
0.021488164 0.012295598 0.012480623 0.012914056 -0.029448355 0.026093679 0.07561158 -0.020405179
-0.0034610436 0.06632526 0.016942536 0.006430872 0.030115575 0.21787617 0.043110557 -0.06292187
0.10178689 0.08648344 0.060805354 0.080275856 -0.0022668778 -0.011063252 0.0028203288 0.03748728
0.06259538 0.035252307 0.05380796 -0.061436206 0.040507827 -0.065675974 -0.09371999 -0.06432392
0.11808996 0.05694736 -0.029005468 0.092305176 -0.018811315 -0.022539012 -0.0028594397 -0.012947775
-0.022521526 0.06662276 -0.0036654635 0.07508906 -0.010443941 0.124840744 -0.0017068607 -0.0859022
-0.078256086 -0.016409062 -0.013683826 0.039897222 0.0668668 0.05811563 -0.09188072 0.0042390632
-0.011930436 0.05156057 0.0792348 -0.05519882 0.006266135 0.032647673 -0.078749746 0.04745901
0.051928435 -0.015094201 0.04781165 0.07900553 0.10961235 0.09218649 0.058217514 -0.04916963
-0.09997647 0.08329115 -0.100409 0.07449482 0.09664971 0.046102844 0.023522208 -0.08529814
0.036974754 -0.16303061 0.016913386 -0.06295535 0.095583595 0.039391674 0.0016055618 -0.13207427
-0.05469394 -0.09861495 0.052212413 0.0567039 -0.066062815 0.040979564 0.04201429 0.017244129
0.03074362 -0.08766558 0.07545817 0.0472739 -0.039418556 -0.008850004 -0.058612842 0.0041415067
0.024674 -0.0577617 -0.017127246 0.08336923 0.017531777 -0.016829753 -0.00072252104 0.031116184
-0.046044275 0.18532543 -0.0053828997 0.08086902 0.094453186 -0.112614274 -0.033345506 -0.031793673
0.031143913 0.036407422 0.03547861 -0.011898304 0.0010200568 -0.055058625 0.020148588 -0.10071418
0.050884236 0.0060537225 0.037737083 -0.0045604846 0.039110918 -0.050842363 -0.009748782 -0.012763758
0.060413167 -0.099448636 0.07776199 -0.0075745466 -0.0052199587 0.046549585 -0.06596535 -0.07424643
0.08646309 0.088475965 0.03473682 0.1063211 -0.06838684 0.05001659 0.03126316 -0.04541342
-0.012592968 0.0043688887 -0.06535916 0.020765536 0.046152737 -0.0077898055 -0.007905909 0.011895633
0.07168182 0.024954319 0.043544505 0.03761819 0.07624399 -0.012469659 -0.08681539 -0.09302774
0.0054639047 0.020944433 -0.0598262 -0.012595213 0.037613355 0.035525102 -0.06411808 0.008080099
-0.047902953 -0.058500335 0.03738231 -0.08354937 -0.05156888 -0.021930056 -0.0074559837 -0.037867043
0.072222784 -0.09104848 -0.04945675 -0.025891304 0.009322442 -0.06367038 -0.00059318385 -0.01634567
0.071889296 0.021957545 -0.022006284 0.020347064 -0.05081652 0.011202625 0.07694878 -0.08568771
0.011952942 0.0074493587 0.012945895 0.020157184 -0.010538145 0.07947447 -0.07280323 0.0286602
0.01863196 0.039289396 0.1050796 -0.028394677 -0.006719792 0.008154918 -0.056505993 0.009647329
-0.17641108 0.100833975 0.05611143 0.07095999 0.057245526 -0.030810563 -0.0026755861 -0.0020111075
-0.022754787 -0.051690355 0.01699037 -0.059900016 0.016723154 2.932543e-05 -0.060631737 0.035969514
0.027023058 -0.020792443 -0.044784945 -0.03292315 -0.03493463 0.03118413 -0.04495854 -0.00022465836
0.036456667 -0.11435332 -0.018996356 -0.012344 0.060116213 -0.03349274 -0.07853902 -0.016049549

post_lstm_layers.0.bias f4 [100]
00000000: 0c3b 823c e3d5 073b 3e87 8bbd 18ff 1cbd
00000010: 68f8 8bbd cb1d 213d 3e2d 7e3d af29 693d
00000020: 33e9 f73a 9197 253d 80cb 05bd 81cb 163d
00000030: c627 9e3d 4080 403d 8d5a 3cbd e38b 6cbd
00000040: 7c6f 79bd 5c16 fb3b 6849 513c 34c7 213a
00000050: 2727 ed3c 6bc0 80bd 6e3f 7f3d be30 763d
00000060: fb0f 2e3d 7d12 afb9 61ae 863d ee92 fcbb
00000070: d99b 82bc ee23 d03b b747 f6bb d77c c83c
00000080: 72c0 7c3c a248 dabc 0d93 8fba 6378 e3bc
00000090: d4ab 80bd 6fcf 83bd 4516 23bc 7b6e 6bbd
000000a0: 547d b53c d74d 063d 569a 853d f299 873d
000000b0: 809f 59bd df69 64bd c35f 4f3d 865e c7bc
000000c0: d2ba f5bc d1ba a7bb 5729 903d 6bb2 12bd
000000d0: b736 603d db78 62bd ff4b 613d a2c7 54bd
000000e0: f998 7dbd 3087 463d 628f 953d c6d3 53bd
000000f0: bf99 5b3d 6c9c 243d 5d3f 86bd 0fc3 32bd
00000100: aea7 82bc 54e0 e23c f4f0 5f3d efcc d83b
00000110: 39c1 9d3c 1c3a a33c 937f 6a3d fc01 6a3d
00000120: 2093 d43c 367b 22bd 4fcd b0bc a4fa 80bd
00000130: e016 193d 0d6f 663d 4116 b7bc 8b3a 30bd
00000140: f7fe 87bd cf5f 853c 64e8 03bd 896d 38bc
00000150: 3c3a 503b dbf5 45bd 70d0 113d ec0e a83d
00000160: 5d8f 40bd 0a94 803c 65a6 193d 745b 51bd
00000170: efd9 f73c 3f6b 9cbd 2cf4 70bc 8912 c13d
00000180: a7a3 193c 8bcf 8fbd 0d3a 513c c3d2 11bc
0.015897296 0.0020726852 -0.06812905 -0.038329214 -0.06834489 0.039335053 0.062054865 0.05692452
0.0018914103 0.040427748 -0.032664776 0.03681517 0.0772243 0.04699731 -0.045984793 -0.057750594
-0.060897335 0.0076625776 0.012773849 0.0006171346 0.028949333 -0.06286701 0.06231635 0.060105078
0.04249571 -0.00033392376 0.06576229 -0.007707945 -0.015943455 0.0063519394 -0.0075158733 0.02447359
0.015426742 -0.026645962 -0.0010953859 -0.027767366 -0.062827736 -0.06436049 -0.00995404 -0.05747841
0.022154488 0.032789078 0.06523578 0.066211596 -0.053130627 -0.05576503 0.050628435 -0.024337064
-0.02999631 -0.005118706 0.07039135 -0.035814684 0.05473968 -0.055291038 0.055004116 -0.051948197
-0.061913464 0.04846877 0.07302739 -0.051715635 0.05361342 0.040188238 -0.06555054 -0.043643054
-0.015949097 0.027694859 0.05467315 0.006616227 0.019257175 0.01992517 0.05725057 0.0571308
0.02594906 -0.039668284 -0.021582274 -0.06297806 0.03737533 0.05625825 -0.022349479 -0.04302458
-0.066404276 0.016281037 -0.032204047 -0.011256584 0.0031772992 -0.04833017 0.035599172 0.08205971
-0.047011722 0.01569559 0.0375122 -0.051112607 0.030255286 -0.07637643 -0.014706653 0.094273634
0.009377397 -0.070220076 0.012770188 -0.008900347
