notebooks/best_model_tbnn.pth (torch, 984384 bytes, 22 tensors)

linear.weight f4 [20, 10]
0	0x3d71b386	0.059009098
1	0xbe70d47d	-0.23518558
2	0xbd7effe6	-0.062255763
3	0x3e6d12b6	0.23151669
4	0xbefbad4f	-0.4915566
5	0xbe02776f	-0.12740873
6	0xbdd4a2e4	-0.103826314
7	0x3d9f172e	0.07768093
8	0x3c3a35a0	0.011365324
9	0xbc65bb88	-0.014021762
10	0xbf096ad6	-0.53678644
11	0x3f0600a1	0.5234471
12	0xbe5ba15e	-0.21448275
13	0x3ea93d66	0.33054656
14	0x3e2b20d4	0.16711742
15	0x3eaee280	0.3415718
16	0xbe48faad	-0.19626875
17	0xbe019fa5	-0.12658556
18	0xbed6f04e	-0.41980213
19	0x3e8baef8	0.27281928
20	0xbf05897a	-0.521629
21	0x3e9e5fe3	0.3093253
22	0xbe8d0644	-0.27543843
23	0x3e06fecb	0.13183133
24	0xbeb02b5a	-0.34408075
25	0x3e3c8a7f	0.18412207
26	0x3da16615	0.07880799
27	0xbe6656ce	-0.22494051
28	0xbd5e8bb8	-0.054332465
29	0x3e892269	0.26784065
30	0xbd2868bc	-0.041115507
31	0x3eae4b68	0.34041905
32	0xbe1fbf2f	-0.15600275
33	0xbea6accf	-0.32553717
34	0x3ee35758	0.44402575
35	0x3e058171	0.13037659
36	0xbe4ea59b	-0.20180361
37	0xbdb8d85c	-0.09025642
38	0xbe89cf9c	-0.26916206
39	0x3e3a9b0f	0.18223213
40	0xbe3d67d7	-0.18496643
41	0x3ea3b1dd	0.31971636
42	0xbe95fa1c	-0.2929238
43	0x3ed32c59	0.41244772
44	0x3ecb739f	0.3973665
45	0x3e95bc1d	0.29245082
46	0x3dcbd54a	0.09952791
47	0xbd9093b0	-0.07059419
48	0xbe06c08c	-0.13159388
49	0xbe14b76c	-0.14523095
50	0xbdde9935	-0.10869066
51	0xbdc796e3	-0.09745576
52	0x3e0ec393	0.13941793
53	0xbe159076	-0.14605889
54	0xbe5755e5	-0.2102886
55	0xbdd98379	-0.106207795
56	0x3d401f5f	0.046904918
57	0x3d62e712	0.055396147
58	0x3e108daa	0.1411654
59	0xbe8cc410	-0.27493334
60	0xbe19cffb	-0.15020745
61	0xbcdbee6c	-0.026847087
62	0xbc2ef686	-0.010678893
63	0xbdd537be	-0.104110226
64	0xbe64e09c	-0.22351307
65	0xbea3b090	-0.31970644
66	0xbc516bd5	-0.012782057
67	0x3d64663f	0.055761572
68	0xbe573eb9	-0.2102002
69	0x3d53f435	0.051746566
70	0xbd7740e2	-0.06036461
71	0x3d0a23fe	0.03372573
72	0xbd5e82dd	-0.05432402
73	0xbe874b81	-0.26424792
74	0x3ed87c9f	0.42282578
75	0x3eedd8f4	0.46454585
76	0xbf2752ac	-0.6536052
77	0xbdb6cee0	-0.08926177
78	0xbec47b90	-0.3837552
79	0x3e817150	0.25281763
80	0x3e7ba970	0.24576354
81	0xbe57c55a	-0.21071377
82	0x3cea3c4d	0.028593207
83	0x3eef1660	0.46696758
84	0xbc050fe3	-0.0081214635
85	0x3e0417e7	0.12899743
86	0x3c841386	0.01612259
87	0x3d325e18	0.043546766
88	0x3f3af7dd	0.7303446
89	0x3dcd54ee	0.10025965
90	0x3e8b527f	0.27211377
91	0xbe4bf240	-0.1991663
92	0xbcf12f79	-0.029441582
93	0x3ec29c17	0.38009712
94	0xbd46dc42	-0.048549898
95	0xbe7761b4	-0.24158365
96	0xbb735a67	-0.0037132741
97	0xbdd70f64	-0.105009824
98	0x3e88b5d6	0.2670123
99	0xbe182c27	-0.14860593
100	0xbdb62539	-0.088938184
101	0x3ebb0a75	0.36531416
102	0x3e7a8ac8	0.24467003
103	0xbf10805c	-0.5644586
104	0x3e888a2a	0.2666791
105	0xbe9200f3	-0.2851635
106	0x3d299e24	0.04141058
107	0x3d9e4755	0.07728449
108	0xbdb226c3	-0.086987995
109	0xbda3ef60	-0.080046415
110	0xbe712019	-0.235474
111	0x3e4a91df	0.19782208
112	0xbe1ec37b	-0.15504257
113	0xbe7af216	-0.24506411
114	0x3eb72376	0.35769242
115	0x3e97e8fe	0.29669946
116	0x3e780bfa	0.24223319
117	0x3d47fa18	0.048822492
118	0xbea928af	-0.33038852
119	0x3b8bfa33	0.0042717694
120	0xbc9a2692	-0.01881722
121	0x3c94f11d	0.018181378
122	0xbb410ec2	-0.002945826
123	0xbd3198d1	-0.043358628
124	0xbe807623	-0.2509013
125	0xbe91f091	-0.2850385
126	0xbd88c59a	-0.066783145
127	0x3de5148b	0.11185559
128	0xbe21e76b	-0.15810935
129	0xbdbd1a0e	-0.09233485
130	0xbec5e994	-0.38654768
131	0xbd9d5ae0	-0.07683349
132	0xbbf52995	-0.0074817636
133	0xbeacbee8	-0.337394
134	0x3db4b79b	0.088240825
135	0xbe8b0c50	-0.2715783
136	0x3b6e69d4	0.0036378996
137	0x3e035ab9	0.12827577
138	0xbed4cf82	-0.41564566
139	0xbe4ce60c	-0.20009631
140	0xbe88fa69	-0.26753548
141	0x3e438df3	0.19097118
142	0xbe665716	-0.22494158
143	0xbdbe110e	-0.09280597
144	0x3e512295	0.20423348
145	0x3ee2a2a2	0.44264704
146	0xbf0733d9	-0.5281349
147	0x3cbad151	0.022804888
148	0xbf0cce63	-0.5500242
149	0x3d033754	0.032035187
150	0xbeaa6346	-0.33278865
151	0x3dc58971	0.096453555
152	0xbe965cf6	-0.293678
153	0x3f166e58	0.5876212
154	0x3d9fa445	0.07795004
155	0xbed0dfca	-0.40795738
156	0xbde141f6	-0.10998909
157	0xbbfc9e46	-0.0077092974
158	0xbe917e93	-0.2841688
159	0x3e377ef8	0.17919528
160	0xbbcf439a	-0.0063251974
161	0x3d1980d9	0.037476394
162	0xbbc9f3b1	-0.0061630835
163	0xbe42efc1	-0.19036771
164	0x3ea6c158	0.32569385
165	0x3d09d3c5	0.033649225
166	0x3e79d752	0.24398544
167	0xbc9e88be	-0.019352313
168	0xbedabcb4	-0.42722094
169	0x3de1802f	0.11010777
170	0x3e0c2f2a	0.13689867
171	0x3ebad952	0.36493927
172	0x3f39f311	0.72636515
173	0xbeeb9eb9	-0.46019533
174	0x3eabe85f	0.33575723
175	0x3e62cb87	0.22147952
176	0x3d519033	0.05116291
177	0x3e1c0d49	0.15239443
178	0xbe94193d	-0.28925505
179	0xbd868cb4	-0.06569806
180	0x3d0f1280	0.034929752
181	0xbe36759b	-0.178183
182	0x3ccf753d	0.025324458
183	0x3d42bb1d	0.047541726
184	0x3d7082fe	0.058718674
185	0x3df6f2fa	0.12058063
186	0xbd4c3696	-0.049856745
187	0xbe1dd866	-0.1541458
188	0xbeac993c	-0.3371066
189	0x3e9c9650	0.3058343
190	0xbe15bccf	-0.14622806
191	0x3e9723b0	0.29519415
192	0x3e552af2	0.20817164
193	0xbeafb678	-0.343189
194	0xbe4aeef0	-0.1981771
195	0xbdd277d4	-0.10276762
196	0x3e7eaeab	0.24871318
197	0x3e85b953	0.26117954
198	0xbe09a3be	-0.13441369
199	0xbe9a107e	-0.30090708

linear.bias f4 [20]
0	0xbe885f61	-0.26635268
1	0x3e115f55	0.14196523
2	0x3d269239	0.040666793
3	0x3c5db5f6	0.013532152
4	0x3e6e9a05	0.23300941
5	0x3e554f46	0.20831022
6	0xbe50ed75	-0.20403083
7	0x3db4608d	0.08807478
8	0xbeca98c3	-0.39569673
9	0x3d8d812a	0.06909402
10	0x3d1cb1bb	0.038255434
11	0x3d2eb072	0.04264874
12	0xbe094cf2	-0.13408259
13	0x3d34778f	0.044059332
14	0x3d49f939	0.049309943
15	0xbe1b611d	-0.15173765
16	0x3d9d9861	0.076950796
17	0x3d9f2b6f	0.07771956
18	0x3e69d48a	0.22834983
19	0xbdf8692f	-0.12129437

hidden_layers.0.weight f4 [20, 20]
0	0xbd25645a	-0.040378906
1	0xbcb7a0ad	-0.022415483
2	0xbc9c719f	-0.019097148
3	0x3d86bf1e	0.065794215
4	0xbbb7ad2c	-0.0056053605
5	0x3dafe5f9	0.08588786
6	0x3e3856ef	0.18001913
7	0x3d4fd678	0.050741643
8	0xbe1c4e25	-0.15264185
9	0x3cee1801	0.02906418
10	0xbd8addf0	-0.067806125
11	0xbe9e41cf	-0.30909583
12	0x3e3f2f42	0.18670371
13	0x3e8296ba	0.2550562
14	0xbd9de7d9	-0.07710237
15	0x3e0df8b1	0.138644
16	0xbe4ffd82	-0.2031155
17	0x3d91b7ec	0.071151584
18	0xbeb158fb	-0.346382
19	0xba073383	-0.0005157517
20	0x3e5fb857	0.21847664
21	0xbd8ddd51	-0.069269784
22	0x3e24abe2	0.16081193
23	0xbd69a90c	-0.05704598
24	0xbdf3ad5f	-0.11898302
25	0x3caabc8d	0.020841861
26	0xbd3caf5e	-0.04606568
27	0xbe76b146	-0.24091062
28	0xbe4a1571	-0.19734742
29	0x3ea071b0	0.31336737
30	0x3e12c5a3	0.14333205
31	0x3deb4c1f	0.11489128
32	0x3e273b52	0.16331223
33	0x3e3f366d	0.18673106
34	0x3e030ee1	0.12798645
35	0xbd84981a	-0.064743236
36	0x3b319e09	0.0027102253
37	0xbe032675	-0.12807639
38	0xbea6db93	-0.32589397
39	0xbd536297	-0.051607694
40	0x3e7ecf98	0.24883878
41	0xbd3eeea1	-0.046614293
42	0xbcaf0589	-0.021364944
43	0x3ba9d238	0.0051825307
44	0x3dbd18f3	0.09233274
45	0x3d4cd307	0.05000594
46	0xbd148900	-0.036263466
47	0xbe85afe6	-0.26110762
48	0x3e4d6be7	0.20060693
49	0x3e3d4684	0.18483931
50	0xbd7cd683	-0.06172801
51	0x3dcfc992	0.10145868
52	0x3e7c8e23	0.24663596
53	0x3e8a4f9b	0.2701386
54	0xbe27d208	-0.16388714
55	0x3dd65776	0.104659006
56	0xbcba2351	-0.022721918
57	0x3e155405	0.14582832
58	0xbeefb8ac	-0.4682058
59	0xbdc1eb19	-0.094686694
60	0xbf0c728b	-0.5486228
61	0xbe30b323	-0.17255835
62	0xbe015a98	-0.12632215
63	0x3dfed983	0.12443831
64	0x3e32c3f4	0.17457563
65	0xbe1cf867	-0.15329133
66	0xbe1e3721	-0.15450718
67	0x3dbf2ae2	0.09334351
68	0x3c7fb090	0.015606061
69	0xbe61be45	-0.22045238
70	0xbd010b98	-0.031505197
71	0xbe54bec8	-0.20775902
72	0xbd543b68	-0.051814467
73	0x3da2b6e2	0.079450384
74	0x3d252716	0.04032048
75	0xbcede67a	-0.029040564
76	0x3e7ee695	0.24892648
77	0x3ed8b082	0.42322165
78	0xbe70468c	-0.23464411
79	0x3e463330	0.19355464
80	0x3e06b919	0.13156547
81	0x3d891b0e	0.066946134
82	0xbd9a2777	-0.075270586
83	0xbd794ba3	-0.06086315
84	0x3ca93422	0.020654742
85	0xbd511a50	-0.051050484
86	0x3e978e4b	0.29600748
87	0xbd93c177	-0.07214635
88	0x3dec8616	0.11549012
89	0xbd804114	-0.06262413
90	0x3d710473	0.058842134
91	0x3dba99f8	0.091113985
92	0x3e727f06	0.23681268
93	0xbdd3256d	-0.10309873
94	0xbc33d504	-0.01097608
95	0x3de433d5	0.11142699
96	0x3db542da	0.088506415
97	0x3cc55d4c	0.024092339
98	0xbf30305e	-0.688238
99	0x3e02fd95	0.12792046
100	0x3bbd28c8	0.005772684
101	0xbda23e19	-0.079220004
102	0x3e644121	0.2229047
103	0x3e2f6053	0.17126589
104	0x3d29f52b	0.041493576
105	0xbd327037	-0.043564048
106	0x3c906446	0.01762594
107	0x3f24130e	0.64091575
108	0x3d7a6048	0.061126977
109	0x3cc0db67	0.02354212
110	0x3ebc0168	0.36719823
111	0xbaa22d8f	-0.0012373197
112	0xbde74ac2	-0.11293556
113	0xbd417dba	-0.047239043
114	0x3da2e927	0.079546265
115	0xbdd5a128	-0.10431129
116	0xbe138a9d	-0.14408346
117	0x3ed4ae74	0.41539347
118	0x3d1216a5	0.035666127
119	0xbb090f7f	-0.0020913777
120	0x3c9203e8	0.017824128
121	0x3e3fcf6b	0.18731467
122	0x3da1f977	0.0790891
123	0x3e44c88e	0.1921713
124	0x3e27dbe6	0.16392478
125	0xbda00c86	-0.07814889
126	0x3dfebe21	0.12438608
127	0xbe63db1a	-0.2225155
128	0x3e5c53c0	0.21516323
129	0x3da95d33	0.082697295
130	0xbebd7dfb	-0.37010178
131	0xbc421cc4	-0.011847679
132	0xbc9aeca5	-0.018911669
133	0xbe1563b7	-0.1458882
134	0x3d3c7425	0.0460092
135	0x3ebb9d99	0.36643675
136	0xbd7564fc	-0.05991076
137	0xbcf9c029	-0.030487137
138	0x3d90313b	0.0704064
139	0xbc40214b	-0.011726688
140	0x3d8f1b4a	0.06987627
141	0xbdd93091	-0.106049664
142	0xbe05ef1f	-0.13079499
143	0xbdda0f59	-0.106474586
144	0xbdc2c616	-0.09510438
145	0x3d07eab4	0.033182815
146	0xbe27fbd6	-0.16404662
147	0xbe5ce33e	-0.21571061
148	0x3f02106b	0.508063
149	0x3da280a5	0.07934693
150	0x3d2b0bb2	0.0417592
151	0x3d972f20	0.07382035
152	0xbdf9304e	-0.121674165
153	0xbe82d07b	-0.25549683
154	0xbbbf4a7f	-0.005837738
155	0xbd521ed5	-0.051298935
156	0xbe6d725b	-0.23188154
157	0x3abbe007	0.0014333733
158	0xbd177dec	-0.036985323
159	0xbe825a1d	-0.25459376
160	0x3cbe3ce4	0.023222394
161	0xbdedb6f7	-0.116071634
162	0x3e017d79	0.1264552
163	0x3c6afdd2	0.014342742
164	0x3bcc0d03	0.006227137
165	0x3d922041	0.07135058
166	0x3e9c3f2c	0.30516946
167	0xbe6812d3	-0.22663431
168	0x3dedbadd	0.11607907
169	0x3cf88b90	0.030339986
170	0x3d06017a	0.032716252
171	0x3e36a2ef	0.17835592
172	0x3e25e9e7	0.16202508
173	0x3d38976b	0.04506628
174	0xbd26bded	-0.04070847
175	0xbe274265	-0.16333921
176	0xbdf76e31	-0.12081564
177	0xbd24b4d5	-0.040211517
178	0xbe7b9cb1	-0.24571492
179	0x3dcabe48	0.098995745
180	0xbb6ba4d3	-0.0035956397
181	0xbd4da198	-0.050202936
182	0x3d8de4a9	0.06928379
183	0xbe37264e	-0.17885706
184	0xbe884825	-0.26617542
185	0x3eb11e3a	0.34593374
186	0x3dd8a015	0.10577408
187	0xbc4e92b5	-0.01260822
188	0x3bccbacc	0.006247854
189	0xbdd88176	-0.10571568
190	0x3e6a2e4b	0.22869222
191	0xbd157830	-0.036491573
192	0xbd271de1	-0.04079998
193	0x3e555358	0.20832574
194	0xbd83a721	-0.06428362
195	0x3d0037a0	0.031303048
196	0x3e616ada	0.22013417
197	0xbd2b296d	-0.041787554
198	0x3e04c838	0.12967002
199	0xbdf19197	-0.11795347
200	0x3c554b2c	0.013018411
201	0x3e101f90	0.1407454
202	0x3cc6226f	0.024186341
203	0x3e6a4703	0.22878651
204	0x3e9366db	0.2878941
205	0xbedfd385	-0.43716064
206	0x3d3a4b62	0.045482047
207	0xbe08fed7	-0.13378464
208	0x3b230cde	0.0024879496
209	0x3dddad93	0.10824122
210	0x3d82ce80	0.06387043
211	0x3dd50db2	0.10403003
212	0x3e15b1d4	0.14618617
213	0xbe80892d	-0.25104657
214	0x3e8066dd	0.25078478
215	0xbcb8864d	-0.022524977
216	0xbe6445a4	-0.22292191
217	0x3d6df385	0.058093566
218	0x3e506a65	0.20353086
219	0xbe4f0a09	-0.20218672
220	0x3c429b5b	0.01187786
221	0xbd53b8a3	-0.051689755
222	0x3cda4466	0.026643943
223	0xbbcf7e5e	-0.006332203
224	0x3c3a1629	0.011357822
225	0x3a16a38a	0.0005746415
226	0xbf1c9862	-0.6117002
227	0xbdd1f0c4	-0.102510005
228	0x3e19fc30	0.15037608
229	0xbde753d6	-0.11295287
230	0xbc00a06a	-0.007850746
231	0x3c8319f0	0.016003579
232	0xbeafe399	-0.3435333
233	0xbdbd4c1a	-0.09243031
234	0xbd834589	-0.06409747
235	0x3d43c9d6	0.047799908
236	0x3e01a387	0.12660037
237	0x3c2524ae	0.010079546
238	0x3ee88787	0.454159
239	0xbdc4cbf2	-0.09609212
240	0xbe98c700	-0.29839325
241	0xbd88d417	-0.06681078
242	0xbd9b56e4	-0.075849324
243	0xbd7c75e3	-0.061635863
244	0xbe224c79	-0.15849485
245	0xbd05ec0f	-0.032695826
246	0xbdc69245	-0.096958674
247	0x3a558185	0.0008144605
248	0xbd97ecb0	-0.074181914
249	0xbdf1830a	-0.11792572
250	0x3ea1bfd6	0.31591672
251	0x3e6bc4b0	0.23024249
252	0xbde62bba	-0.11238809
253	0x3e344af5	0.17606719
254	0xbd51cf2c	-0.051222965
255	0xbe15c0ba	-0.146243

hidden_layers.0.bias f4 [20]
0	0x3dd2ef1a	0.10299511
1	0xbd5d0b5e	-0.05396592
2	0xbd863efc	-0.06554982
3	0xbd7f1380	-0.062274456
4	0x3da5cc8f	0.08095657
5	0x3d515b1c	0.05111228
6	0xbd18e575	-0.037328202
7	0xbe0a004b	-0.13476674
8	0x3baa6fcb	0.005201315
9	0xbdc10f5c	-0.09426758
10	0xbd489f3e	-0.04897999
11	0xbda34c78	-0.0797357
12	0xbdfcc89d	-0.123429514
13	0xbdfda958	-0.123858154
14	0xbdafe1bd	-0.08587978
15	0x3d22d4ee	0.039753847
16	0x3d37ca0a	0.044870414
17	0xbd7224cd	-0.059117127
18	0xbda95088	-0.08267313
19	0xbd927a16	-0.07152192

hidden_layers.1.weight f4 [20, 20]
0	0xbdcd411b	-0.100221835
1	0xbdcad55b	-0.099039756
2	0xbe0a3e7e	-0.13500401
3	0x3d06f9d0	0.032953084
4	0xbe933fe8	-0.28759694
5	0x3bc6d9b4	0.0060684327
6	0xbd3d2f95	-0.046187956
7	0x3d4df002	0.050277717
8	0xbe509d45	-0.20372494
9	0x3cfc803f	0.030822871
10	0xbbded1a7	-0.006799895
11	0x3e578012	0.21044949
12	0xbd81ca05	-0.0633736
13	0x3d732595	0.059362013
14	0x3c8c94aa	0.017160732
15	0xbdca23c3	-0.09870102
16	0x3d80db36	0.06291811
17	0x3d8beb33	0.0683197
18	0xbc2fbcfc	-0.01072621
19	0x3de34e54	0.11098924
20	0xbd2af151	-0.041734044
21	0x3dec6d55	0.11544291
22	0xbd40d43b	-0.0470774
23	0xbd85e7ac	-0.065383285
24	0xbd12069f	-0.035650846
25	0x3cf120b5	0.029434541
26	0xb9d0f5e9	-0.0003985607
27	0xb80ed5ac	-3.4054436e-05
28	0x3d9e556d	0.077311374
29	0x3dcc4ea1	0.09975935
30	0xbce5d107	-0.028053774
31	0xbc7479e2	-0.014921637
32	0xbc7c5eb2	-0.0154034365
33	0x3e34d651	0.1765988
34	0xbc036f05	-0.008022075
35	0x3d2ba1aa	0.04190222
36	0x3e34e739	0.1766633
37	0xbb9ad60e	-0.0047252243
38	0x3e6a89ab	0.22904079
39	0x3e03a96b	0.12857597
40	0x3db121e9	0.08649046
41	0x3c2152ed	0.009846431
42	0x3d14bf0c	0.03631501
43	0x3e1a50b8	0.15069854
44	0xbe32721e	-0.17426345
45	0x3ddb6693	0.10712924
46	0x3cf34d48	0.029699937
47	0x3e08bb69	0.13352741
48	0x3c30f225	0.010799919
49	0x3df55457	0.11978977
50	0xbe1114fa	-0.14168158
51	0x3dc9882d	0.098404266
52	0x3de6c612	0.11268248
53	0x3dde8000	0.10864258
54	0x3d95cdd6	0.07314651
55	0x3e3c3f00	0.18383408
56	0x3e81dd7f	0.253643
57	0x3dd57ace	0.10423814
58	0xbc587621	-0.013211758
59	0x3ec1f8fb	0.3788527
60	0x3e06d8ae	0.13168594
61	0xbdad3d44	-0.08458951
62	0x3e057b75	0.13035376
63	0xbe071f0d	-0.13195439
64	0xbdc4db3b	-0.096121274
65	0xbda795d1	-0.08182872
66	0x3e36e969	0.17862476
67	0xbd772447	-0.06033733
68	0xbaf729f9	-0.0018857113
69	0xbd72272d	-0.059119392
70	0xbe51c48f	-0.20485137
71	0x3e1d9a72	0.15390947
72	0xbda0d383	-0.07852843
73	0xbcec3768	-0.028835014
74	0x3d9fdc76	0.078057215
75	0xbe120b54	-0.14262134
76	0x3d3d6372	0.046237417
77	0xbe3fbb66	-0.1872383
78	0x3e727ec8	0.23681176
79	0xbccf1e5e	-0.025283035
80	0xbe8bcb75	-0.27303663
81	0x3ddd42bc	0.10803744
82	0xbe450fd7	-0.19244324
83	0xbbd62e41	-0.0065362756
84	0x3d94472d	0.07240138
85	0x3bea8c6d	0.0071578533
86	0x3cb12b6c	0.02162715
87	0xbe892939	-0.26789263
88	0x3e383610	0.17989373
89	0xbe3fe36b	-0.18739097
90	0x3e4c2763	0.199369
91	0x3d2bcc44	0.04194285
92	0x3e04b88f	0.12961029
93	0x3e34b90c	0.17648715
94	0x3dd68018	0.10473651
95	0xbef6bcab	-0.48190817
96	0xbeaba3a5	-0.33523288
97	0x3cb972cc	0.022637747
98	0xbdd495af	-0.103801124
99	0xbe20d0d8	-0.15704668
100	0x3d628cb1	0.055309955
101	0x3c2e741a	0.010647798
102	0xbc8af4da	-0.016962457
103	0xbbefa1f4	-0.0073130075
104	0xbd93a7f3	-0.07209768
105	0x3e183266	0.14862975
106	0x3d6c8d98	0.05775222
107	0xbebf3d5c	-0.373515
108	0x3de17c82	0.11010076
109	0x3e1900e6	0.14941749
110	0x3dbf9a6f	0.09355628
111	0x3d28c2fa	0.04120157
112	0xbd200d05	-0.039074916
113	0x3df6aedf	0.12045073
114	0x3e357545	0.17720516
115	0xbe9ff66f	-0.312427
116	0xbed1b648	-0.40959382
117	0x3dc5faad	0.09666953
118	0xbc07a0d6	-0.008278092
119	0xbe3d02a5	-0.1845804
120	0xbc3d2016	-0.011543294
121	0xbe1da194	-0.15393668
122	0xbd8fba9f	-0.07018017
123	0xbd01cb8c	-0.031688258
124	0xbdba6b94	-0.0910255
125	0xbdd2da9c	-0.10295603
126	0xbe5c8a74	-0.2153719
127	0x3d98e5c9	0.07465703
128	0xbcafe62e	-0.021472063
129	0x3c23da38	0.010000758
130	0xbe694c9d	-0.22783132
131	0xbde9fcd0	-0.11425173
132	0x3d993e4e	0.07482587
133	0xbc7cbeb7	-0.015426329
134	0xbe95d9a4	-0.2926761
135	0x3e05c26a	0.13062444
136	0x3daf6188	0.085635245
137	0xbc6ae87a	-0.014337653
138	0x3e91458c	0.28373373
139	0xbbcc3093	-0.0062313764
140	0x3ea59cd2	0.32346207
141	0xbe5ce7d2	-0.21572807
142	0xbd2f9710	-0.042868674
143	0x3d93cf61	0.07217289
144	0x3d030462	0.0319866
145	0x3ee9a989	0.45637158
146	0x3e5689df	0.20951031
147	0x3db60931	0.08888472
148	0xbd273662	-0.040823348
149	0xbd4bf000	-0.04978943
150	0xbe1c7b75	-0.1528147
151	0xbd399edd	-0.04531752
152	0xbb76826a	-0.0037614354
153	0xbcda25c7	-0.026629342
154	0xbdbd5020	-0.09243798
155	0x3d73b76d	0.0595011
156	0xbea0349e	-0.31290144
157	0x3eabf92f	0.3358855
158	0x3ddf5eed	0.109067775
159	0x3d34f965	0.044183154
160	0x3e24c633	0.16091232
161	0x3e3e11f8	0.18561542
162	0x3e115f3a	0.14196482
163	0xbdd87852	-0.10569824
164	0x3cb8f19d	0.022576148
165	0x3c5d6e4e	0.013515068
166	0x3d5072e5	0.050890822
167	0x3e394918	0.1809429
168	0xbe250028	-0.16113341
169	0x3e18bea4	0.14916474
170	0x3db358df	0.08757185
171	0xbe771d5d	-0.24132295
172	0xbcd86af9	-0.026418196
173	0x3da89b83	0.082327865
174	0xbc8358e5	-0.0160336
175	0x3db686f3	0.08912458
176	0x3dc7c62d	0.09754596
177	0xbe460b7a	-0.19340315
178	0xbcd51374	-0.026010253
179	0xbc82b782	-0.015956644
180	0xbcaadfef	-0.020858733
181	0x3d904e2e	0.070461616
182	0x3e53d80a	0.20687881
183	0x3e0a5087	0.13507281
184	0x3e442878	0.19156063
185	0xbc18b1da	-0.009319747
186	0xbd8c4370	-0.068488
187	0x3c552546	0.013009375
188	0x3e19a6bd	0.15005012
189	0xbdc1bbd9	-0.09459657
190	0xbc6322c0	-0.0138632655
191	0xbe02359c	-0.12715763
192	0xbde2ce3c	-0.11074492
193	0xbdd700cb	-0.10498198
194	0x3c0736bd	0.008252797
195	0x3cee42a3	0.02908451
196	0x3dff6424	0.12470272
197	0x3c8b0b8c	0.01697328
198	0x3c1bfac8	0.00952024
199	0x3e0e7ba2	0.1391435
200	0xbe57e344	-0.21082789
201	0xbe124f1b	-0.14287989
202	0xbd8b7930	-0.06810224
203	0x3bfc3522	0.0076967636
204	0xbe29936d	-0.16560145
205	0x3cca7ab0	0.024716705
206	0x3d1c800a	0.038208045
207	0x3cb80211	0.022461923
208	0xbe144419	-0.14479102
209	0x3a4f5a9b	0.00079099246
210	0xbd3d9a92	-0.046289988
211	0x3e67c0d2	0.22632149
212	0x3c2baf2a	0.010478774
213	0x3d549e46	0.051908754
214	0xbc7c20f0	-0.015388712
215	0x3c6ca27b	0.014443035
216	0x3e00a228	0.12561858
217	0xbd86f627	-0.065899186
218	0xbdbe30e0	-0.09286666
219	0xbd8a7516	-0.067606136
220	0x3d4e4dd0	0.050367177
221	0xbc2b16c1	-0.010442437
222	0xbd1f042b	-0.038822334
223	0xbdc500a0	-0.0961926
224	0x3ca5dc7d	0.020246739
225	0xbdc043a7	-0.09387904
226	0x3e266965	0.16251142
227	0xbd78ddf1	-0.060758535
228	0xbb0ba9e5	-0.0021310982
229	0xbc844d70	-0.016150206
230	0x3e1d4893	0.15359716
231	0xbe2ba10f	-0.16760658
232	0xbe613c93	-0.21995763
233	0x3d37c5bb	0.044866305
234	0x3e21573e	0.15755937
235	0x3e5163c6	0.20448217
236	0x3d3157e7	0.04329672
237	0xbcec1ba1	-0.028821768
238	0xbd075f8c	-0.033050105
239	0x3e6a1357	0.2285894
240	0xbe27e3a1	-0.16395427
241	0x3be4bce3	0.006980525
242	0x3e14b42a	0.14521852
243	0x3e1b25cf	0.15151142
244	0x3db6ce9d	0.08926127
245	0x3e0645a9	0.1311251
246	0xbc142259	-0.009041392
247	0xbde8a348	-0.113592684
248	0xbe6a8841	-0.22903539
249	0x3de7e602	0.113231674
250	0x3d9f0fc2	0.077666774
251	0xbdb30681	-0.08741475
252	0xbdf0dd90	-0.1176101
253	0xbe725d09	-0.23668303
254	0x3dfcdb7a	0.12346549
255	0xbe5974de	-0.21235988

hidden_layers.1.bias f4 [20]
0	0x3da5362f	0.08066975
1	0x3cdee141	0.027207019
2	0x3deeb733	0.11656036
3	0xbd915aff	-0.07097434
4	0x3c99baa0	0.018765748
5	0x3a92144f	0.0011144968
6	0x3d105a61	0.035242442
7	0xbdb88daf	-0.09011399
8	0xbe246016	-0.16052279
9	0x3b56f32d	0.0032798753
10	0x3d84afb2	0.06478824
11	0xbd8810be	-0.06643818
12	0x3e16a32a	0.1471068
13	0x3d3802b1	0.04492444
14	0x3d718e64	0.058973685
15	0xbdf72d76	-0.12069218
16	0xbda93aff	-0.08263206
17	0xbda72e0e	-0.08163081
18	0xbc1b7d89	-0.009490379
19	0x3ceb2894	0.028705873

hidden_layers.2.weight f4 [20, 20]
0	0xbdb62c72	-0.08895196
1	0xbdd76873	-0.10517969
2	0x3d711e31	0.058866683
3	0xbe14889f	-0.14505242
4	0x3e260e3b	0.16216366
5	0x3dc26d65	0.094935216
6	0x3e01c415	0.12672456
7	0x3d8f0192	0.069827214
8	0x3df85a6a	0.1212662
9	0xbc7e2880	-0.015512586
10	0xbcedc1f6	-0.029023152
11	0xbec9b4a4	-0.3939563
12	0x3e19e1c2	0.15027526
13	0xbde42dcf	-0.1114155
14	0xbb18e408	-0.0023329277
15	0x3d2dbf62	0.042418845
16	0xbe8abd0d	-0.2709736
17	0xbe575105	-0.21027
18	0x3df2a871	0.11848534
19	0xbdb221c6	-0.08697848
20	0x3e217220	0.15766191
21	0xbd121765	-0.035666842
22	0x3d9da4d4	0.07697454
23	0xbdcf9790	-0.1013633
24	0x3dca6167	0.09881859
25	0x3e02ef3d	0.12786575
26	0x3dc80211	0.09766019
27	0x3e01897e	0.12650105
28	0xbd946328	-0.07245475
29	0xbd4a7011	-0.04942328
30	0x3c69531f	0.014241009
31	0x3d043179	0.032273743
32	0x3e00588a	0.12533775
33	0x3e184180	0.14868736
34	0xbc0e18b8	-0.008672886
35	0xbd16fbf5	-0.03686138
36	0xbc74221b	-0.0149007095
37	0x3dd3d43f	0.10343217
38	0xb67e9910	-3.7938044e-06
39	0x3dcaf53c	0.09910056
40	0xbd54a7fe	-0.051918022
41	0x3ba8730c	0.005140668
42	0x3dafab75	0.08577625
43	0xbb81fdd9	-0.0039670286
44	0xbe42ac3d	-0.19011016
45	0xbe9c6bad	-0.305509
46	0xbd289c84	-0.04116489
47	0x3d15fa97	0.036615934
48	0x3d805ca7	0.06267672
49	0xbe0c426b	-0.13697211
50	0x3e4295e9	0.19002499
51	0xbcc42ac1	-0.023946168
52	0xbdb353ba	-0.08756204
53	0x3e537d4d	0.20653267
54	0x3e883ba4	0.26608002
55	0xbe29e42c	-0.16590947
56	0xbc31416f	-0.010818823
57	0x3d44dc15	0.04806145
58	0xbd8e2444	-0.06940511
59	0xbd0799af	-0.03310555
60	0x3e6b1535	0.22957309
61	0xbcb55915	-0.022137204
62	0x3b29b84e	0.0025897208
63	0x3d539b70	0.05166191
64	0xbb4d1f7c	-0.0031299284
65	0xbd88515f	-0.06656145
66	0x3cf90f88	0.030402914
67	0x3cd80ec6	0.026374232
68	0xbe0867d8	-0.13320863
69	0xbee0fc88	-0.43942666
70	0x3e963e7b	0.29344544
71	0xbb968794	-0.004593799
72	0x3d85634f	0.06513082
73	0x3d2be542	0.041966684
74	0xbe4a8d35	-0.19780429
75	0xbe4f7de7	-0.20262872
76	0x3d81a119	0.06329555
77	0xbd80c589	-0.06287677
78	0x3d0f8aec	0.035044596
79	0xbc2bd097	-0.010486743
80	0xbe562524	-0.20912606
81	0x3d77e643	0.06052233
82	0xbda2dedd	-0.07952664
83	0x3d64fabf	0.055903193
84	0xbb2ebb51	-0.0026661942
85	0x3dc08677	0.09400647
86	0xbb4c22ec	-0.0031148745
87	0x3c294190	0.010330573
88	0x3cd11065	0.025520513
89	0x3e097ca8	0.13426459
90	0xbe0ba264	-0.13636166
91	0xbd4c2264	-0.049837485
92	0x3dd8bb76	0.1058263
93	0x3e0b2298	0.13587415
94	0x3d97fe82	0.074215904
95	0x3e304ff4	0.17218
96	0xbd18da3b	-0.037317496
97	0x3c8428e2	0.016132776
98	0x3c41832d	0.01181106
99	0xbc041664	-0.008061979
100	0x3daadc3e	0.08342789
101	0x3d8eec64	0.06978682
102	0xbdb3f53a	-0.08787008
103	0xbe22dbc5	-0.15904148
104	0xbe180eca	-0.14849392
105	0xbe3c622b	-0.18396823
106	0x3e86c0a6	0.26318854
107	0xbcbc7ced	-0.023008788
108	0xbcbb498f	-0.022862224
109	0x3e05e5c6	0.13075933
110	0x3e2d8b5d	0.16947694
111	0xbe48deb2	-0.19616202
112	0xbca41291	-0.020028384
113	0x3dfe0b01	0.124044426
114	0xbe08b853	-0.13351564
115	0x3db69480	0.08915043
116	0xbec67e75	-0.38768354
117	0xbe00708b	-0.12542932
118	0x3d4a74c9	0.04942778
119	0x3e0f524f	0.13996242
120	0x3d59f69a	0.053213693
121	0x3cd2ce40	0.025733113
122	0xbe0b3aa6	-0.13596591
123	0x3e658ecb	0.22417752
124	0x3e083547	0.13301574
125	0x3d92f664	0.071759015
126	0x3e079b21	0.1324277
127	0xbe15ea09	-0.14640059
128	0x3e193338	0.14960945
129	0xbd2547cd	-0.040351678
130	0x3ba46acc	0.005017614
131	0x3e0e045d	0.13868852
132	0x3e12ad35	0.14323886
133	0x3d4e085c	0.05030094
134	0xbda9b2a5	-0.08286027
135	0x3d07f8f6	0.033196412
136	0x3d147874	0.036247686
137	0x3d15e8e4	0.036599055
138	0xbca4516b	-0.020058354
139	0x3ce5431b	0.0279861
140	0x3d6ef19d	0.05833589
141	0xbefed016	-0.49768132
142	0xbe6e603c	-0.23278898
143	0xbd437dc1	-0.04772735
144	0x3da9180f	0.08256542
145	0x3d6dee6e	0.058088712
146	0xbdcf917c	-0.10135171
147	0x3dcd893c	0.10035941
148	0x3c90b179	0.01766275
149	0xbde8f84c	-0.11375484
150	0x3dc640f8	0.096803606
151	0x3cfc5b5e	0.030805286
152	0x3e803e4b	0.25047526
153	0x3d32e9a3	0.043679845
154	0xbeb57a61	-0.3544493
155	0xbe3ca1ec	-0.18421143
156	0x3cb95c4f	0.022627024
157	0xbdf1548f	-0.117837064
158	0xbd47e9b0	-0.048806846
159	0xbdadde44	-0.084896594
160	0x3dbbac25	0.09163693
161	0x3c47ce92	0.012195246
162	0x3dbaa756	0.09113948
163	0x3d647a37	0.055780616
164	0x3cb74517	0.022371812
165	0xbddd964a	-0.10819681
166	0xbb07c85d	-0.002071879
167	0xbdf095a0	-0.11747289
168	0xbcf509c2	-0.02991188
169	0x3bd89de1	0.0066106175
170	0xbd55cbff	-0.0521965
171	0x3cf93620	0.030421317
172	0x3d430ea6	0.04762139
173	0x3e233995	0.15939935
174	0xbdf0ce5f	-0.11758112
175	0xbdbd53e9	-0.0924452
176	0x3c390dc1	0.011294783
177	0x3dd08b85	0.10182861
178	0xbece1153	-0.40247592
179	0xbeccbeac	-0.3998922
180	0x3cb2a833	0.02180872
181	0x3df2d35c	0.1185672
182	0x3db453e3	0.088050626
183	0xbd65b1c4	-0.056077734
184	0xbd2ed9ad	-0.04268806
185	0xbd29a76d	-0.041419435
186	0xbd72d293	-0.05928285
187	0x3db4f678	0.08836073
188	0x3c95ee47	0.018302096
189	0xbdc05477	-0.093911104
190	0xbd65e66e	-0.056127958
191	0x3b92fb2b	0.004485508
192	0xbb0756a2	-0.0020651002
193	0xbdf396cd	-0.11893997
194	0x3dd3f6fb	0.10349842
195	0x3e0f9e1e	0.1402516
196	0x3d9b9420	0.07596612
197	0xbbcc1d58	-0.006229084
198	0x3e15f8fe	0.14645764
199	0x3e1c8d30	0.15288234
200	0x3edb5bc5	0.42843452
201	0xbdb845fa	-0.08997722
202	0x3e158d89	0.14604773
203	0xbd00271f	-0.03128731
204	0x3e0dd477	0.1385058
205	0x3e5109b9	0.20413865
206	0xbd5a55dc	-0.053304538
207	0xbdcfde3d	-0.101498105
208	0xbe16359f	-0.14668892
209	0xbdbd6e5c	-0.09249565
210	0x3eaa68cc	0.3328308
211	0xbcace78a	-0.0211065
212	0xbdc43b09	-0.095815726
213	0xbe0072f9	-0.12543859
214	0x3e2d4e66	0.16924438
215	0x3ce27d69	0.02764769
216	0x3cde49b9	0.027134763
217	0xbd6c1e58	-0.057646126
218	0xbda82054	-0.08209291
219	0xbe10579d	-0.14095922
220	0xbd67c639	-0.056585524
221	0x3de1ba68	0.11021882
222	0x3d74307b	0.059616547
223	0x3e0963ab	0.13416927
224	0x3e0132df	0.12617062
225	0xbd0f8578	-0.035039395
226	0x3cce731e	0.025201377
227	0xbc2b220f	-0.010445132
228	0x3e3ed171	0.18634583
229	0x3dbcb3f3	0.0921401
230	0xbd686cf3	-0.056744527
231	0xbcc6f359	-0.02428596
232	0xbccef49b	-0.025263121
233	0x3da4172b	0.080122314
234	0x3d6df0f2	0.05809111
235	0xbd223c28	-0.03960815
236	0x3cab4aeb	0.020909747
237	0xbbfe306f	-0.0077572386
238	0xbd152120	-0.036408544
239	0x3cf4eea5	0.02989895
240	0x3e7e8ab0	0.24857593
241	0x3e859dc6	0.26096934
242	0xbd1ea8fb	-0.03873537
243	0x3d09e635	0.03366681
244	0xbd67c429	-0.056583557
245	0x3db3bd92	0.08776392
246	0x3dcbfb01	0.099599846
247	0x3e6fe25e	0.23426196
248	0x3e0cecc8	0.137622
249	0x3d9b1a69	0.07573397
250	0x3e8ebc8b	0.27878222
251	0xbd6a4313	-0.057192873
252	0xbcf2f763	-0.029658979
253	0x3e2d636b	0.16932456
254	0xbe26f9f3	-0.16306286
255	0xbe37c586	-0.17946443

hidden_layers.2.bias f4 [20]
0	0xbdc7c810	-0.09754956
1	0x3d914da4	0.07094887
2	0xbd9d24a4	-0.07673004
3	0x3d8852ab	0.06656393
4	0xbdc6f7a4	-0.097152025
5	0xbdffc24a	-0.124882296
6	0x3dd4871e	0.10377334
7	0xbd09156d	-0.0334677
8	0x3d90a60a	0.070629194
9	0xbe468d18	-0.1938976
10	0xbdda85be	-0.106700405
11	0xbca8e702	-0.020617966
12	0xbdb44944	-0.08803037
13	0x3ddd8663	0.10816648
14	0xbde7a862	-0.11311413
15	0xbde37dbc	-0.11107966
16	0x3e2de663	0.16982417
17	0x3c3247ef	0.010881408
18	0x3da93272	0.08261575
19	0xbd4b5e28	-0.04965034

lstm.weight_ih_l0 f4 [512, 20]
0	0xbc6cfb00	-0.01446414
1	0xbd199327	-0.03749385
2	0xb9e068b9	-0.00042802634
3	0x3d9b1920	0.075731516
4	0xbda9488d	-0.08265791
5	0xbcfc1c44	-0.030775197
6	0xbda1fe21	-0.07909799
7	0x3dc5a4ac	0.09650549
8	0x3db967bd	0.0905299
9	0xbdb5cebc	-0.08877322
10	0xbd4895ce	-0.04897099
11	0xbdcc94c9	-0.09989316
12	0xbd21ddac	-0.039518043
13	0xbc886a08	-0.016652122
14	0xbdc41482	-0.09574224
15	0xbde27007	-0.11056524
16	0x3dd3b79e	0.103377566
17	0xbd93582d	-0.071945526
18	0xbc990119	-0.018677281
19	0x3da36a8f	0.07979309
20	0xbcace448	-0.021104947
21	0xbd24ef0e	-0.040267043
22	0xbcbe5991	-0.023236068
23	0x3dc0bd79	0.09411139
24	0xbc80d114	-0.015724696
25	0xbccc03cb	-0.024904152
26	0xbc980e04	-0.01856137
27	0x3d1fd794	0.03902395
28	0xbd463f87	-0.04840043
29	0xbac148ad	-0.001474639
30	0xbd1de995	-0.03855284
31	0xbb750348	-0.003738599
32	0x3c2572d2	0.010098176
33	0xbd573008	-0.05253604
34	0xbc65851f	-0.014008789
35	0x39826a2f	0.00024874645
36	0xbd2103a8	-0.039310127
37	0xbc8e3363	-0.017358487
38	0x3cb5616d	0.022141183
39	0xbc94cea5	-0.018164942
40	0xbd199420	-0.03749478
41	0x3ba9c078	0.0051804148
42	0xbc9e9ac4	-0.019360907
43	0xbc30702d	-0.010768932
44	0xbcc17463	-0.023615068
45	0xbd21a636	-0.03946515
46	0xbdd1317c	-0.102145165
47	0xbd3ccc75	-0.046093423
48	0x3bbba511	0.0057264646
49	0xbc139d5e	-0.009009687
50	0xbb820c23	-0.003968732
51	0xbcd0af3e	-0.025474187
52	0xbc334457	-0.010941586
53	0xbd15b68f	-0.036551055
54	0xbbd7f8c7	-0.006590936
55	0xbb10e498	-0.0022108909
56	0xbd18a8f5	-0.037270505
57	0xbba583f0	-0.0050511286
58	0xbd6f5abd	-0.058436144
59	0x3d244e18	0.04011354
60	0x3c352b5c	0.011057701
61	0xbd147925	-0.036248345
62	0xbda2eaee	-0.079549655
63	0xbe5cce88	-0.2156316
64	0x3da3053e	0.07959984
65	0xbbd04654	-0.00635604
66	0xbde9a946	-0.114092395
67	0xbdcfac98	-0.101403415
68	0xbc2a2c8d	-0.010386598
69	0x3c3b2288	0.011421807
70	0x3d3f44b5	0.046696384
71	0x3e85cf57	0.2613475
72	0xbd2312ab	-0.039812725
73	0x3ba78ae3	0.005112992
74	0x3ccc5bf4	0.02494619
75	0xbb7bf9ee	-0.003844853
76	0x3d3a452d	0.045476127
77	0xbd369f40	-0.044585466
78	0xbd272c6e	-0.040813856
79	0xbd1e39ce	-0.038629346
80	0xbe02a74b	-0.1275913
81	0x3d085b21	0.033290032
82	0x3d7f422b	0.062318962
83	0xbc2e72a2	-0.010647448
84	0xbdb76d80	-0.08956432
85	0x3d83bd10	0.06432545
86	0x3cbcde26	0.023055147
87	0x3e3036d7	0.1720842
88	0xbc5bdbcb	-0.013419102
89	0xbc8dc74b	-0.017306944
90	0x3c124de0	0.0089297
91	0x3d9d7301	0.07687951
92	0x3cd49bd4	0.02595321
93	0xbd889131	-0.06668318
94	0x3d46921b	0.04847918
95	0xbc9e8ca8	-0.01935418
96	0xbcc23e92	-0.023711476
97	0xbdd6e0f6	-0.10492127
98	0xbd0ee97b	-0.034890633
99	0xbd57a9eb	-0.05265228
100	0xbd34f9d2	-0.04418356
101	0xbcbafa8c	-0.022824548
102	0x3d6ac8dc	0.05732046
103	0x3d88dd0b	0.066827856
104	0xbd837911	-0.06419576
105	0xbdfa9a26	-0.12236433
106	0x3ca3037f	0.019899128
107	0xbc6c5cd5	-0.01442643
108	0x3e5a6218	0.21326482
109	0xbcbbe059	-0.022934126
110	0x3b84822b	0.0040438375
111	0xbce7ccaa	-0.028295834
112	0x3addf81b	0.0016934903
113	0xbd540b01	-0.051768307
114	0x3c90ecad	0.01769098
115	0x3dca9ffa	0.09893794
116	0x3db83c16	0.089958355
117	0xbd5c2b69	-0.053752337
118	0x3dad5275	0.08462993
119	0x3e2713fb	0.16316216
120	0xbb205421	-0.0024464207
121	0xba8c4cec	-0.0010704077
122	0xbcdb97e8	-0.026805833
123	0x3ce44dff	0.027869223
124	0xbbf1065c	-0.0073554944
125	0xbc425c24	-0.011862788
126	0xbd65835c	-0.056033477
127	0x3cbc58f7	0.02299164
128	0x3c53194d	0.01288445
129	0xbb08b362	-0.0020858874
130	0xbc900404	-0.01758004
131	0xbc5db0d7	-0.013530931
132	0x3b6bd3d3	0.0035984411
133	0x3aa755a2	0.001276661
134	0xbd09ce0f	-0.03364378
135	0x3baee597	0.005337428
136	0x3d124f42	0.035720117
137	0xbb4a8487	-0.0030901746
138	0xbd603bb8	-0.054744452
139	0xb9279f2a	-0.00015985654
140	0x3e239105	0.1597329
141	0xbb643009	-0.003481867
142	0x3d8e5837	0.069504194
143	0xbd39edc2	-0.04539276
144	0xbd2b7390	-0.041858256
145	0x3d9cfa02	0.07664873
146	0xbcda7d04	-0.02667094
147	0xbe16a3d6	-0.14710936
148	0xbe4fb54c	-0.20284003
149	0x3de2156e	0.11039244
150	0xbdd085ad	-0.10181747
151	0x3c93f572	0.018061373
152	0xbcda9a7f	-0.026684998
153	0x3da19a04	0.07890704
154	0x3d389aa6	0.04506936
155	0xbcc2ad94	-0.02376441
156	0x3d8d7c75	0.06908504
157	0x3c11ab4a	0.008890936
158	0x3dc615c9	0.09672124
159	0xbe4a3a72	-0.19748858
160	0x3c0b802a	0.008514443
161	0xbcf60196	-0.030030053
162	0xbd20936b	-0.03920309
163	0x3d2ac014	0.041687086
164	0xbc655804	-0.013998035
165	0xbc61f4ed	-0.013791305
166	0xbb26ffcd	-0.002548206
167	0x3dcbc047	0.09948783
168	0x3d823ab2	0.063588515
169	0xbc49e922	-0.01232365
170	0xbbabe65c	-0.005245967
171	0xbc1a0b85	-0.0094021605
172	0xbadd8ad1	-0.0016902332
173	0xbcaf58dc	-0.021404676
174	0xbcad757e	-0.021174189
175	0xbc1e1174	-0.009647716
176	0x3da28885	0.07936195
177	0xbd276b9a	-0.0408741
178	0xbce9754e	-0.028498318
179	0x3d04dde2	0.032438166
180	0xbc881f2e	-0.01661643
181	0xbc321995	-0.010870357
182	0x3d88894e	0.06666814
183	0x3db2c927	0.08729773
184	0xbc9a133f	-0.018808005
185	0x3d3d95a6	0.046285294
186	0x3d0a17ff	0.03371429
187	0xbd8c196f	-0.068407886
188	0x3e0af36b	0.13569419
189	0x3bc83aaa	0.006110509
190	0x3d4dcb2a	0.05024258
191	0xbcb0a3bf	-0.021562455
192	0x3ae9e6b7	0.0017845248
193	0x3c81e2a5	0.015855143
194	0x3c87fa9b	0.01659899
195	0x3cca20d6	0.02467386
196	0x3ceef1c3	0.029168015
197	0x3d322c2d	0.04349916
198	0x3bd81c23	0.006595151
199	0xbc0da68e	-0.008645667
200	0xbcf83d51	-0.030302675
201	0x3d72f7aa	0.059318222
202	0xbd156288	-0.03647092
203	0x3e2f0326	0.17091045
204	0x3c9279bd	0.017880315
205	0x3d40be68	0.047056586
206	0xbd420e7a	-0.047377087
207	0x3db97372	0.090552226
208	0x3d8f1086	0.069855735
209	0xbd99494e	-0.07484685
210	0x3e1a26b7	0.15053831
211	0xbdf70fea	-0.12063582
212	0xbc59faf7	-0.013304464
213	0x3d4bdf33	0.049773406
214	0xbe02774b	-0.12740819
215	0xbcbc19f1	-0.022961589
216	0xbdb3bb2c	-0.087759346
217	0xbe123add	-0.14280267
218	0xbd9e0ffa	-0.07717891
219	0xbc8df485	-0.01732851
220	0xbd12e41f	-0.035862084
221	0x3d9e43cd	0.07727776
222	0xbd64ca56	-0.055857025
223	0x3db818e2	0.08989121
224	0xbc98a477	-0.01863311
225	0xbdacff25	-0.084471025
226	0x3e46580e	0.19369528
227	0x3dba6698	0.091015995
228	0xbd71d131	-0.05903739
229	0xbb32fc59	-0.0027311055
230	0xbcc6a3c8	-0.024248019
231	0xbbd3d26f	-0.0064642946
232	0xbe038227	-0.12842618
233	0x3c4f4e2a	0.012652913
234	0xbba9611a	-0.005169046
235	0xbd084baa	-0.033275284
236	0x3d62242a	0.05521027
237	0xbc067daf	-0.008208676
238	0x3d693c03	0.056941997
239	0x3c299155	0.010349591
240	0xbd81f70b	-0.06345948
241	0xbe2d9ca1	-0.1695428
242	0x3c19d5d5	0.00938936
243	0x3d9d968a	0.07694729
244	0xbbd58c65	-0.0065169805
245	0xbdd8fbc7	-0.10594898
246	0xbd103c90	-0.035214007
247	0x3d57c406	0.052677177
248	0x3d920c92	0.07131304
249	0xbc2fd071	-0.010730849
250	0xbcc4b800	-0.02401352
251	0xbcdac5a0	-0.026705563
252	0xbcc08bf8	-0.023504242
253	0x3c864a03	0.016392713
254	0xbc822b90	-0.015889913
255	0xbd4106ad	-0.047125507

lstm.weight_hh_l0 f4 [512, 128]
0	0xbe69ec96	-0.22844157
1	0xbdd3f03f	-0.10348558
2	0xbe895c82	-0.2682839
3	0x3c234e4e	0.0099674
4	0x3defe0f4	0.11712828
5	0x3e1cc200	0.1530838
6	0x3d8ef827	0.06980925
7	0x3aa4dd59	0.0012578174
8	0xbc963c5f	-0.018339334
9	0x3c81c264	0.015839763
10	0xbd754796	-0.059882723
11	0x3de7c884	0.11317542
12	0xbc6d94b8	-0.014500789
13	0x3d546c74	0.05186124
14	0x3e644b9c	0.22294468
15	0xbdf8c3df	-0.121467344
16	0xbe461480	-0.19343758
17	0x3d96c4f8	0.073617876
18	0xbe62c07f	-0.22143744
19	0xbdb696d0	-0.08915484
20	0xbdcb93e7	-0.099403195
21	0xbe2e6993	-0.17032461
22	0xbca9af2b	-0.02071341
23	0x3ce2bfaf	0.027679292
24	0xbb2c38ac	-0.0026278896
25	0xbe4d0138	-0.20019996
26	0xbcbfb3bf	-0.02340114
27	0xbce7422f	-0.028229801
28	0x3e2ea31a	0.17054406
29	0xbb8ed52c	-0.004358908
30	0xbe052beb	-0.13005035
31	0xbb7f9cc9	-0.0039003363
32	0xbe4063f7	-0.18788134
33	0xbab8418a	-0.0014057618
34	0xbdcda6fb	-0.100416146
35	0xbd944ce4	-0.07241228
36	0xbdc39068	-0.09549028
37	0x3cd349dc	0.025792055
38	0x3e32db31	0.17466427
39	0x3e13d508	0.14436734
40	0xbcc844f6	-0.024446946
41	0xbdf99c4d	-0.12188015
42	0x3ddd2da2	0.107997194
43	0xbe0180c7	-0.12646781
44	0xbd7876b7	-0.06066009
45	0xbd23f520	-0.04002869
46	0x3e7a38fd	0.24435802
47	0x3def0dc3	0.11672547
48	0x3e5775d6	0.21041045
49	0xbe60afe9	-0.21942104
50	0xbc5607e8	-0.013063408
51	0xbd1f725c	-0.03892742
52	0xbd55b436	-0.052173816
53	0xbdea678d	-0.11445532
54	0xbdf3bc3e	-0.11901139
55	0x3e085224	0.13312584
56	0x3ca4d3f2	0.020120595
57	0xbd862d84	-0.0655165
58	0x3dc16672	0.09443368
59	0xb9004aaf	-0.00012234853
60	0x3dfc856b	0.12330135
61	0x3c9e6d3d	0.019339198
62	0x3e3bb4f3	0.18330745
63	0xbdaf3cb0	-0.08556497
64	0x3d6fa57f	0.05850744
65	0xbc25cada	-0.010119164
66	0xbd9efa7f	-0.07762622
67	0x3e338539	0.17531289
68	0x3dfdb4bc	0.12387988
69	0x3d891ff4	0.06695548
70	0x395877cc	0.00020643993
71	0x3e317ed3	0.17333536
72	0x3d94578b	0.0724326
73	0xbc5417e3	-0.012945148
74	0xbc008f3e	-0.007846652
75	0xbeb25ec1	-0.34837916
76	0x3bd3a5ad	0.006458959
77	0x3d7980f6	0.060914002
78	0xbd714883	-0.058907043
79	0xbe46a320	-0.19398165
80	0x3e34dacb	0.17661588
81	0xbcc1d97e	-0.023663279
82	0x3e755850	0.2395947
83	0x3e0f5515	0.139973
84	0xbe823ee2	-0.254386
85	0x3e0ffa07	0.14060222
86	0xbe537cd6	-0.2065309
87	0xbe4792a4	-0.19489533
88	0xbc92442a	-0.017854769
89	0xbd3bbb2f	-0.04583281
90	0x3e44834a	0.19190708
91	0x3dddeb37	0.10835879
92	0xbe5d2c76	-0.21598992
93	0x3d855ba8	0.06511623
94	0x3ccdaf84	0.025108106
95	0x3e047470	0.12935042
96	0xbd42bfd8	-0.047546238
97	0x3dd6330c	0.10458955
98	0xbcf09140	-0.029366136
99	0x3d31ed85	0.043439407
100	0xbe2a75de	-0.16646525
101	0xbd01721a	-0.031602956
102	0xbdd800e8	-0.10547048
103	0x3e10509e	0.14093253
104	0x3c8085b0	0.015688747
105	0x3e0c03cc	0.13673323
106	0xbd67c419	-0.056583498
107	0x3d3c8de9	0.046033774
108	0x3d3d17fd	0.046165455
109	0xbe2d9d0d	-0.16954441
110	0x3de2cd94	0.11074367
111	0x3e2eecae	0.17082474
112	0xbe5d0017	-0.21582066
113	0xbbc3bd15	-0.005973468
114	0xbe07fd58	-0.13280237
115	0x3e478c67	0.19487153
116	0xbd9a8d56	-0.07546489
117	0xbe0f706f	-0.14007734
118	0x3ea11e22	0.31468302
119	0x3e818d16	0.25302953
120	0xbd006148	-0.031342775
121	0x3e5ac3cd	0.21363755
122	0x3ce8e5d5	0.028429905
123	0x3d60b535	0.054860312
124	0xbd4b6cb7	-0.049664225
125	0x3e9c9f70	0.3059039
126	0x3e75d350	0.2400639
127	0xbdbbe0af	-0.09173714
128	0x3df908ef	0.12159907
129	0x3e16ce94	0.14727241
130	0x3dd207e9	0.10255415
131	0xbb04e64a	-0.0020278865
132	0xbe249b1c	-0.16074795
133	0xbc981f94	-0.018569745
134	0x3e0268b8	0.1273526
135	0x3da6133f	0.0810914
136	0x3e39be83	0.1813908
137	0xbd958acb	-0.07301863
138	0x3c8b50f0	0.017006367
139	0x3d75b3fe	0.059986107
140	0xbe31c187	-0.17358981
141	0x3defb005	0.11703495
142	0x3d6fec45	0.058574934
143	0xbd7d3046	-0.061813615
144	0xbdbd2be9	-0.09236891
145	0x3c535e63	0.0129009215
146	0x3dfd1dbb	0.12359186
147	0x3e0eebd9	0.13957156
148	0xbe27de9b	-0.16393511
149	0xbdf64283	-0.12024405
150	0xbc1f45bd	-0.009721217
151	0xbe1edb7c	-0.15513414
152	0x3e38cd92	0.18047169
153	0x3e9fd8b1	0.3122001
154	0xbe21931f	-0.15778778
155	0x3de9e5ff	0.114208214
156	0xbe3ae522	-0.1825147
157	0xbdc46e11	-0.09591306
158	0x3ded0a9c	0.11574289
159	0xbe8e771a	-0.27825242
160	0xbd6dab42	-0.058024652
161	0xbdc0488a	-0.09388836
162	0xbde38826	-0.11109953
163	0xbd9c4fa9	-0.076323815
164	0xbe04c961	-0.12967445
165	0x3d9ae19f	0.07562565
166	0xbcd96e1b	-0.02654176
167	0xbe323f8a	-0.1740705
168	0xbc88f26d	-0.01671716
169	0x3c966d19	0.018362569
170	0xbe18ab6f	-0.14909147
171	0x3d5e353c	0.054249987
172	0xbd9894af	-0.07450234
173	0x3ded3452	0.11582245
174	0xbd8f8e3e	-0.070095524
175	0xbe3c129a	-0.18366471
176	0x3da56bc5	0.08077196
177	0xbab90a2a	-0.0014117409
178	0x3d439694	0.047751024
179	0x3e0b3d9e	0.13597724
180	0xbd218d76	-0.03944155
181	0x3d260a14	0.040536955
182	0x3db1db4f	0.08684408
183	0xbd84cef1	-0.064847834
184	0x3e11ccc0	0.14238262
185	0x3dd162fb	0.10223957
186	0xbdbfc038	-0.09362835
187	0xbe111d6b	-0.14171378
188	0xbdcc633d	-0.09979866
189	0x3d69b731	0.05705947
190	0x3e2a5db5	0.16637309
191	0x3dc05b4b	0.09392413
192	0xbd8854fa	-0.06656833
193	0x3c4c745d	0.012478915
194	0xbdcaef0a	-0.09908874
195	0xbdbde1bb	-0.0927157
196	0xbcbeb7c9	-0.023280995
197	0xbe0d3129	-0.13788284
198	0x3dc75aaf	0.097340934
199	0x3debec7c	0.11519715
200	0xbdd01f49	-0.10162217
201	0x3aaa72ce	0.0013004185
202	0x3d9eb5fc	0.077495545
203	0x3db750b5	0.089509405
204	0x3dd66e58	0.10470265
205	0xbe18cbed	-0.14921542
206	0x3d5f33fb	0.05449293
207	0x3f0556cd	0.5208557
208	0xbc20dbcb	-0.009818028
209	0x3e29756c	0.16548699
210	0xbe5e8026	-0.21728572
211	0x3d45e48c	0.048313662
212	0x3adbb328	0.0016761767
213	0xbc99ac11	-0.018758805
214	0x3deb33ce	0.1148449
215	0x3d3536d4	0.04424174
216	0xbda065a0	-0.078318834
217	0x3d8fc9fe	0.07020949
218	0x3e4e74ae	0.20161697
219	0x3e911524	0.28336442
220	0x3d286e7f	0.041121002
221	0xbe07c523	-0.13258795
222	0x3d33f968	0.043939024
223	0x3e693b77	0.2277659
224	0xbdb6519d	-0.08902285
225	0xbe706276	-0.2347506
226	0x3d9f0c71	0.07766045
227	0xbe6aff03	-0.22948842
228	0xbdaa3ca4	-0.083123475
229	0xbe125c55	-0.14293034
230	0xbcf769f4	-0.03020189
231	0xbc51c322	-0.012802871
232	0xbe2fc5d0	-0.17165303
233	0x3d0b2858	0.03397402
234	0x3dfcfb83	0.123526596
235	0xbd38a693	-0.045080733
236	0x3e3b914b	0.18317144
237	0x3e46b7b7	0.19406019
238	0x3d9e9ddf	0.07744955
239	0x3de3f9a5	0.111316
240	0x3d1391c0	0.03602767
241	0xbcfde544	-0.030993111
242	0x3d1c9d51	0.038235966
243	0x3d3af044	0.04563929
244	0x3e0ed31c	0.1394772
245	0xbd963db5	-0.073359884
246	0xbe3de586	-0.18544587
247	0x3c2d4525	0.010575567
248	0xbd549936	-0.051903926
249	0x3d0979ec	0.03356354
250	0x3be258f9	0.006907579
251	0x3e825222	0.25453287
252	0x3db8ca86	0.09023003
253	0xbd161172	-0.03663773
254	0x3def01ae	0.11670242
255	0x3dd5edca	0.10445745

lstm.bias_ih_l0 f4 [512]
0	0xbce32935	-0.02772961
1	0xbd4a25f8	-0.049352616
2	0x3c803364	0.015649505
3	0x3af5a386	0.001874075
4	0x3cfec9e6	0.031102132
5	0x3d800268	0.06250459
6	0x3c8e21e6	0.017350148
7	0x3ce10a28	0.027470663
8	0x3dd3e8f9	0.103471704
9	0x3b6926c4	0.0035576085
10	0xb867c24e	-5.5255652e-05
11	0xbd2850ad	-0.041092563
12	0x3e3bbb28	0.18333113
13	0xbdcb0311	-0.09912694
14	0x3d4f7050	0.05064422
15	0xbdc2fd3e	-0.09520958
16	0x3daf41af	0.0855745
17	0x3e344657	0.17604958
18	0x3d736f93	0.059432577
19	0x3d011ff5	0.031524617
20	0x3e0368d2	0.12832955
21	0x3e86ea31	0.2635055
22	0x3cf92f0a	0.030417938
23	0x3e2e0d21	0.16997196
24	0x3d964db3	0.07339039
25	0xbe12b823	-0.14328055
26	0x3a6b1e4f	0.0008969055
27	0x3db5305a	0.08847113
28	0x3da90aa6	0.08253984
29	0x3dfb8905	0.12281994
30	0x3deb55e7	0.11490994
31	0x3d3eef85	0.046615142
32	0x3da33980	0.07969952
33	0x3cd5502e	0.02603921
34	0x3d477682	0.048697002
35	0x3e2116d5	0.15731366
36	0xbe1b81a0	-0.15186167
37	0x3e90d586	0.28287905
38	0xbdb0598b	-0.08610829
39	0x3dbc6261	0.09198452
40	0x3d1bb2e2	0.038012393
41	0x3d99b75b	0.075056754
42	0xbb3b3663	-0.0028566353
43	0x3df4df0e	0.11956607
44	0xbd8a2eeb	-0.0674723
45	0x3db2b1e1	0.08725334
46	0xbe0e9979	-0.13925733
47	0xbdb735e2	-0.08945824
48	0x3e71f071	0.23626877
49	0x3d679304	0.05653669
50	0xbd72dbfb	-0.05929182
51	0xbc710bd1	-0.01471229
52	0xbd0d5ac8	-0.034510404
53	0x3dc2586a	0.0948952
54	0xbd8f6ed7	-0.07003563
55	0x3e29d4b6	0.16585049
56	0xbdbf9cc7	-0.09356075
57	0x3e031803	0.12802128
58	0xbd847a13	-0.06468596
59	0x3d40e408	0.047092468
60	0xbd2c5dbb	-0.042081576
61	0x3e359f1d	0.17736478
62	0xbd0c1436	-0.034198962
63	0x3d83c24a	0.06433542
64	0x3d012417	0.03152856
65	0xbd2ee0de	-0.04269492
66	0x3dbfcbf5	0.093650736
67	0x3b193839	0.0023379459
68	0x3e18cb0e	0.14921209
69	0x3e137876	0.14401421
70	0xbcc8f5ee	-0.02453133
71	0x3cc72926	0.024311613
72	0x3e0b6d1a	0.13615838
73	0x3e5222cd	0.20521088
74	0x3d724f68	0.05915776
75	0x3e5cb67e	0.2155399
76	0x3e35bd71	0.17748047
77	0x3e253cf3	0.16136532
78	0x3d73e744	0.059546724
79	0xbdd491c6	-0.103793666
80	0x3b1e3bee	0.0024144608
81	0x3dda1789	0.1064902
82	0x3e05dfc2	0.13073638
83	0x3dab2c4c	0.08358058
84	0xbcb79213	-0.02240852
85	0x3c98a6d2	0.018634234
86	0xbdc22a38	-0.09480709
87	0x3b8dc9ef	0.004327051
88	0x3d3600e4	0.044434443
89	0xbcc7afdf	-0.024375854
90	0xbd645193	-0.055741858
91	0x3d13dbfc	0.036098465
92	0x3e1d1fc5	0.1534415
93	0x3e2662bd	0.16248603
94	0x3dbc033e	0.09180306
95	0x3de3d86c	0.111252636
96	0x3daac34f	0.083380334
97	0xbcebeb80	-0.028798819
98	0x3d5a80a7	0.05334535
99	0xbcfeda5c	-0.031109981
100	0x3e4684c8	0.1938659
101	0x3d83bb26	0.0643218
102	0x3d81cb5c	0.06337616
103	0xbd01fea2	-0.031736977
104	0x3de726f9	0.1128673
105	0x3de67294	0.11252323
106	0x3b55e9a5	0.0032640484
107	0x3d872cb4	0.06600323
108	0xbccc8d3a	-0.024969686
109	0xbd217123	-0.039414536
110	0x3d6f4e96	0.058424555
111	0x3dfc3f5d	0.12316773
112	0xbd951ab7	-0.07280486
113	0x3d8d42e6	0.068975255
114	0xbe530b10	-0.20609689
115	0xbde1cd06	-0.11025433
116	0xbdc673d5	-0.09690062
117	0x3e62ddbe	0.221549
118	0x3d9ebf36	0.07751314
119	0x3e30543a	0.1721963
120	0xbd872448	-0.06598717
121	0x3e3b1be8	0.18272364
122	0x3e26f6a4	0.16305023
123	0xbd7b1206	-0.061296485
124	0x3dd66fee	0.10470568
125	0xbdc1a291	-0.09454835
126	0xbcde0886	-0.027103674
127	0x3e0e7ba8	0.13914359
128	0xba1138b5	-0.0005539761
129	0x3d5c679c	0.053809747
130	0x3dd8fde8	0.10595304
131	0x3e351441	0.17683508
132	0xbd394893	-0.045235228
133	0xbc6a86f5	-0.014314403
134	0x3e26ec95	0.16301186
135	0x3d532458	0.051548332
136	0x3e8023d8	0.25027347
137	0x3d8745d6	0.06605117
138	0x3e641e38	0.22277153
139	0xbd77b8f3	-0.060479116
140	0xbd90505f	-0.070465796
141	0x3dc4e4a1	0.0961392
142	0xbe10e33d	-0.14149185
143	0x3db02ab2	0.086018935
144	0x3e012038	0.12609947
145	0x3dba783e	0.091049656
146	0xbbc06911	-0.0058719
147	0x3dc41a11	0.09575284
148	0xbd126215	-0.03573807
149	0xbd0906be	-0.033453695
150	0xbe048f32	-0.1294525
151	0xbc9cac4a	-0.019125123
152	0x3d263b97	0.040584173
153	0x3e4d09c9	0.20023264
154	0xbd93fc0c	-0.072258085
155	0xbc934ae4	-0.017980047
156	0xbc03bd9f	-0.008040815
157	0x3dd45f7f	0.10369777
158	0x3da4438e	0.080206975
159	0x3d6a9362	0.05726946
160	0x3e5f9745	0.21835048
161	0x3e05838a	0.1303846
162	0x3e202e2a	0.1564261
163	0x3d396800	0.045265198
164	0xbb50adff	-0.003184199
165	0xbc82dd97	-0.015974803
166	0x3d7e96c2	0.062155493
167	0x3e3b3563	0.18282084
168	0x3da17dd5	0.07885329
169	0xbde9f5d1	-0.11423839
170	0x3dbb6d8d	0.091517545
171	0x3e2f1bf4	0.17100507
172	0x3ce259d0	0.027630717
173	0x3e5a2bd8	0.21305788
174	0x3b27ef5a	0.0025624842
175	0x3e8a9a02	0.27070624
176	0x3dacdf38	0.08441013
177	0x3dc6539c	0.09683916
178	0x3d37a573	0.04483552
179	0x3df62eab	0.1202062
180	0x3e213201	0.15741731
181	0x3e554eae	0.20830795
182	0x3e163230	0.14667583
183	0x3e369961	0.17831947
184	0x3dd98347	0.10620742
185	0xbd98e52c	-0.07465586
186	0xbb8e6bf4	-0.004346365
187	0xbd3be272	-0.045870252
188	0x3b48c5a1	0.0030635374
189	0x3c29526d	0.010334593
190	0x3e04bb26	0.12962016
191	0x3dbda4ae	0.09259926
192	0x3dfdcb3b	0.12392279
193	0x3d5d94e6	0.05409708
194	0x3e1783f6	0.14796433
195	0xbc0416be	-0.008062063
196	0x3dc0c35f	0.09412264
197	0x3ad5e719	0.0016319483
198	0x3dcd0134	0.10009995
199	0x3db01baa	0.085990265
200	0x3e6327f9	0.22183217
201	0x3e27ee4f	0.16399501
202	0x3c96379a	0.01833706
203	0xbd2983f6	-0.041385613
204	0xbae9d7bc	-0.0017840783
205	0x3dcc6ba0	0.09981465
206	0x3ddc4d3f	0.10756921
207	0x3e2ae746	0.16689786
208	0x3d70dbca	0.058803357
209	0x3e07fbf8	0.13279712
210	0xbd012d82	-0.03153754
211	0x3d505958	0.050866455
212	0x3e08fc07	0.13377391
213	0x3c4ef452	0.012631493
214	0x3db27ca2	0.08715178
215	0x3d65b6ef	0.056082662
216	0x3d78bb1b	0.060725313
217	0x3d4995bc	0.049215063
218	0x3e08a983	0.13345914
219	0x3d431f27	0.04763713
220	0xbd4ac254	-0.049501732
221	0x3d8184a6	0.06324129
222	0x3d32c771	0.043647233
223	0x3d8e359c	0.06943819
224	0x3e6f133f	0.23347186
225	0x3e6def50	0.23235822
226	0xbd55b6af	-0.052176174
227	0x3e585931	0.21127774
228	0x3cdf0469	0.027223783
229	0xbbcd52e7	-0.0062659862
230	0x3dc3127f	0.09525012
231	0x3d698567	0.057011988
232	0x3e4d2143	0.2003222
233	0x3e8d1322	0.2755366
234	0x3e00912c	0.12555379
235	0x3cb12215	0.021622697
236	0xbb2b90cb	-0.0026178833
237	0x3dbacdf6	0.09121315
238	0x3d136565	0.03598537
239	0x3dffa84c	0.12483272
240	0x3db03c7b	0.08605286
241	0xbc75e5f5	-0.015008439
242	0x3e70d134	0.23517305
243	0x3df549b5	0.11976949
244	0xbcb371ec	-0.021904908
245	0x3bcff5f9	0.006346461
246	0xbd0f3414	-0.034961775
247	0x3de8254b	0.11335238
248	0xbce02dc9	-0.027365582
249	0x3e35e6af	0.1776378
250	0x3d22683f	0.039650198
251	0x3d886eee	0.06661783
252	0xbc78e547	-0.015191383
253	0x3e03385f	0.12814473
254	0x3c4dc443	0.0125589995
255	0x3e887c86	0.26657504
