notebooks/best_model_tbnn_20.pth (torch, 984435 bytes, 22 tensors)

linear.weight f4 [20, 10]
0	0xbeda1af7	-0.42598698
1	0x3f0125b6	0.5044817
2	0xbeafd233	-0.34340057
3	0x3f03e21b	0.51516885
4	0x3e952daf	0.29136416
5	0x3da746df	0.081678145
6	0x3ce03878	0.027370676
7	0x3db1c26c	0.08679661
8	0x3d888b8f	0.06667244
9	0xbd340415	-0.043949205
10	0xbea2f001	-0.31823733
11	0xbdc18b0d	-0.0945035
12	0xbe9e07a4	-0.30865204
13	0xbe531c60	-0.20616293
14	0x3eb243e5	0.34817424
15	0x3e5d3000	0.21600342
16	0x3ca01fcb	0.01954641
17	0xbe7a3774	-0.24435216
18	0xbc473d1c	-0.012160566
19	0xbdd2fd4b	-0.10302218
20	0x3e70be7b	0.23510163
21	0xbe10608a	-0.14099327
22	0xbe4e8f97	-0.20171963
23	0x3eab98b0	0.3351493
24	0x3e84129e	0.25795454
25	0xbd5c1b86	-0.053737186
26	0xbd923cc1	-0.07140494
27	0x3c5de6e9	0.013543823
28	0xbdac1a00	-0.084033966
29	0x3e9f2000	0.31079102
30	0xbda25870	-0.07927024
31	0x3ed3011b	0.4121178
32	0xbd65e081	-0.056122307
33	0x3f09e852	0.5387012
34	0x3e6df6c2	0.23238662
35	0xbe6c344d	-0.23066826
36	0xbe41a51b	-0.18910639
37	0xbde41f86	-0.11138825
38	0x3c8358a8	0.016033486
39	0xbe7864c1	-0.24257185
40	0x3e22e955	0.15909322
41	0x3b9bd542	0.004755647
42	0xbe07f882	-0.13278392
43	0xbe368705	-0.17824943
44	0x3e885e0c	0.26634252
45	0x3e734218	0.23755682
46	0x3e197e50	0.1498959
47	0x3da9149c	0.08255884
48	0xbe9fda4e	-0.3122124
49	0x3d8b417c	0.067995995
50	0x3db92289	0.0903979
51	0xbdf325d6	-0.11872451
52	0x3b155d85	0.0022791338
53	0x3e1b8d0a	0.15190521
54	0xbe56f9f6	-0.2099379
55	0xbeb400d9	-0.35156897
56	0xbd78b5d3	-0.060720276
57	0xbdc46d95	-0.095912136
58	0x3dd09bde	0.10185979
59	0xbd569a2b	-0.05239312
60	0x3e1e46cf	0.15456699
61	0xbe3524eb	-0.17689864
62	0xbd13b6ce	-0.036063008
63	0x3e15f5de	0.14644572
64	0x3dc04d5c	0.09389755
65	0xbe55314c	-0.20819587
66	0x3db4f741	0.088362224
67	0xbdd3d83d	-0.103439786
68	0x3eaca11b	0.33716664
69	0xbe85f593	-0.2616392
70	0x3e81de18	0.25364757
71	0x3de6577e	0.112471566
72	0x3eac585d	0.33661166
73	0xbdcdc6ea	-0.100477055
74	0x3ee7da4e	0.4528374
75	0x3ee25ee1	0.44213012
76	0xbe581c9d	-0.21104665
77	0x3e9efb38	0.3105104
78	0xbde2efb6	-0.110808775
79	0xbe8a8826	-0.27056998
80	0xbdb8b007	-0.090179496
81	0x3d81b75c	0.06333801
82	0x3e4622e6	0.1934925
83	0x3e11e8f4	0.14249021
84	0xbe39ff91	-0.18163897
85	0xbea95db6	-0.33079308
86	0xbcd385e5	-0.025820682
87	0x3e699991	0.22812487
88	0x39827576	0.00024883047
89	0xbe3d1dab	-0.18468349
90	0xbeabef46	-0.3358099
91	0xbdb6f365	-0.089331426
92	0xbe483294	-0.19550544
93	0xbe9c6eb7	-0.3055322
94	0x3e437db3	0.19090919
95	0xbea51cc9	-0.32248524
96	0xbdcabf54	-0.09899774
97	0xbe4c5bfe	-0.19956967
98	0xbef94ec1	-0.48692897
99	0x3e26399d	0.16232915
100	0x3e89a719	0.26885298
101	0x3eae1c0c	0.34005773
102	0xbe2f32db	-0.17109244
103	0xbe943f70	-0.2895465
104	0x3dc62df6	0.09676735
105	0x3e2563b5	0.16151316
106	0x3d400cf1	0.046887342
107	0xbdc4c1bb	-0.09607264
108	0xbeb55326	-0.35415
109	0xbcb5abfb	-0.022176733
110	0xba95b687	-0.0011422195
111	0x3e6134f3	0.21992855
112	0xbe810ad5	-0.25203577
113	0x3ed4f466	0.4159271
114	0x3f02ce41	0.5109597
115	0xbd413e6a	-0.047178663
116	0xbf00dee4	-0.50340104
117	0xbda7787d	-0.08177278
118	0xbedf6ef4	-0.43639338
119	0xbc272dcc	-0.01020379
120	0xbdeb6731	-0.114942916
121	0x3e66385b	0.22482435
122	0xbdc822ee	-0.09772287
123	0xbd84a790	-0.064772725
124	0x3e6af793	0.22946005
125	0x3e2fe41a	0.17176858
126	0xbc8404bf	-0.016115544
127	0xbe14b581	-0.14522363
128	0x3eac7d8e	0.3368954
129	0x3eb760fa	0.35816175
130	0xbe063a0a	-0.13108078
131	0xbeb0a863	-0.3450347
132	0x3e2b16b1	0.16707875
133	0xbe24065f	-0.16018055
134	0x3e4c73ff	0.19966124
135	0xbe6d91aa	-0.23200098
136	0xbe32a78e	-0.1744673
137	0xbf012ac1	-0.5045586
138	0x3e12f82e	0.14352486
139	0xbe0d999b	-0.13828127
140	0xbe4f7048	-0.20257676
141	0xbe33279c	-0.17495579
142	0x3bd4af69	0.006490637
143	0x3d904c83	0.070458435
144	0x3e8528bf	0.2600765
145	0x3e1c9ce5	0.15294226
146	0x3b42279e	0.0029625664
147	0x3c83ec5d	0.016103918
148	0xbda6e783	-0.08149626
149	0x3ebfadbb	0.37437233
150	0xbde3af94	-0.11117473
151	0x3f00b7ad	0.50280267
152	0xbcea57bb	-0.028606286
153	0x3f2c3221	0.6726399
154	0x3e916ac1	0.2840176
155	0xbdd84ec5	-0.10561899
156	0xbe50f45f	-0.2040572
157	0x3e4bbc48	0.19896042
158	0xbecc813f	-0.39942357
159	0x3d8efb0d	0.06981478
160	0xbd373f0b	-0.044737857
161	0x3dd9acd9	0.10628671
162	0x3eb90d6f	0.36143062
163	0xbe7f9c09	-0.24961866
164	0x3d8a0ff6	0.067413256
165	0xbdcb3d3d	-0.0992379
166	0x3c4f061c	0.012635734
167	0xbe8c4856	-0.27398938
168	0xbe34c266	-0.17652282
169	0x3d9422ea	0.07233222
170	0xbac526dc	-0.0015041488
171	0xbca0b290	-0.019616395
172	0xbe537f1f	-0.20653962
173	0x3e2f5eaa	0.17125955
174	0xbdec3502	-0.11533548
175	0xbc2b210e	-0.010444893
176	0x3c7ee697	0.015557907
177	0x3c374891	0.011186735
178	0x3d533bea	0.05157081
179	0xbd8e7cf8	-0.0695743
180	0xbe8163f1	-0.25271562
181	0x3d9fb449	0.077980585
182	0xbc244823	-0.010026964
183	0xbe454b0a	-0.19266906
184	0xbe5ce995	-0.2157348
185	0xbe8987d2	-0.26861435
186	0xbe71bc9c	-0.23607105
187	0x3eb0d38b	0.34536394
188	0xbe21e23e	-0.15808961
189	0xbdc211ba	-0.09476037
190	0x3e26ed72	0.16301516
191	0xbe85d96f	-0.2614245
192	0x3c05e1f3	0.008171546
193	0x3e9dacb2	0.3079582
194	0x3e1a72a4	0.15082794
195	0x3e405210	0.18781304
196	0x3e11d9f9	0.14243306
197	0xbe836a80	-0.2566719
198	0xbc8e25a2	-0.01735193
199	0x3ea0035d	0.31252566

linear.bias f4 [20]
0	0x3cf2c513	0.029634988
1	0xbc979d6a	-0.018507678
2	0xbdcde440	-0.10053301
3	0x3ea0c342	0.3139897
4	0xbed86991	-0.4226804
5	0xbe61c725	-0.22048624
6	0xbe2dd655	-0.16976292
7	0xbd7c277e	-0.0615611
8	0xbc23d311	-0.009999053
9	0x3c72fb62	0.014830442
10	0xbea7d78d	-0.3278164
11	0x3e05cae6	0.13065681
12	0xbd0e9281	-0.034807686
13	0x3d616af7	0.05503365
14	0xbca9d1f5	-0.020729998
15	0x3e8af704	0.27141583
16	0x3d9a27b8	0.07527107
17	0xbb24559f	-0.0025075448
18	0xbe40bdc1	-0.18822385
19	0x3e1e7eac	0.15478009

hidden_layers.0.weight f4 [20, 20]
0	0xbe022555	-0.12709554
1	0x3ea4ff8d	0.3222622
2	0x3e2275ae	0.15865204
3	0xbda74928	-0.0816825
4	0x3caa5673	0.020793175
5	0xbb8e6d29	-0.004346509
6	0x3e356da7	0.1771761
7	0xbd6982dd	-0.057009567
8	0x3cfd0095	0.030884067
9	0x3cb4eaa1	0.022084536
10	0x3e1ebc0d	0.15501423
11	0xbe21608b	-0.15759484
12	0x3e207ade	0.1567187
13	0x3e847baa	0.25875598
14	0xbdc6cfc1	-0.09707595
15	0x3e59295c	0.21207184
16	0x3ebd8842	0.3701802
17	0xbe3cb858	-0.18429697
18	0xbe2cdefb	-0.16881935
19	0x3d54f7d1	0.05199415
20	0xbd093e43	-0.033506643
21	0xbcf438dc	-0.029812269
22	0x3be2b820	0.006918922
23	0xbd84781c	-0.064682215
24	0x3e29f9c3	0.16599183
25	0x3e691391	0.2276137
26	0xbcef613c	-0.02922117
27	0xbe69e6d6	-0.22841963
28	0x3d957de1	0.072994
29	0x3e16b0ae	0.14715835
30	0xbd3e97f6	-0.04653164
31	0x3d2d0cd9	0.04224858
32	0xbe22f95a	-0.15915433
33	0x3e09536a	0.13410726
34	0xbdf5ad65	-0.11995963
35	0x3d9c16e2	0.07621552
36	0x3dcaa263	0.09894254
37	0x3e4fc1c9	0.20288767
38	0x3e231b48	0.15928376
39	0x3e18cadf	0.14921139
40	0x3e28a446	0.16468915
41	0xbddf3b8f	-0.10900032
42	0xbe555cd4	-0.20836192
43	0x3df282d4	0.1184136
44	0xbd0c1370	-0.034198225
45	0xbd7e26d3	-0.062048744
46	0xbe332870	-0.17495894
47	0x3cd81f1b	0.02638202
48	0x3e025c39	0.12730493
49	0x3e8d9b97	0.27657768
50	0x3b2a8cfd	0.0026023977
51	0x3eaaf096	0.33386678
52	0xbcecbe18	-0.028899238
53	0xbc9aa09b	-0.01887541
54	0x3d7b253a	0.0613148
55	0x3e3b0fc7	0.18267737
56	0xbd95dd4a	-0.07317598
57	0x3e188d1f	0.14897583
58	0x3de542ad	0.11194358
59	0x3e2e9d11	0.17052104
60	0x3c4b1e41	0.01239735
61	0xbde78027	-0.1130374
62	0xbe6ecc1b	-0.23320048
63	0x3c96217d	0.018326515
64	0x3dbd405b	0.092407905
65	0x3e027ba5	0.12742479
66	0x3d99a4f5	0.07502166
67	0xbdbcaf77	-0.09213155
68	0x3abce8c7	0.0014412635
69	0xbe17774c	-0.14791602
70	0x3e1eef4d	0.15520974
71	0x3e24acb5	0.16081508
72	0xbe7e4041	-0.24829198
73	0x3d1575be	0.03648924
74	0xbe9be376	-0.30446976
75	0xbe01b492	-0.12666538
76	0x3c5de229	0.01354269
77	0xbe037499	-0.12837447
78	0x3dd62cb8	0.10457748
79	0x3e3ad9cc	0.18247145
80	0xbd648e13	-0.055799555
81	0xbe2944a2	-0.16530088
82	0xbe65e32c	-0.2244994
83	0xbe1b1a93	-0.15146856
84	0xbdf6b61a	-0.12046452
85	0xbe5878d4	-0.21139842
86	0x3d0166a7	0.031592038
87	0x3e289afb	0.1646537
88	0xbcee676e	-0.029102053
89	0x3c20d67a	0.00981676
90	0xbd821a16	-0.06352632
91	0xbe2832a9	-0.16425575
92	0xbda55d76	-0.08074467
93	0x3df596f9	0.119916864
94	0x3e217dc5	0.15770634
95	0xbd992e44	-0.074795276
96	0x3bfb971c	0.0076779258
97	0xbe8fda04	-0.2809602
98	0xbd53a75f	-0.05167329
99	0xbdc88fad	-0.09793029
100	0xbcabf552	-0.020991001
101	0xbd4e3410	-0.05034262
102	0xbdd28ee0	-0.102811575
103	0x3e38e5cc	0.1805641
104	0xbd9ffada	-0.07811518
105	0x3e33b2be	0.17548653
106	0xbe0638a1	-0.1310754
107	0xbd758016	-0.059936605
108	0xbd6bb09b	-0.05754147
109	0xbd9ffd30	-0.078119636
110	0xbe8b03ab	-0.27151236
111	0xbde547d3	-0.1119534
112	0x3e646c94	0.22307044
113	0x3e06ce5a	0.13164654
114	0x3dd6f4fa	0.10495944
115	0xbe271b8b	-0.163191
116	0xbe830358	-0.2558849
117	0xbdc2aec2	-0.09505989
118	0xbf0a7d33	-0.5409729
119	0x3e477984	0.19479948
120	0x3e111789	0.14169134
121	0xbe26b43f	-0.16279696
122	0x3dc46a3e	0.095905766
123	0xbdf75aae	-0.12077843
124	0xbdb57b7e	-0.08861445
125	0x3e05a5ec	0.13051575
126	0x3db6ab84	0.08919433
127	0x3d93d5d1	0.072185166
128	0xbde24bad	-0.1104959
129	0x3dc3e39c	0.095648974
130	0xbde94c76	-0.11391537
131	0xbbaa9038	-0.0052051805
132	0xbe8878eb	-0.26654753
133	0xbe19ae08	-0.15007794
134	0xbd0c5f19	-0.03427038
135	0xbde80a38	-0.11330074
136	0xbe3bfe48	-0.1835872
137	0xbe14c4d4	-0.14528209
138	0x3ec12b57	0.37728378
139	0xbe35e724	-0.17763954
140	0xbdab4f1e	-0.083647
141	0xbe2d1875	-0.16903861
142	0xbdee13da	-0.1162488
143	0xbd686b74	-0.0567431
144	0xbe05c39f	-0.13062905
145	0x3e456b45	0.19279201
146	0x3e4840b6	0.19555935
147	0x3e138d1f	0.14409302
148	0x3e370c63	0.17875819
149	0x3d7a7aea	0.061152376
150	0xbe81e25b	-0.25368008
151	0xbe176cf1	-0.14787652
152	0xbe99c44e	-0.3003258
153	0xbe115b37	-0.14194952
154	0xbd93af3c	-0.07211158
155	0xbe50978d	-0.20370312
156	0xbe044c7b	-0.129198
157	0x3ddfa6ce	0.10920487
158	0xbd17e856	-0.037086807
159	0xbdccf7ed	-0.100082256
160	0xbe0f6b40	-0.14005756
161	0xbd22f49c	-0.03978406
162	0x3dd147b5	0.10218755
163	0xbd00ad36	-0.031415187
164	0x3dec611e	0.11541961
165	0x3c9216cb	0.017833134
166	0x3cfe2b62	0.031026546
167	0xbcaa524b	-0.020791193
168	0xbe01a03f	-0.12658785
169	0xbd26c79f	-0.040717717
170	0x3d81909d	0.06326411
171	0x3e45a83f	0.19302462
172	0x3e2dad6f	0.16960691
173	0xbda3e86f	-0.080033176
174	0x3e2fe1d8	0.17175996
175	0x3dd41875	0.10356227
176	0xbc994206	-0.01870824
177	0x3d802475	0.062569536
178	0xbe77d6a8	-0.24202979
179	0x3e3ed57b	0.18636124
180	0x3e059cea	0.13048139
181	0x3d001114	0.031266287
182	0xbd28a1aa	-0.0411698
183	0x3cfaa781	0.03059745
184	0x3e148be9	0.14506496
185	0xbdf13280	-0.1177721
186	0x3b0a1295	0.0021068205
187	0x3def6480	0.11689091
188	0x3d953adc	0.07286617
189	0x3e6b234c	0.22962683
190	0x3e3b050a	0.18263641
191	0xbd921210	-0.071323514
192	0xbe393369	-0.18086018
193	0x3dfd5f3a	0.12371679
194	0x3e6455e4	0.2229839
195	0xbe322e9b	-0.17400591
196	0x3e9bb8e9	0.30414513
197	0x3e03e02c	0.12878484
198	0xbdea3a52	-0.11436905
199	0xbe01b34d	-0.12666054
200	0xbd4c88f7	-0.049935307
201	0x3cc1b01d	0.023643548
202	0x3dccdf92	0.1000358
203	0xbd1e8554	-0.03870137
204	0xbbb8b8a9	-0.0056372476
205	0xbe4725ea	-0.19448057
206	0xbe9730ec	-0.29529512
207	0x3c13b587	0.009015447
208	0x3e14c0e6	0.1452671
209	0x3d3341cc	0.04376392
210	0xbd812036	-0.06304972
211	0xbd0179a0	-0.03161013
212	0x3c9bc4d3	0.019014752
213	0xbd1a41d6	-0.037660442
214	0x3e805796	0.25066823
215	0x3d0fb962	0.035088904
216	0xbe10a8e7	-0.14126931
217	0xbdd8dbf5	-0.105888285
218	0xbe84dfd0	-0.25952005
219	0x3e0c243b	0.13685696
220	0xbccfdfa2	-0.025375191
221	0xbdb874a8	-0.090066254
222	0xbda8e944	-0.08247617
223	0x3e5cbed4	0.2155717
224	0x3e2f6b72	0.17130831
225	0xbea3bef7	-0.31981632
226	0xbdf9abce	-0.12190972
227	0x3e9883c0	0.29788017
228	0xbe30f1a2	-0.17279676
229	0x3dc91593	0.09818568
230	0x3d0f3692	0.03496415
231	0x3d58ded4	0.05294688
232	0x3df19a20	0.11796975
233	0xbd7145aa	-0.058904327
234	0xbd249655	-0.04018243
235	0x3e35e93d	0.17764755
236	0x3d406abf	0.0469768
237	0xbcb6b18c	-0.022301458
238	0x3dc0fe2e	0.09423481
239	0xbdc88574	-0.09791079
240	0x3e4b07fb	0.19827263
241	0x3ce462ee	0.027879205
242	0xbcc0fb3b	-0.023557296
243	0x3d9b21ea	0.07574828
244	0xbd082e52	-0.0332473
245	0xbe7f8f8b	-0.24957101
246	0xbe6cced6	-0.23125777
247	0x3de12012	0.10992445
248	0x3e041484	0.12898451
249	0x3c4c9ba0	0.012488276
250	0xbd998bba	-0.07497354
251	0x3e74e443	0.239152
252	0x3e2369e7	0.15958367
253	0x3ddb3a0e	0.107044324
254	0x3b043151	0.0020170996
255	0x3e0c78c1	0.13717939

hidden_layers.0.bias f4 [20]
0	0xbc821fd5	-0.01588432
1	0x3c9fe52a	0.019518454
2	0xbe8512db	-0.25990948
3	0xbd80790e	-0.06273089
4	0xbdb345b4	-0.08753529
5	0xbd9568db	-0.0729539
6	0xbdb0e0e3	-0.08636644
7	0x3d82c096	0.06384389
8	0xbe116ed7	-0.14202438
9	0xbb8decc5	-0.0043312036
10	0xbccedeb6	-0.025252681
11	0x3d643abb	0.055720072
12	0x3e4e1a86	0.20127305
13	0x3e537276	0.20649132
14	0xbd3eb4ce	-0.046559148
15	0x3e29d7ff	0.16586302
16	0xbe1c73d3	-0.15278558
17	0x3e735da6	0.23766193
18	0xb984af55	-0.00025307634
19	0x3e03e2a7	0.1287943

hidden_layers.1.weight f4 [20, 20]
0	0x3da39f6f	0.07989394
1	0xbd2d0653	-0.04224236
2	0x3db54cc5	0.08852533
3	0x3d34f03b	0.044174414
4	0xbe039887	-0.12851153
5	0x3e480e12	0.19536617
6	0x3e15d7c8	0.14633095
7	0x3cd39369	0.025827127
8	0x3e2021c9	0.15637888
9	0xbe04aac7	-0.12955771
10	0x3e5d6123	0.21619086
11	0xbda8d3b3	-0.082435034
12	0x3e82c2ad	0.2553915
13	0x3de43895	0.11143605
14	0xbd836bf6	-0.06417076
15	0xbce31dad	-0.027724111
16	0x3d8d7c63	0.069084905
17	0x3d0345bd	0.03204893
18	0x3e1a315e	0.15057895
19	0xbdef76d1	-0.11692584
20	0x3dcaecd8	0.099084556
21	0x3d92fc56	0.071770355
22	0x3d9abb1f	0.07555222
23	0xbd502bc3	-0.050822984
24	0xbe7284ed	-0.2368352
25	0x3a9dcd8f	0.0012039411
26	0xbda71359	-0.08157987
27	0x3d8f820e	0.07007228
28	0xbdfb7c01	-0.12279511
29	0x3e24c0e3	0.16089205
30	0xbe909e77	-0.282459
31	0x3def6467	0.11689072
32	0x3d8b565b	0.068035804
33	0x3dd17900	0.10228157
34	0xbe824f0b	-0.2545093
35	0x3d744996	0.05964049
36	0x3d286f8d	0.041122008
37	0x3dd6930d	0.104772665
38	0xbe5b3e69	-0.21410526
39	0xbc74f759	-0.01495155
40	0xbdc14b76	-0.09438221
41	0xbe0fcae0	-0.14042234
42	0x3e149cac	0.1451289
43	0xbe4ac67a	-0.19802275
44	0xbe100d1d	-0.14067502
45	0x3e23ddcf	0.16002582
46	0x3c60ec2e	0.013728185
47	0xbd8a8d53	-0.06765237
48	0x3e09720f	0.13422416
49	0x3d421830	0.04738635
50	0x3e3bd5d9	0.18343295
51	0x3d5d8c24	0.054088727
52	0x3dfa86e4	0.122327596
53	0x3e25d440	0.16194248
54	0x3d6acad2	0.05732233
55	0xbe3dc36a	-0.18531576
56	0xbd8bde88	-0.06829554
57	0x3d2260cd	0.039643098
58	0xbe3833ae	-0.17988464
59	0x3c190e9d	0.009341863
60	0xbdb24e99	-0.087063976
61	0x3e3d97df	0.18514965
62	0x3e273a63	0.16330867
63	0x3e1e302c	0.15448064
64	0xbe31df8d	-0.17370434
65	0x3ca79316	0.020455878
66	0xbd748910	-0.059701025
67	0x3df18ff0	0.11795032
68	0x3dc27fe6	0.09497051
69	0x3cbaa267	0.022782518
70	0x3ddd046c	0.10791859
71	0x3da3efaa	0.08004697
72	0xbda45dba	-0.080256894
73	0xbe15960c	-0.1460802
74	0x3d11907e	0.03553819
75	0xbe210128	-0.15723097
76	0xbddf097d	-0.108904816
77	0xbdfcee97	-0.12350195
78	0x3e2d6cb2	0.16935995
79	0x3d0464fa	0.03232286
80	0xbe54377c	-0.2072429
81	0xbdf084a5	-0.1174405
82	0xbe15adad	-0.14617033
83	0xbd662302	-0.05618573
84	0x3dda9062	0.1067207
85	0x3d030faa	0.03199736
86	0x3d518cd5	0.0511597
87	0xbcf4f00d	-0.029899621
88	0x3cba2f9c	0.02272778
89	0xbe46731c	-0.19379848
90	0x3df1fcaa	0.1181577
91	0x3e13ef93	0.14446859
92	0x3d9afad0	0.0756737
93	0xbdcb9381	-0.099402435
94	0x3dbd1a58	0.0923354
95	0xbe400283	-0.18750958
96	0xbc8549e2	-0.016270582
97	0x3dbb382b	0.091415726
98	0x3d5201ed	0.051271368
99	0xbe66ab4c	-0.22526282
100	0x3dec8dff	0.11550521
101	0x3ddeb9e0	0.108752966
102	0x3d94d129	0.07266457
103	0xbd1f00d9	-0.038819168
104	0x3e3fbb2d	0.18723746
105	0x3d02a100	0.031891823
106	0x3e1909f0	0.14945197
107	0x3c2f127a	0.0106855575
108	0x3c469f54	0.012122948
109	0x3dbe419a	0.09289856
110	0xbd826440	-0.063667774
111	0xbd122c67	-0.035686877
112	0x3d0b6402	0.03403092
113	0xbd2983ee	-0.041385584
114	0x3c1cc0a4	0.0095674135
115	0x3d13dd90	0.03609997
116	0x3dd43bfd	0.10363004
117	0x39d50996	0.00040633668
118	0x3e0715af	0.13191865
119	0x3dda9016	0.106720135
120	0xbde50917	-0.111833744
121	0xbe1c1b6b	-0.15244834
122	0xbe1d462d	-0.15358801
123	0xbe1324b8	-0.14369476
124	0xbdbed149	-0.09317262
125	0x3e7b8461	0.24562217
126	0x3d46483e	0.04840874
127	0x3e22fafb	0.15916054
128	0xbd855e77	-0.06512158
129	0xbdf4a720	-0.11945939
130	0xbd97a5a7	-0.074046426
131	0xbe18c9b3	-0.14920692
132	0xbd9d0713	-0.07667365
133	0xbea7a637	-0.32744
134	0x3c0aa5e8	0.008462407
135	0xbd8c52ef	-0.06851756
136	0xbe097e36	-0.13427052
137	0xbcec2227	-0.028824879
138	0xbe60c2fc	-0.2194938
139	0x3dbcd80f	0.092208974
140	0x3d42ace1	0.04752815
141	0xbbf0e9c2	-0.007352085
142	0x3e12819c	0.14307255
143	0x3d1e2f2f	0.038619217
144	0xbb2702a6	-0.0025483756
145	0xbe0e2a89	-0.13883413
146	0xbe6ca174	-0.23108464
147	0xbe47507e	-0.19464299
148	0x3e40882e	0.18801948
149	0xbd8ed959	-0.069750495
150	0x3d6301ff	0.055421825
151	0x3e78f455	0.24311955
152	0x3e1dd3ed	0.15412875
153	0x3df9a3ad	0.12189422
154	0x3e1ff4af	0.15620683
155	0x3d51205d	0.051056255
156	0x3dd80945	0.10548643
157	0x3d7f7c58	0.062374443
158	0x3dcae0a2	0.099061266
159	0xbdc2617c	-0.0949125
160	0x3c13defb	0.009025331
161	0xbe139533	-0.14412384
162	0xbd3dd444	-0.04634501
163	0x3c97e353	0.018541014
164	0xbd55675f	-0.052100535
165	0x3cf3a66c	0.029742442
166	0xbd27956a	-0.040913977
167	0xbe507312	-0.20356396
168	0x3e53e49f	0.20692681
169	0xbd2b8b56	-0.041880928
170	0x3d7ba4ad	0.061436344
171	0x3e1f0cbf	0.15532206
172	0xbd32ce3b	-0.043653708
173	0x3df5293d	0.11970756
174	0x3d2f95ae	0.042867355
175	0x3d8b0a1c	0.067890376
176	0xbe1aacd1	-0.15104987
177	0x3dcd3052	0.10018982
178	0x3db33ae7	0.08751469
179	0xbdb27059	-0.08712835
180	0xbd8b738c	-0.06809148
181	0xbe10d73e	-0.14144608
182	0xbd7c86c0	-0.061651945
183	0x3d7469ec	0.059671327
184	0xbd4d593d	-0.050133932
185	0x3e6d08cc	0.23147887
186	0xbe1c3071	-0.15252854
187	0x3e310c4c	0.17289847
188	0x3e2641ae	0.16235992
189	0xbe17f8f4	-0.14841062
190	0xbd5e423f	-0.054262396
191	0xbe89cedf	-0.26915643
192	0xbca017e1	-0.019542636
193	0x3d305cf9	0.043057416
194	0x3e5443f1	0.20729043
195	0xbd693b3b	-0.056941252
196	0x3e4feed9	0.20305957
197	0x3d8638f6	0.06553833
198	0x3dc7999d	0.09746096
199	0x3e195ddf	0.14977215
200	0xbd105262	-0.035234816
201	0xbe58ae95	-0.21160348
202	0x3e2b6000	0.1673584
203	0x3e002ee0	0.12517881
204	0x3ea9929c	0.33119667
205	0xbe928e1f	-0.28624055
206	0xbb1f3ecc	-0.0024298904
207	0xbd5498a0	-0.051903367
208	0xbddd143e	-0.107948765
209	0x3a9a025a	0.0011749968
210	0x3c36c6db	0.011155809
211	0x3e77ff11	0.24218394
212	0xbb831044	-0.0039997417
213	0x3bb160c5	0.005413147
214	0xbddf355d	-0.1089885
215	0xbdb47c18	-0.088127315
216	0xbe9be2df	-0.30446526
217	0xbe6c4d18	-0.23076284
218	0xbec4011a	-0.3828209
219	0x3d0b799e	0.03405153
220	0xbde17cc3	-0.110101245
221	0xbd221375	-0.039569337
222	0x3c6a8aab	0.014315288
223	0xbe546d7b	-0.20744888
224	0x3d3091a9	0.043107662
225	0xbc94e641	-0.0181762
226	0xbe56a6ad	-0.2096202
227	0xbe263a98	-0.16233289
228	0x3df36b17	0.1188566
229	0xbc07c7ea	-0.008287409
230	0x3b122468	0.0022299532
231	0x3e20f7de	0.15719554
232	0x3e958e59	0.29210165
233	0x3da8f4b4	0.082497984
234	0xbe37c45b	-0.17945997
235	0x3e5fd1fc	0.21857446
236	0xbe7c5411	-0.24641444
237	0xbd91fa9d	-0.07127879
238	0x3def395d	0.11680863
239	0x3e2591d1	0.16168906
240	0x3dd687de	0.10475133
241	0x3da21c6e	0.07915579
242	0x3deb70e7	0.11496144
243	0x3da40bf9	0.08010096
244	0x3ddb80a7	0.10717898
245	0x3e09acbc	0.13444799
246	0xbe634a45	-0.221963
247	0x3cd45e64	0.025923915
248	0xbd8140a8	-0.0631116
249	0x3e7da527	0.24770032
250	0x3e5793c5	0.21052463
251	0xbd8ca1ce	-0.06866799
252	0x3e2c9dde	0.16857097
253	0xbdc9597e	-0.098315224
254	0x3e0cd4d5	0.13753064
255	0x3ddbaeed	0.10726724

hidden_layers.1.bias f4 [20]
0	0xbe40250c	-0.18764132
1	0xbc271870	-0.010198697
2	0x3d7fe4ed	0.06247418
3	0x3c94317c	0.018090002
4	0x3dbdbbfa	0.09264369
5	0xbe0b5f30	-0.1361053
6	0x3d81e040	0.063416004
7	0x3d99e20f	0.075138204
8	0x3c8ecf43	0.017432814
9	0xbe0a4ef9	-0.13506688
10	0x3deedcaa	0.11663182
11	0xbde7d2c1	-0.11319495
12	0x3e91a11f	0.28443238
13	0xbddddb03	-0.10832789
14	0xbe937ef3	-0.28807792
15	0x3e6170d3	0.22015695
16	0x39e37acd	0.00043388308
17	0xbdd1dec5	-0.10247568
18	0xbda28e5e	-0.07937311
19	0xbc4d85a3	-0.0125440685

hidden_layers.2.weight f4 [20, 20]
0	0xbdcc1a45	-0.09965948
1	0x3c45ea3c	0.012079772
2	0xbdfe4c33	-0.124168776
3	0x3e471ec0	0.19445324
4	0x3e51d19d	0.20490117
5	0x3dd117e2	0.102096334
6	0x3e884af1	0.26619676
7	0xbe6020ae	-0.21887466
8	0xbe5fd3c5	-0.21858127
9	0x3e71c978	0.2361201
10	0xbdc80951	-0.09767402
11	0xbdf12bc7	-0.11775928
12	0xbe4d79df	-0.20066021
13	0xbd980fca	-0.074248865
14	0x3de8d3fb	0.11368557
15	0x3e028e4c	0.12749594
16	0x3e2175fd	0.15767665
17	0xbe441ebb	-0.19152348
18	0x39a22c55	0.00030932078
19	0xbd3484d7	-0.044072
20	0xbdfe7890	-0.12425339
21	0xbe38d3a0	-0.18049479
22	0xbe68e3d3	-0.22743158
23	0x3d7ee43a	0.062229373
24	0xbdbb68e2	-0.09150864
25	0x3d72c5c4	0.059270635
26	0x3e3f7b3b	0.18699352
27	0x3dc49425	0.09598569
28	0xbde6c53a	-0.11268087
29	0x3e6654fe	0.2249336
30	0xbdef0656	-0.1167113
31	0xbe0deec1	-0.13860609
32	0xbe22f860	-0.1591506
33	0x3e3cc038	0.184327
34	0xbe3e2ab1	-0.18570973
35	0xbe1ad8b9	-0.15121736
36	0xbd38e1d7	-0.045137253
37	0xbe24d479	-0.16096677
38	0xbdf773b4	-0.120826155
39	0x3e5c0adf	0.21488522
40	0x3dd42f93	0.103606366
41	0x3e2d63b1	0.1693256
42	0xbdf627ca	-0.12019308
43	0xbddf3975	-0.10899631
44	0xbdab5d6d	-0.08367429
45	0x3dc5d88a	0.09660442
46	0x3d783078	0.0605931
47	0x3e13fca5	0.14451845
48	0xbc4c9d07	-0.01248861
49	0xbe34625c	-0.17615646
50	0x3dfec21e	0.12439369
51	0x3e7f3cdd	0.24925561
52	0xbe160adb	-0.14652579
53	0x3e2526a8	0.16128027
54	0x3ddfa39a	0.109198764
55	0xbb024068	-0.0019874815
56	0x3e651597	0.22371517
57	0x3e56514f	0.20929454
58	0x3ba330d4	0.004980186
59	0x3e6b4280	0.22974586
60	0xbe61f797	-0.22067104
61	0x3d82baae	0.063832626
62	0xbe648745	-0.22317226
63	0x3da277cd	0.079330064
64	0x3d6d6566	0.05795803
65	0xbcda196f	-0.026623456
66	0x3e43b65f	0.19112538
67	0xbe49146c	-0.19636697
68	0xbe83d251	-0.25746396
69	0xbd248e39	-0.040174697
70	0x3cb58dbe	0.022162315
71	0xbd9d3a53	-0.0767714
72	0x3de7f2d8	0.11325616
73	0x3e1950d7	0.14972244
74	0x3d06b617	0.0328885
75	0xbe338ed8	-0.1753496
76	0x3c376ab6	0.011194875
77	0xbe6c304f	-0.23065303
78	0x3d87707a	0.0661325
79	0xbe130dfa	-0.143608
80	0x3ded9136	0.115999624
81	0x3e44522d	0.19171973
82	0xbe2efb01	-0.17087938
83	0xbd93564a	-0.07194193
84	0x3cb47831	0.022029968
85	0xbdcc37da	-0.0997159
86	0x3d427981	0.047479156
87	0x3d9314c2	0.071816936
88	0x3e3232f5	0.17402251
89	0x3dfa0559	0.12208051
90	0xbce7aa02	-0.028279308
91	0x3dada517	0.08478754
92	0x3e538ad2	0.20658424
93	0x3dba0ffd	0.09085081
94	0x3db2fa88	0.08739191
95	0xbe1c2e60	-0.15252066
96	0x3e328bd7	0.17436157
97	0x3d07c85d	0.033150066
98	0x3db88a20	0.0901072
99	0x3e25c30e	0.16187689
100	0xbe63c013	-0.22241239
101	0xbdbe56c0	-0.0929389
102	0x3e35e2f3	0.17762356
103	0xbdf1f30c	-0.11813936
104	0x3df0f46b	0.11765369
105	0xbe457c41	-0.1928568
106	0x3c8f421e	0.017487582
107	0x3dd82fc9	0.10555989
108	0x3dd1f6e8	0.10252172
109	0x3e29f1eb	0.1659619
110	0xbdd83d8c	-0.10558614
111	0x3d808cc6	0.062768504
112	0x3e22d75c	0.15902466
113	0xbe587532	-0.21138456
114	0xbe1f38be	-0.15548989
115	0x3e49b84f	0.19699214
116	0xbdc5619c	-0.09637758
117	0x3c20bb08	0.009810217
118	0x3d934a0f	0.0719186
119	0x3e083eec	0.13305253
120	0xbdee2b8d	-0.116294004
121	0x3e108678	0.14113796
122	0xbe2dce16	-0.16973147
123	0x3e274391	0.16334368
124	0xbd98f9ee	-0.07469545
125	0x3e15a50b	0.1461374
126	0xbd8e984d	-0.06962643
127	0x3d99577a	0.07487388
128	0xbda1b965	-0.07896689
129	0x3e238bc5	0.15971287
130	0xbd099b1b	-0.033595186
131	0x3d0fa3bc	0.03506826
132	0xbe4129e1	-0.18863632
133	0x3e0b2a06	0.1359025
134	0xbe01c632	-0.12673262
135	0xbe3905d4	-0.1806863
136	0x3caa00e0	0.02075237
137	0xbe6a50e7	-0.22882424
138	0x3d932a5f	0.07185816
139	0xbdcdf859	-0.10057134
140	0xbca7fffb	-0.020507803
141	0x3df38359	0.11890287
142	0x3de8fed8	0.113767326
143	0xbd1e1185	-0.038590927
144	0xbdea0133	-0.1142601
145	0x3e25161c	0.16121715
146	0xbe90eb7d	-0.28304663
147	0x3e1dae30	0.15398479
148	0xbddd76ac	-0.108136505
149	0xbe151d19	-0.14561881
150	0x3d49a1e2	0.04922665
151	0x3e0135bf	0.12618159
152	0xbdb1f671	-0.08689583
153	0xbe37faa6	-0.17966709
154	0x3d333cdb	0.04375921
155	0xbeb9d918	-0.36298442
156	0x3e5177d0	0.20455861
157	0x3da6cd57	0.08144634
158	0xbd59a360	-0.053134322
159	0x3e3b7e7e	0.18309972
160	0xbe0bf9fc	-0.1366958
161	0x3ddecdff	0.108791344
162	0xbdcf6f67	-0.1012867
163	0x3d96af26	0.07357626
164	0x3da7023a	0.081547216
165	0xbd153823	-0.03643049
166	0xbd7235bb	-0.059133273
167	0xbd03267f	-0.032019135
168	0xbd1f2594	-0.038854197
169	0x3dec8728	0.115492165
170	0xbdbe2102	-0.092836395
171	0xbe06aa46	-0.13150892
172	0x3e201c43	0.15635781
173	0xbe5ee74c	-0.2176792
174	0x3e445a70	0.19175124
175	0x3dbe6e31	0.09298361
176	0xbea6d7de	-0.3258657
177	0xbe5d9b5a	-0.21641293
178	0x3e446bb7	0.19181715
179	0xbe0ccdc2	-0.13750365
180	0x3e765f07	0.24059688
181	0xbe08a2d5	-0.13343365
182	0x3e420353	0.1894658
183	0x3e00d6d9	0.12581958
184	0x3d6800ca	0.056641378
185	0x3e5bdc05	0.2147065
186	0x3c2d252b	0.010567944
187	0x3e5cccec	0.21562546
188	0xbd46c584	-0.04852821
189	0x3bc77a37	0.006087567
190	0xbe641507	-0.22273646
191	0xbd6f9501	-0.05849171
192	0xbd0389f6	-0.03211399
193	0xbe9306ad	-0.2871603
194	0x3d4a856a	0.04944364
195	0xbc9e0eb0	-0.019294113
196	0x3e0a7786	0.13522157
197	0xbe5aa5e9	-0.21352352
198	0xbdab8ca7	-0.08376437
199	0x3c4736d5	0.012159069
200	0xbde13dd0	-0.10998118
201	0x3d4b9fbe	0.04971289
202	0xbd78e390	-0.060763896
203	0xbdcb3113	-0.099214695
204	0x3c917cd4	0.017759718
205	0xbe5ed350	-0.21760297
206	0x3e5eb5e5	0.21749075
207	0x3df8a10e	0.12140094
208	0x3e082f43	0.13299279
209	0x3d173821	0.036918763
210	0xbdc15720	-0.09440446
211	0x3c5d7204	0.013515953
212	0xbdb539c8	-0.088489115
213	0xbe007e87	-0.12548266
214	0xbe37d3d6	-0.17951903
215	0xbe0bb2f8	-0.1364249
216	0x3d78de6f	0.060759004
217	0x3e13e51f	0.14442872
218	0x3df051b1	0.117343314
219	0x3e0b655b	0.13612883
220	0x3df137a4	0.11778191
221	0xbe4ec5de	-0.20192668
222	0x3e750663	0.23928218
223	0xbd8611bd	-0.06546352
224	0x3ea7808d	0.32715264
225	0xbe5fac69	-0.21843113
226	0x3d02f61a	0.031972982
227	0xbe094cf9	-0.13408269
228	0xbe127d43	-0.14305596
229	0x3e1dbf76	0.15405068
230	0x3ca9ebb0	0.020742267
231	0xbd017ebe	-0.03161501
232	0x3dcf284a	0.101151064
233	0xbe3ba87f	-0.18325995
234	0xbde1bffe	-0.11022948
235	0x3e95967a	0.29216367
236	0x3df8b1b8	0.12143272
237	0xbbb2d0d0	-0.0054570213
238	0x3e3cd399	0.18440093
239	0x3d0b8dff	0.034070965
240	0x3e565b7b	0.20933335
241	0x3e47553e	0.19466111
242	0xbe54c645	-0.20778759
243	0xbcb2900f	-0.021797208
244	0xbe8c8f2e	-0.27452987
245	0x3e5bdfd5	0.21472104
246	0xbd8f6338	-0.07001346
247	0x3da02a75	0.07820598
248	0x3d4dcd0b	0.050244372
249	0x3e09336a	0.13398519
250	0x3aa92caa	0.0012906988
251	0xbcfe4304	-0.031037815
252	0x3e471fa0	0.19445658
253	0xbe22f21b	-0.15912668
254	0x3e7cf85d	0.24704118
255	0x3cb10a9b	0.021611502

hidden_layers.2.bias f4 [20]
0	0x3dd760f6	0.10516541
1	0xbe57edfe	-0.2108688
2	0xbd4e3c4a	-0.050350465
3	0x3e529346	0.20563993
4	0xbe545edc	-0.20739311
5	0xbdbeb52f	-0.09311902
6	0xbdea15d8	-0.114299476
7	0x3e4c82a9	0.19971718
8	0xbe3897e6	-0.18026695
9	0xbd72b34e	-0.05925303
10	0x3e309dd3	0.17247705
11	0xbd127079	-0.035751794
12	0xbdfb5390	-0.12271798
13	0x3e2b2229	0.1671225
14	0xbd1a4b39	-0.037669394
15	0xbd92e97b	-0.07173439
16	0x3e2728d6	0.16324171
17	0xbe12301b	-0.14276163
18	0xbd53d6ac	-0.0517184
19	0x3e1758a0	0.14779902

lstm.weight_ih_l0 f4 [512, 20]
0	0xbbed47f4	-0.0072412435
1	0xbd58b1e8	-0.05290404
2	0xbdcb4aad	-0.09926353
3	0x3c9822da	0.018571306
4	0xbd5b9355	-0.053607304
5	0xbd19196e	-0.037377767
6	0xbcd149e0	-0.025547922
7	0xbd3dc7a5	-0.046332974
8	0xbdaebf75	-0.08532611
9	0xbd9e7a24	-0.0773814
10	0x3c0b41ea	0.008499602
11	0x3c3bea8b	0.011469494
12	0xbd3f0d32	-0.046643443
13	0x3ca9c354	0.020723023
14	0xbdcfff2b	-0.10156091
15	0x3ca0f8ba	0.019649852
16	0x3d83591f	0.06413483
17	0x3d9bcb8e	0.07607184
18	0x3dcfd7c0	0.10148573
19	0xbd2de392	-0.042453356
20	0x3c2cebe4	0.010554288
21	0xbe102fc4	-0.14080721
22	0x386dd10b	5.669989e-05
23	0x3b8db9b7	0.0043251175
24	0x3ddac3c1	0.10681868
25	0xbd371837	-0.044700827
26	0xbde7b0a6	-0.1131299
27	0x3ca0dec6	0.019637477
28	0xbd4ae66f	-0.049536165
29	0xbdde068f	-0.10841095
30	0x3d8cbe16	0.068721935
31	0x3c862997	0.016377253
32	0xbcba1c11	-0.022718461
33	0x3c68fd3d	0.014220533
34	0xbde49b77	-0.11162465
35	0xbcfd8491	-0.030947002
36	0x3b1ffb67	0.0024411322
37	0xbdde7923	-0.10862949
38	0xbd358d9e	-0.04432451
39	0xbc74f524	-0.014951024
40	0xbd8ee593	-0.069773816
41	0x3c6e4aef	0.014544233
42	0xbda00db1	-0.078151114
43	0x3d8d8da7	0.06911784
44	0x3d223024	0.03959669
45	0xbd9d072f	-0.07667386
46	0xbd0f787c	-0.035027012
47	0xbd3ee6b2	-0.046606727
48	0xbd3376bc	-0.043814406
49	0xbd80147b	-0.06253906
50	0x3ce1d489	0.027567165
51	0xbdf8f057	-0.12155216
52	0x3c2a4a85	0.010393743
53	0x3d3f457a	0.046697117
54	0xbcfda662	-0.030963127
55	0x3d679cb2	0.05654592
56	0xbd923182	-0.07138349
57	0x3d6363aa	0.05551497
58	0x3c5d4ab4	0.01350658
59	0xbd9e9822	-0.07743861
60	0xbd96cfb1	-0.07363833
61	0xbd7c8f7f	-0.061660286
62	0x3d8e13ed	0.06937394
63	0x3d0d7bea	0.034542
64	0xbcb29a29	-0.021802025
65	0xbdd48c9c	-0.103783816
66	0xbcdea365	-0.027177522
67	0x3da8eaf5	0.082479395
68	0xbdcef8e0	-0.10106063
69	0x3cc26ba1	0.023732962
70	0x3cd5fd15	0.026121655
71	0x3c3b6ca0	0.011439472
72	0xbce300f2	-0.027710412
73	0x3cd37ca1	0.025816264
74	0xbcf02aec	-0.029317342
75	0x3d374fce	0.044753842
76	0x3c4632b5	0.01209705
77	0x3d306b14	0.043070868
78	0x3d8ac020	0.06774926
79	0xbd46a4bf	-0.048496958
80	0xbcf1c644	-0.029513486
81	0x3d8a24ea	0.06745322
82	0xbd6306d7	-0.055426445
83	0xbc5f3752	-0.013624029
84	0x3cb20ad4	0.021733679
85	0xbd53409f	-0.0515753
86	0xbca146aa	-0.019687016
87	0xbd319ee4	-0.04336442
88	0xbc43250b	-0.011910687
89	0xbd534436	-0.051578723
90	0x3da779bc	0.08177516
91	0x3d3b3046	0.045700334
92	0xbd8dec4c	-0.06929836
93	0x3d82de0a	0.06390007
94	0xbc9c23fb	-0.019060126
95	0xbccb9ef7	-0.024856074
96	0x3d0a3c96	0.033749186
97	0xbda2f666	-0.07957153
98	0x3c81ec30	0.015859693
99	0x3cac1b03	0.021008974
100	0x3d06374a	0.03276757
101	0x3dee675d	0.11640809
102	0x3c3671ea	0.011135558
103	0x3bdf3d4c	0.006812727
104	0xbdac718c	-0.08420095
105	0xbd0dd4f4	-0.034626916
106	0x3d799782	0.060935505
107	0xbdb9f7dc	-0.090804785
108	0x3b270a70	0.00254884
109	0xbd5212c7	-0.05128744
110	0x3d9f0e9b	0.07766458
111	0x3bbd3c1d	0.0057749883
112	0x3ce2114c	0.027596138
113	0xbd51e093	-0.05123956
114	0xbcda56b2	-0.026652668
115	0x3b072cc5	0.002062605
116	0xbd9f3733	-0.077742
117	0x3cd31e67	0.025771333
118	0x3da54589	0.080699034
119	0x3b4cf8ad	0.0031276152
120	0x3c4a26fa	0.012338394
121	0x3d096475	0.03354307
122	0x3cd97191	0.02654341
123	0x3d5640c0	0.052307844
124	0xbb6899d9	-0.003549209
125	0x3de62fd0	0.11239588
126	0xbd73a484	-0.059483066
127	0x3dc1eb96	0.094687626
128	0xbd83b580	-0.06431103
129	0x3dc9c903	0.09852793
130	0x3dacb0c1	0.08432151
131	0x3d2607bf	0.04053473
132	0x3a6957bf	0.000890132
133	0xbce06d4d	-0.027395869
134	0x3d3e495a	0.046456672
135	0xbd9665db	-0.07343646
136	0xbd3be6d4	-0.04587443
137	0x3d11baf8	0.035578698
138	0xbd11185e	-0.03542363
139	0x3c555197	0.013019941
140	0x3d846406	0.064643905
141	0xbcb039f8	-0.021512017
142	0xbe20f023	-0.15716605
143	0x3d57e5b8	0.05270931
144	0x3c57b16b	0.013164858
145	0x3d268d81	0.040662292
146	0xbd5800a5	-0.05273499
147	0xbc83cfeb	-0.016090354
148	0x3d2fe143	0.042939436
149	0x3adc7b40	0.0016821399
150	0xbcf61481	-0.030039074
151	0xbda042a6	-0.07825212
152	0xbd9bb458	-0.07602757
153	0xbd0da82b	-0.034584206
154	0xbd487d95	-0.04894789
155	0xbde95f3c	-0.11395118
156	0x3c214958	0.009844147
157	0xbda3d3aa	-0.07999356
158	0xbcb1442c	-0.021638952
159	0xbd4a7aa4	-0.049433365
160	0xbbec066c	-0.007202914
161	0x3db355e4	0.08756617
162	0xbd483bb5	-0.048885066
163	0x3caf7cae	0.021421757
164	0x3dbc8cb1	0.09206522
165	0x3dd621ad	0.10455642
166	0x3c6736ac	0.014112156
167	0x3d357dbc	0.044309363
168	0xbd94c0ab	-0.07263311
169	0x3dd4183b	0.10356184
170	0x3d822e01	0.06356431
171	0xbd97c1ca	-0.07410009
172	0x3da92975	0.082598604
173	0xbcd38080	-0.02581811
174	0x3dc7a7e9	0.09748823
175	0x3bc8378b	0.006110137
176	0x3d8255a9	0.06363995
177	0x3d17b8b7	0.037041392
178	0x3b9e9df5	0.0048406073
179	0xbd570105	-0.052491207
180	0xbcb5a949	-0.022175448
181	0xbd071ac0	-0.032984495
182	0xbe3dc670	-0.18532729
183	0x3d7c6ef7	0.06162926
184	0xbe62968d	-0.22127743
185	0x3e1bf745	0.15231045
186	0xbcc274a3	-0.023737257
187	0xbdf4fea1	-0.11962629
188	0xbd2a86f8	-0.041632622
189	0xbe776505	-0.2415963
190	0xbd883f2b	-0.06652673
191	0x3e431bf5	0.19053634
192	0xbe0ab681	-0.13546182
193	0x3d86b85e	0.06578134
194	0xbdfee556	-0.12446086
195	0xbdb566eb	-0.08857521
196	0xbe10d5c3	-0.14144044
197	0xbce7f008	-0.028312698
198	0x3d4e5546	0.05037429
199	0x3c4467c4	0.01198763
200	0x3c9c61fd	0.019089693
201	0x38ec7c37	0.00011276494
202	0xbd07e131	-0.033173744
203	0xbd06e815	-0.032936174
204	0xbbc87784	-0.006117763
205	0xbdc4ccd1	-0.09609378
206	0xbd95bec4	-0.07311776
207	0x3d480ee5	0.04884233
208	0x3cbef5d1	0.023310574
209	0xbda3c96b	-0.07997402
210	0xbd959d47	-0.07305389
211	0xbd19c609	-0.037542377
212	0xbd4205b2	-0.047368713
213	0x3b4c511f	0.0031176282
214	0xbd848af8	-0.06471819
215	0xbda960a2	-0.08270384
216	0xbda23358	-0.07919949
217	0xbe08e2dc	-0.1336779
218	0xbd4fd8f9	-0.05074403
219	0x3cf70b11	0.030156644
220	0xbd43784f	-0.047722157
221	0x3db7b6b0	0.08970392
222	0x3dae612e	0.08514629
223	0xbd2edd15	-0.04269131
224	0x3dc118e3	0.09428575
225	0x3dc19d9e	0.09453891
226	0x3d2a42d6	0.041567646
227	0xbcc58ec2	-0.024115924
228	0x3cc46c1c	0.023977332
229	0x3dd37dfb	0.10326763
230	0xbc6390b6	-0.013889482
231	0x3dbfb0af	0.093598716
232	0x3cfa806a	0.03057881
233	0x3cf95771	0.030437203
234	0xbd329663	-0.04360045
235	0x3d9e1ad9	0.077199645
236	0xbc8f05d6	-0.017458837
237	0xbcbf560f	-0.023356466
238	0xbd81f6c1	-0.06345893
239	0xbdb8ba4f	-0.090199105
240	0x3e0c8f61	0.1372657
241	0xbb055807	-0.0020346658
242	0xbdbac3c6	-0.09119372
243	0xbd15ae78	-0.03654334
244	0xbd0f9463	-0.035053622
245	0xbda31527	-0.07963019
246	0x3c1a0e8e	0.009402884
247	0xbd46f95e	-0.04857766
248	0x3be0c143	0.006858976
249	0x3c9e3366	0.019311618
250	0x3d6363d8	0.05551514
251	0x3b23f35d	0.0025016882
252	0x3dc4748f	0.09592544
253	0xbca3f9ca	-0.02001657
254	0xbbcbf462	-0.006224201
255	0x3d4ede84	0.050505176

lstm.weight_hh_l0 f4 [512, 128]
0	0x3d693458	0.056934685
1	0xbd57895d	-0.052621234
2	0x3d9e5139	0.07730336
3	0xbe294771	-0.16531159
4	0xbd3ce241	-0.04611421
5	0xbd2584c5	-0.040409822
6	0x3d2a023c	0.041506037
7	0x3d4d5d56	0.05013784
8	0xbd824cd9	-0.06362314
9	0x3b4fe070	0.0031719469
10	0xbe0b7b71	-0.13621308
11	0x3cee3efd	0.02908277
12	0x3bfbb762	0.007681773
13	0x3e18751c	0.14888424
14	0xbdcf7dba	-0.10131402
15	0x3d499ce5	0.049221892
16	0x3dbd429d	0.09241221
17	0x3dcc326b	0.09970554
18	0xbdb8dc88	-0.09026438
19	0x3e21053d	0.15724654
20	0x3cd8a098	0.026443765
21	0x3c564c4c	0.013079714
22	0x3d3c2cad	0.045941044
23	0xbdfa3cca	-0.12218626
24	0x3d6ac8bb	0.057320338
25	0x3db849da	0.08998461
26	0x3cb25e0e	0.021773364
27	0x3cb1c1d7	0.021698875
28	0xbd03eb29	-0.032206688
29	0xbc97617f	-0.018479107
30	0xbe062eb0	-0.13103747
31	0xbc133f43	-0.008987251
32	0x3ddb2186	0.106997535
33	0xbd306baa	-0.043071426
34	0x3da63b35	0.081167616
35	0x3dd796a4	0.10526779
36	0x3a94c9a4	0.0011351597
37	0x3dbbad9a	0.09163971
38	0xbd45cb76	-0.04828974
39	0xbb815a12	-0.003947505
40	0xbcb5ea13	-0.022206342
41	0x3b3694e3	0.002785974
42	0x3e156997	0.1459106
43	0xbdd5d3c6	-0.10440783
44	0x3cdbe051	0.02684036
45	0xbe09e2a0	-0.13465357
46	0xbc904ffb	-0.017616263
47	0xbd5bc919	-0.05365858
48	0x3d991c03	0.07476046
49	0xbdee2a0e	-0.11629115
50	0x3d891c70	0.06694877
51	0xbe2b01a4	-0.16699845
52	0xbd2b8f8c	-0.041884944
53	0x3dcd7fa8	0.10034114
54	0x3c01e78f	0.007928743
55	0x3d23e04c	0.040008828
56	0x3cc0557a	0.023478258
57	0xbe1859d5	-0.14878018
58	0xbda4b2d1	-0.08041919
59	0x3d48566d	0.048910547
60	0x3ae21fcc	0.0017251908
61	0xbddac59b	-0.106822215
62	0x3d18a7bd	0.037269343
63	0xbd1b5c68	-0.037929922
64	0xbe351464	-0.1768356
65	0x3e23d1f3	0.15998058
66	0xbc0ac02a	-0.008468667
67	0xbcf4a9c4	-0.029866107
68	0x3ccf8c59	0.025335478
69	0x3d2520f1	0.04031462
70	0x3d1552b2	0.036455818
71	0xbd51ada5	-0.05119099
72	0xbd80c51a	-0.06287594
73	0x3d5d600b	0.05404667
74	0x3dbaae8d	0.09115324
75	0xbd2b5281	-0.04182673
76	0x3d53a086	0.05166676
77	0xbe673830	-0.22580028
78	0xbc703618	-0.014661334
79	0x3d72ddc5	0.059293527
80	0xbdcc0491	-0.099618085
81	0xbda1f73b	-0.079084836
82	0x3d87f81e	0.066391215
83	0x3d244dfe	0.04011344
84	0x3d4bb856	0.049736343
85	0xbdb3784a	-0.08763178
86	0xbcea5b02	-0.028607849
87	0xbe1547d4	-0.14578182
88	0x3c06a193	0.008217233
89	0xbca14256	-0.019684952
90	0xbd6d1d98	-0.05788955
91	0x3deb68b7	0.11494582
92	0x3e25264b	0.16127889
93	0xbe17f935	-0.14841159
94	0x3c002023	0.007820162
95	0x3db9ff68	0.09081918
96	0xbe6b3ff0	-0.22973609
97	0x3cccefbe	0.025016662
98	0xbd681482	-0.056660183
99	0xbc54d0d6	-0.0129892435
100	0x3df3aeba	0.11898561
101	0x3dd84947	0.105608515
102	0x3ddd8e2f	0.10818135
103	0x3dab0e43	0.083523296
104	0x3d96423b	0.07336851
105	0x3ce9110f	0.028450517
106	0x3d013984	0.03154899
107	0xbe0bc69d	-0.13649984
108	0x3db66718	0.08906382
109	0x3e0490bc	0.12945837
110	0xbd65d9aa	-0.056115784
111	0x3c387884	0.011259202
112	0xbdf7f5e8	-0.1210745
113	0xbc1a1ea9	-0.009406724
114	0xbe3591fa	-0.17731467
115	0xbd87e5eb	-0.0663565
116	0x3c44ee18	0.012019657
117	0xbe1b449f	-0.15162896
118	0x3e00e2eb	0.12586562
119	0x3e15186d	0.14560099
120	0x3e04c9a5	0.12967546
121	0x3e306f15	0.17229874
122	0x3c58f0c0	0.013240993
123	0xbd1774e9	-0.03697673
124	0x3d6d8de7	0.057996657
125	0x3e3a5e61	0.18200065
126	0x3e15a0d1	0.14612128
127	0x3cb00614	0.021487273
128	0x3e19f77b	0.15035813
129	0xbe300f01	-0.17193224
130	0xbdf56ac5	-0.11983255
131	0xbe310da5	-0.17290361
132	0xbd8eb0d2	-0.069673195
133	0xbdd3d702	-0.10343744
134	0x3e5b5bf8	0.21421802
135	0x3bfdf6e9	0.0077503812
136	0x3d14dc23	0.03634275
137	0x3da4d9d1	0.08049358
138	0xbe70fe26	-0.2353445
139	0xbdebc633	-0.11512413
140	0xbd4e9af1	-0.050440732
141	0xbca62d81	-0.02028537
142	0xbe6dc3c1	-0.23219205
143	0x3e09d1b1	0.13458897
144	0x3dc7d24c	0.09756908
145	0xbe00b4c9	-0.12568964
146	0xbe192d33	-0.14958648
147	0x3e503935	0.20334323
148	0x3d6544cf	0.055973824
149	0x3df66893	0.12031665
150	0x3cecbb81	0.028898003
151	0xbc9c2021	-0.019058289
152	0x3d2c5166	0.042069815
153	0x3ded09b0	0.11574113
154	0x3e09242a	0.13392702
155	0xbded3bc7	-0.11583667
156	0xbe4309eb	-0.19046752
157	0x3dbb4045	0.09143118
158	0xbe890730	-0.26763296
159	0x3e2243bb	0.1584615
160	0x3e1cd1e0	0.15314436
161	0x3d659d86	0.05605843
162	0x3aaa43c6	0.0012990169
163	0x3e36725b	0.1781706
164	0xbd8dc09a	-0.069215015
165	0xbde05a80	-0.109547615
166	0xbdbc3c29	-0.09191162
167	0x3d8ce9d2	0.06880535
168	0x3d34c86c	0.04413645
169	0x3e94329f	0.2894487
170	0x3e3d6e4b	0.18499105
171	0xbe8552bb	-0.2603968
172	0x3dddea14	0.108356625
173	0xbe9d085d	-0.30670443
174	0x3d9c0c51	0.07619537
175	0xbdf2e44f	-0.11859953
176	0x3d22ec5e	0.0397762
177	0xbe1c843c	-0.15284818
178	0x3df824a8	0.121163666
179	0xbe2d19f3	-0.1690443
180	0xbda509bf	-0.080584995
181	0x3dd29248	0.10281807
182	0x3e2414e8	0.160236
183	0xbc06da2e	-0.008230729
184	0xbe81e883	-0.25372705
185	0xbe023e25	-0.12719019
186	0xbd4d6af2	-0.05015082
187	0xbdafdc8b	-0.08586987
188	0xbea09856	-0.31366223
189	0xbc8e5161	-0.017372789
190	0x3e5d016f	0.21582578
191	0xbe958f8c	-0.2921108
192	0xbb889877	-0.004168566
193	0x3ea89e1e	0.32933134
194	0x3b25b4f7	0.0025284865
195	0x3d313b89	0.043269668
196	0x3d8098ce	0.06279145
197	0xbca5b506	-0.02022792
198	0x3d41756b	0.04723112
199	0x3daf22ca	0.08551557
200	0x3ca5560e	0.020182636
201	0x3e1644ab	0.14674632
202	0xbdbb775c	-0.09153625
203	0x3db4712d	0.08810649
204	0x3e4d85a4	0.20070511
205	0xbded7f48	-0.115965426
206	0x3d3fe63b	0.046850424
207	0xbdb56821	-0.08857752
208	0x3b0df66d	0.0021661774
209	0x3d2d7e06	0.042356513
210	0x3eb73780	0.3578453
211	0xbe49c5fa	-0.19704428
212	0x3ea12add	0.31478015
213	0x3db1875c	0.08668396
214	0xbd8e65a3	-0.069529794
215	0xbe88d752	-0.26726776
216	0x3edbbef8	0.42919135
217	0xbe1cbb01	-0.15305711
218	0x3e2dd7cd	0.16976853
219	0x3e52c66d	0.20583506
220	0x3e5b6e42	0.21428779
221	0xbe8b998c	-0.27265584
222	0x3e0049b1	0.12528111
223	0xbe76077e	-0.24026296
224	0xbec32612	-0.38114983
225	0x3da2eab2	0.07954921
226	0x3d9aa920	0.07551789
227	0x3c9a0d46	0.018805157
228	0xbd7fc1b6	-0.062440597
229	0x3e03c0b2	0.12866476
230	0x3dcfde10	0.10149777
231	0xbdad810e	-0.08471881
232	0x3c7b5f9a	0.015342617
233	0x3d2b2d98	0.04179153
234	0x3db2680c	0.087112516
235	0xbe2c3bed	-0.16819735
236	0x3d233595	0.03984602
237	0x3ea894ed	0.3292612
238	0x3d9dcab5	0.07704679
239	0xbe5febbf	-0.21867274
240	0xbd71fbcd	-0.059078027
241	0x3df03028	0.11727935
242	0xbdb56f17	-0.08859079
243	0xbdf07049	-0.11740167
244	0x3d9e426e	0.07727514
245	0xbe0749de	-0.13211772
246	0x3ddeb9d0	0.10875285
247	0x3e2a0ff9	0.16607656
248	0x3e2b8e19	0.16753425
249	0x3ded8fce	0.11599694
250	0x3ceaa8af	0.028644888
251	0xbc7305a1	-0.014832885
252	0xbb726b7e	-0.003699034
253	0x3eb53541	0.35392192
254	0x3f076c28	0.5289941
255	0x3e19256d	0.14955683

lstm.bias_ih_l0 f4 [512]
0	0x3d52d833	0.051475715
1	0x3ca6b947	0.020352019
2	0x3dc6127f	0.096714966
3	0x3d16837d	0.03674649
4	0x3c42b6d8	0.011884414
5	0x3c63b3ef	0.01389788
6	0x3d7b5d5d	0.061368335
7	0x3d1fe31a	0.03903494
8	0x3d802c67	0.06258469
9	0xbd3a20bb	-0.04544137
10	0x3d4a3fda	0.0493773
11	0x3c191af2	0.009344803
12	0xbda70e4e	-0.08157025
13	0x3d4a6ff8	0.049423188
14	0x3bceebc0	0.0063147247
15	0x3df83b2b	0.121206604
16	0x3d2d3e98	0.042296022
17	0x3db672ad	0.089085914
18	0x3c409dad	0.011756343
19	0xbcce13dc	-0.025155954
20	0x3ce53606	0.027979862
21	0x3dcdf98f	0.10057365
22	0x3dac4c44	0.08412984
23	0x3e02e399	0.12782134
24	0x3d213f07	0.03936675
25	0x3dcc9419	0.09989185
26	0x3db6bc8f	0.089226834
27	0x3de98ab9	0.11403412
28	0x3e38ad64	0.18034893
29	0x3d95aee1	0.07308746
30	0x3b026693	0.0019897565
31	0x3b5c120c	0.0033580093
32	0x3db85dac	0.090022415
33	0xbcfcaf6d	-0.030845368
34	0x3d8844cd	0.06653748
35	0x3ca720d1	0.02040139
36	0x3dc4a74b	0.09602221
37	0x3d865c89	0.065606184
38	0x3dd9f5ae	0.10642563
39	0x3da45e99	0.080258556
40	0x3d98f0f8	0.07467836
41	0x3e0418c3	0.12900071
42	0xbb1bf7fe	-0.0023798938
43	0x3c01e3e9	0.007927873
44	0x3d6c2351	0.057650868
45	0xbcddd4b1	-0.027078958
46	0x3db2bc16	0.08727281
47	0xbd8333d3	-0.06406369
48	0xbc372aef	-0.01117967
49	0x3e0064c8	0.12538445
50	0x3daecb78	0.08534902
51	0xbcbf8f2d	-0.023383701
52	0xbd75735e	-0.059924476
53	0x3d074fa8	0.03303495
54	0xbceea471	-0.029131146
55	0x3ca2383f	0.01980221
56	0x3d968dec	0.07351288
57	0xbce0fbe9	-0.02746387
58	0x3e056883	0.1302815
59	0x3c67a0ad	0.014137429
60	0x3d2d25d9	0.042272422
61	0x3dc09a05	0.09404377
62	0x3d001497	0.031269636
63	0xbd066227	-0.03280845
64	0xbb1ae182	-0.0023632948
65	0xbcd5050b	-0.026003381
66	0xbcdbe931	-0.026844593
67	0x3d2488be	0.04016947
68	0x3e00766c	0.12545174
69	0x3ced9d82	0.02900577
70	0xba4ab334	-0.0007732392
71	0x3cbdbfbf	0.02316272
72	0xbcc883bc	-0.024476878
73	0x3dd9aced	0.10628686
74	0xbd7840db	-0.060608726
75	0x3dd555a3	0.104167245
76	0xbc6b49c1	-0.014360846
77	0x3d33af20	0.043868184
78	0x3cc6857e	0.024233576
79	0xbd42bca1	-0.04754317
80	0x3d8a0ad8	0.067403495
81	0x3d350112	0.044190474
82	0x3e1a8f0f	0.15093635
83	0x3dc4589a	0.09587212
84	0x3dd5b46d	0.10434804
85	0x3ce1fc5a	0.02758615
86	0x3d92c456	0.07166354
87	0x3c224b0d	0.009905589
88	0xbd87514c	-0.06607303
89	0x3dd87000	0.10568237
90	0x3c42a67b	0.011880512
91	0xbd4fd4aa	-0.05073992
92	0x3d7fb89e	0.062431924
93	0x3d191f3e	0.03738331
94	0x3be58244	0.0070040543
95	0x3d95a0aa	0.07306035
96	0x3c6b0f28	0.014346875
97	0x3deda671	0.11604012
98	0x3de3df6c	0.11126599
99	0x3df0d317	0.11759012
100	0xbb917510	-0.0044390038
101	0x3d807516	0.06272332
102	0x3d0475a1	0.032338742
103	0x3d09c961	0.033639316
104	0x3d03e48c	0.03220038
105	0x3c3f0288	0.011658318
106	0x3da5eb9d	0.0810158
107	0xba9c5d83	-0.0011929724
108	0x3cbf6c91	0.023367198
109	0xbc8b4a7c	-0.01700329
110	0x3d59a493	0.053135466
111	0xbc5c612d	-0.013450903
112	0xbd11343c	-0.035450205
113	0x3de5bfc7	0.11218219
114	0x3dabccf9	0.08388705
115	0xbd1d80c2	-0.03845287
116	0xbcc3d658	-0.023905918
117	0x3dc157f6	0.09440605
118	0xbdc64273	-0.09680643
119	0x3d1d5e69	0.038420115
120	0x3dfc8580	0.123301506
121	0x3df7bf63	0.12097051
122	0x3d4e646f	0.05038875
123	0x3c963e57	0.018340273
124	0x3de07494	0.109597355
125	0xbc916f02	-0.017753128
126	0x3bcbff07	0.00622547
127	0x3ce231ae	0.02761158
128	0xbd27753c	-0.040883288
129	0xbd2b429f	-0.04181158
130	0x3da74073	0.081665896
131	0x3df318a0	0.11869931
132	0x3daf5f84	0.0856314
133	0x3e06f770	0.13180327
134	0x3dad255b	0.084543906
135	0x3d7d8233	0.061891746
136	0x3dd1437c	0.1021795
137	0xbd6785f4	-0.056524232
138	0x3cdf2512	0.027239356
139	0x3d3c4de3	0.045972716
140	0x3c92653d	0.01787054
141	0x3d654a27	0.05597892
142	0x3daacfad	0.08340392
143	0xbdb2367a	-0.08701797
144	0x3c9d7f80	0.019225836
145	0x3ca9dfed	0.020736659
146	0x3d769a23	0.06020559
147	0x3dbbfbc5	0.091788806
148	0x3d820073	0.06347742
149	0x3d3d8b54	0.04627545
150	0x3d942862	0.07234265
151	0x3dda0af3	0.1064662
152	0x3d12da3a	0.03585265
153	0x3c2f1a4f	0.010687425
154	0x3dbe4206	0.09289937
155	0x3c3bb647	0.0114570325
156	0x3e369f68	0.17834246
157	0xbdb50206	-0.088382766
158	0x3cf835d5	0.030299107
159	0xbd496e22	-0.049177296
160	0x3c7d0d17	0.015445015
161	0x3de015c5	0.10941652
162	0xbd8457b8	-0.064620435
163	0x3e388577	0.18019663
164	0x3e288a94	0.16459113
165	0x3daa667d	0.08320329
166	0xbccfedde	-0.025381979
167	0x3de48aae	0.111592636
168	0x3c867e13	0.016417539
169	0x3db18ae5	0.0866907
170	0xbc1e1c47	-0.0096502965
171	0x3daa2f8e	0.083098516
172	0xbd29956c	-0.041402265
173	0x3d09c7ea	0.03363792
174	0x3c5523a4	0.013008986
175	0x3c9f288d	0.019428516
176	0x3d14ac1a	0.03629694
177	0x3db34c5d	0.087547995
178	0x3dad1be5	0.08452586
179	0xbd251cb4	-0.040310577
180	0x3d3375f0	0.043813646
181	0xbd20aabc	-0.039225325
182	0x3e060abb	0.13090031
183	0x3d200656	0.039068542
184	0x3d3d6471	0.046238367
185	0x3c1962b3	0.009361911
186	0x3b830472	0.0039983327
187	0x3c3556ea	0.011068085
188	0x3ce5a758	0.028033897
189	0x3d940e58	0.07229298
190	0xbbbd661f	-0.005779996
191	0x3d9ca8e2	0.07649399
192	0x3d0442e8	0.03229037
193	0xbd3fbdf8	-0.046812028
194	0x3d885484	0.06656745
195	0xbdbd8072	-0.092530146
196	0x3dc4c928	0.0960868
197	0xbd671200	-0.05641365
198	0xbd0eae8c	-0.03483443
199	0xbd94505e	-0.07241891
200	0x3d33e84e	0.043922715
201	0x3e3497c7	0.17636023
202	0x3d98273a	0.07429357
203	0x3df6b9a0	0.12047124
204	0x3d940b22	0.07228686
205	0x3ce69967	0.02814932
206	0x3d9e8bdc	0.0774152
207	0xbdc8b13d	-0.097994305
208	0x3cb0c844	0.02157987
209	0x3dd0ff86	0.10204987
210	0x3d66a60e	0.056310706
211	0xbd0fcb5a	-0.03510604
212	0x3ca755f8	0.020426735
213	0xbd3f2ec3	-0.046675455
214	0xbd1d6caa	-0.03843371
215	0xbc8bdd3f	-0.017073272
216	0x3dafc9ae	0.08583389
217	0x3d928142	0.0715356
218	0xbca02ab2	-0.019551609
219	0xbcd12d44	-0.02553428
220	0x3c497b58	0.012297474
221	0xbb728031	-0.0037002678
222	0x3db8fcf7	0.09032624
223	0x3e0b5b6d	0.13609095
224	0xbb133a88	-0.0022465307
225	0x3e0b238b	0.13587777
226	0xbcfcf377	-0.030877812
227	0x3d8693bf	0.06571149
228	0xbc32248c	-0.010872971
229	0xbc9ca036	-0.019119363
230	0x3df364b8	0.11884445
231	0x3d8fb6ce	0.07017289
232	0x3db511dd	0.08841298
233	0x3cd344be	0.025789615
234	0x3dd615b3	0.104533575
235	0x3da3e2d6	0.0800225
236	0x3bf67ffa	0.00752258
237	0x3d272ea9	0.040815983
238	0xbd9c0f42	-0.07620098
239	0xbc5ced33	-0.013484287
240	0x3d5e69d3	0.05430014
241	0x3d8e4220	0.06946206
242	0x3e1ce3ce	0.15321276
243	0x3ce6ef26	0.028190207
244	0x3e033d6d	0.12816401
245	0x3c9923de	0.01869386
246	0x3cad2ba7	0.02113898
247	0x3c3cf87e	0.0115338545
248	0x3d9d7d9b	0.07689973
249	0xbca53a7d	-0.020169491
250	0xbd8767f5	-0.06611625
251	0x3de49f33	0.11163177
252	0x3dc58983	0.09645369
253	0xbccd7f6d	-0.025085175
254	0x3e0ced6c	0.13762444
255	0x3d652c6e	0.055950575
