ml/models/best_model_tbnn_k_w_hparm.pth (torch, 309486 bytes, 14 tensors)

linear.weight f4 [32, 10]
0	0x3e95d9d2	0.29267746
1	0x3e58a411	0.21156336
2	0xbeb57d38	-0.35447097
3	0x3e5d0cf0	0.21586967
4	0xbe95eab0	-0.29280615
5	0xbe238a07	-0.15970622
6	0xbc00f38d	-0.007870567
7	0x3ee12934	0.43976748
8	0x3ea0443d	0.31302062
9	0xbe4f3a25	-0.20237024
10	0x3e7bb0f0	0.24579215
11	0x3db4bf8f	0.088255994
12	0x3ebc1ed3	0.36742267
13	0x3d6eefa6	0.058334015
14	0x3e3da1f4	0.18518811
15	0xbc43ae2f	-0.011943384
16	0x3e99da1f	0.30049226
17	0x3e92de86	0.28685397
18	0xbe321120	-0.17389345
19	0x3d87342f	0.0660175
20	0xbe1ab62c	-0.15108556
21	0xbd01d4ca	-0.031697072
22	0xbe9cc0ee	-0.30615944
23	0x3e3aefe1	0.18255569
24	0xbea0342d	-0.31289807
25	0xbe56132e	-0.20905754
26	0xbe29e1db	-0.16590063
27	0xbdc81993	-0.09770503
28	0x3c699075	0.014255633
29	0xbe8e6b09	-0.27816036
30	0x3e83d599	0.257489
31	0xbe764daf	-0.24053071
32	0x3e9a52a2	0.3014117
33	0x3d9424bc	0.07233569
34	0xbdb87d55	-0.0900828
35	0x3e5500f8	0.20801151
36	0x3e13f95f	0.14450596
37	0x3de7ad2d	0.113123275
38	0x3c48c852	0.012254791
39	0xbdf8c26f	-0.1214646
40	0x3e26b9ed	0.16281863
41	0xbe2788d0	-0.16360784
42	0x3d9a9de5	0.07549647
43	0x3e53a405	0.20668037
44	0x3dd1f48d	0.102517225
45	0xbe5fc5c8	-0.21852791
46	0x3e13ba2c	0.14426488
47	0x3cfb307b	0.030662766
48	0x3e675eb6	0.22594723
49	0xbe22ad81	-0.15886499
50	0xbe98355e	-0.29728216
51	0xbe0d3d04	-0.13792807
52	0xbee06f1a	-0.43834764
53	0x3e6a059c	0.22853702
54	0xbc6c7480	-0.014432073
55	0x3cd0a746	0.025470387
56	0x3d6e27b3	0.05814333
57	0x3e2636d4	0.16231853
58	0x3e865f15	0.26244417
59	0xbe38ba14	-0.18039733
60	0x3d09a3cc	0.033603474
61	0xbe6b09e1	-0.22952987
62	0x3e944118	0.28955913
63	0xbddfd572	-0.10929383
64	0x3e864097	0.26221153
65	0x3dcba297	0.09943121
66	0x3e3dd9c0	0.18540096
67	0xbea36a09	-0.31916836
68	0xbe23c10d	-0.15991612
69	0xbe2d6074	-0.16931325
70	0x3e6940eb	0.2277867
71	0x3e25e9fe	0.16202542
72	0x3ed953ed	0.42446843
73	0xbe3477f9	-0.17623891
74	0xbe9f968e	-0.31169552
75	0xbe7b5426	-0.24543819
76	0xbe2ca19a	-0.16858521
77	0x3df0260c	0.11726007
78	0x3d8f145a	0.06986304
79	0x3e6ab8d7	0.22922073
80	0xbe3fdc78	-0.18736446
81	0xbe441dc3	-0.19151978
82	0x3ebd78f3	0.3700634
83	0xbe05ebbf	-0.13078211
84	0x3eb48cdc	0.35263717
85	0x3daf71b3	0.08566608
86	0x3e3d1d74	0.18468267
87	0xbd7f0cad	-0.062267948
88	0xbe3a9fe7	-0.1822506
89	0x3dcdb130	0.100435615
90	0x3df597bc	0.11991832
91	0xbe08e676	-0.13369164
92	0x3d83f73b	0.0644364
93	0x3e1daee8	0.15398753
94	0xbeab399f	-0.334424
95	0xbe8c3f67	-0.27392122
96	0x3e8668e2	0.26251894
97	0x3da42f10	0.08016789
98	0xbd91b2d0	-0.07114184
99	0xbe910cd3	-0.28330097
100	0xbe29f9c4	-0.16599184
101	0x3d82dad1	0.06389392
102	0xbdbd8885	-0.09254555
103	0xbe82367a	-0.25432187
104	0x3b869955	0.004107634
105	0xbe6095d6	-0.21932158
106	0xbe767d14	-0.24071151
107	0xbe8f8bf2	-0.28036457
108	0xbe848a62	-0.25886828
109	0xbe20e6ec	-0.1571309
110	0x3e971416	0.29507512
111	0x3da5626b	0.08075412
112	0x3e381388	0.179762
113	0xbe6cde8d	-0.23131771
114	0xbe021b36	-0.12705693
115	0xbcc9b96a	-0.024624545
116	0x3d152fe2	0.036422618
117	0xbed63841	-0.41839793
118	0xbe0d6df8	-0.13811481
119	0xbe3e9b01	-0.18613817
120	0xba80786e	-0.0009801516
121	0xbded2f48	-0.11581284
122	0x3de6a9e2	0.11262871
123	0xbe38bba3	-0.18040328
124	0xbdde1840	-0.10844469
125	0xbd9b64e5	-0.075876035
126	0xbe048e44	-0.12944895
127	0xbef728f1	-0.48273423
128	0x3e8cfd17	0.27536842
129	0xbd991a49	-0.074757166
130	0x3eaf0255	0.34181467
131	0x3cebe706	0.028796684
132	0xbec6dba1	-0.3883944
133	0x3e15c2de	0.14625117
134	0xbe8588dd	-0.2608098
135	0xbe970cef	-0.29502055
136	0xbe336bb4	-0.17521554
137	0xbec109c3	-0.3770276
138	0x3e13dcb9	0.14439668
139	0xbd381e2a	-0.04495064
140	0x3cde8a51	0.027165564
141	0xbe277d87	-0.16356479
142	0x3f06aecf	0.52610487
143	0xbdbeb7b4	-0.09312382
144	0x3e233fdd	0.1594233
145	0x3e8f65f3	0.2800747
146	0x3dd01cfe	0.1016178
147	0x3e93d7c8	0.28875566
148	0x3e6a0c55	0.22856267
149	0xbe92ad3f	-0.286478
150	0x3db6412d	0.0889915
151	0xbe14e9ba	-0.14542285
152	0x3dbd7499	0.09250755
153	0xbe565709	-0.20931639
154	0x3eeb4df7	0.4595792
155	0xbd78101a	-0.06056223
156	0x3d8f610d	0.07000933
157	0xbc15a03e	-0.009132443
158	0x3e0119c9	0.12607493
159	0xbe25528e	-0.16144773
160	0x3e78ee81	0.24309732
161	0x3de91ce7	0.11382466
162	0x3dbaecd0	0.091272
163	0xbe30d880	-0.17270088
164	0x3e823607	0.25431845
165	0x3d97d0c5	0.074128665
166	0xbe7a9ac9	-0.24473108
167	0x3e5fbcf7	0.21849428
168	0x3d44692f	0.047951873
169	0xbe4cb647	-0.19991408
170	0xbe18ad12	-0.14909771
171	0xbcd579e8	-0.026059106
172	0x3ea95c21	0.330781
173	0xbdbe8a1e	-0.093036875
174	0xbde70850	-0.11280882
175	0xbd2690c3	-0.0406654
176	0xbe7ec6f6	-0.24880585
177	0x3c2bb3f6	0.010479918
178	0x3e841707	0.25798818
179	0xbe9d048b	-0.3066753
180	0x3ddc2017	0.10748308
181	0x3e046cb5	0.12932093
182	0x3e4fb043	0.20282082
183	0xbe1b9b49	-0.15195955
184	0x3e5d6d55	0.21623738
185	0x3e5e955d	0.21736665
186	0x3e2334fd	0.15938182
187	0xbe46ace1	-0.19401886
188	0xbd371f2c	-0.044707462
189	0x3d630bb2	0.055431075
190	0xbd4dc35d	-0.05023514
191	0xbdcc859b	-0.09986421
192	0x3ec678ef	0.3876414
193	0x3e825e51	0.25462583
194	0x3e9b641e	0.3034982
195	0x3e872b4a	0.26400214
196	0xbea72fde	-0.32653707
197	0x3d0dc421	0.03461087
198	0x3da41605	0.080120124
199	0x3dcfeddc	0.1015279
200	0xbe89df62	-0.2692824
201	0xbe09df1c	-0.13464016
202	0x3ee52bf4	0.44760096
203	0x3dd4f6a2	0.10398604
204	0xbc885de5	-0.016646335
205	0xbe442c26	-0.19157466
206	0xbdff2044	-0.12457326
207	0xbec2c888	-0.38043618
208	0xbdb390c4	-0.08767846
209	0x3e07de04	0.13268286
210	0x3e3aa495	0.18226846
211	0x3e2955e5	0.16536672
212	0xbe037c50	-0.1284039
213	0xbe3254a6	-0.17415103
214	0x3cc342a9	0.023835497
215	0x3ec26103	0.3796464
216	0x3d7728d3	0.060341667
217	0xbe7c1f2f	-0.2462127
218	0x3df35152	0.11880745
219	0xbe06d782	-0.13168147
220	0xbe16e29c	-0.14734882
221	0x3e31a48a	0.17347923
222	0xbe4826df	-0.19546078
223	0xbe07394d	-0.13205452
224	0xbea27d13	-0.3173605
225	0x3e55e20a	0.20887008
226	0x3e70f2b8	0.2353009
227	0x3f1ad279	0.60477406
228	0xbe232d92	-0.15935352
229	0xbe78dfd9	-0.24304141
230	0xbe1d7cb5	-0.15379603
231	0x3e07f59f	0.13277291
232	0x3e5b3807	0.21408091
233	0x3e1d0fd3	0.15338068
234	0x3e7401aa	0.2382876
235	0x3e1c5320	0.15266085
236	0xbe16b2a4	-0.14716583
237	0xbe0ffa35	-0.1406029
238	0xbe32f659	-0.17476787
239	0xbe52ff5a	-0.20605221
240	0x3d81ddcb	0.06341132
241	0xbdb6b78d	-0.08921728
242	0xbe4bcb1c	-0.19901699
243	0xbdb4aee4	-0.0882242
244	0xbe10bf36	-0.14135441
245	0xbe9cd422	-0.30630594
246	0xbe2cbe8e	-0.16869566
247	0x3ea6d60a	0.32585174
248	0xbe15a620	-0.14614153
249	0x3e39743f	0.1811075
250	0xbe3630e9	-0.17792095
251	0xbe1f3bfa	-0.15550223
252	0xbe0bfe13	-0.1367114
253	0xbda91f71	-0.0825795
254	0xbd8b66e4	-0.06806734
255	0xbe8b73d6	-0.27236813

linear.bias f4 [32]
0	0xbe4435fe	-0.19161221
1	0xbd9fd43b	-0.078041516
2	0x3e8988a1	0.26862052
3	0x3e112f57	0.14178215
4	0xbe2c9d78	-0.16856945
5	0xbe56ae10	-0.20964837
6	0xbe4881c9	-0.19580759
7	0xbeb04992	-0.3443113
8	0xbe71c242	-0.2360926
9	0xbd69f157	-0.057114925
10	0x3e84ec6e	0.25961632
11	0x3d6a6ec6	0.057234548
12	0xbe812e63	-0.25230703
13	0xbe6e5780	-0.23275566
14	0x3dfd467d	0.1236696
15	0xbe6678cf	-0.22507022
16	0xbd801be9	-0.062553234
17	0x3e1251d1	0.14289023
18	0xbdfdd76e	-0.123946056
19	0xbca5feb1	-0.020263048
20	0xbabfabfc	-0.0014623399
21	0xbdae6300	-0.085149765
22	0xbdb828e8	-0.08992177
23	0xbe44e963	-0.19229655
24	0xbe89407f	-0.2680702
25	0xbe41d357	-0.18928276
26	0x3e82e5b9	0.2556589
27	0xbe0741b1	-0.13208653
28	0xbe7d04dd	-0.24708886
29	0x3d792b9e	0.060832612
30	0x3d3b8fe4	0.04579152
31	0x3e0956f3	0.13412075

hidden_layers.0.weight f4 [32, 32]
0	0x3dec4a87	0.115376525
1	0xbd7db80b	-0.061943095
2	0xbe204605	-0.1565171
3	0x3b60047a	0.0034182356
4	0x3e253592	0.16133717
5	0xbb4b2de7	-0.0031002702
6	0xbdac28b0	-0.08406198
7	0x3dcd8c2e	0.10036503
8	0xbd83c373	-0.06433763
9	0xbdd9df21	-0.106382616
10	0xbe4804bb	-0.19533055
11	0x3d0bc0bc	0.034119353
12	0x3d87ea36	0.06636469
13	0x3e0fd8a1	0.14047481
14	0xbb3a6460	-0.0028441176
15	0xbdac28de	-0.08406232
16	0xbe1d94d2	-0.15388802
17	0x3d5e8dd6	0.054334484
18	0x3dc74b9b	0.097312175
19	0x3e0ffa19	0.14060248
20	0xbda80c96	-0.082055256
21	0xbbd4b1a1	-0.0064909016
22	0xbe4054c0	-0.1878233
23	0xbd5b5c34	-0.05355473
24	0xbb71b97a	-0.0036884234
25	0x3d311c9d	0.04324018
26	0x3e1bab85	0.15202148
27	0xbd7c6ea8	-0.061628968
28	0x3db2045a	0.08692236
29	0xbd86b739	-0.06577916
30	0x3bd5d8ab	0.006526073
31	0xbd9bea37	-0.07613032
32	0xbc419ac4	-0.011816684
33	0x3e032ad8	0.12809312
34	0xbdcf56a6	-0.10123949
35	0xbde30f8b	-0.11086949
36	0x3cd12087	0.025528206
37	0xbc3ab34e	-0.011395289
38	0xbd91d2e3	-0.071203016
39	0xbdc83563	-0.09775808
40	0x3dab1d3a	0.08355184
41	0x3d73a1af	0.059480365
42	0x3d934987	0.071917586
43	0xbe1c8716	-0.15285906
44	0xbe5936fb	-0.2121238
45	0xbd8e3c7b	-0.069451295
46	0xbc2e5ef3	-0.010642755
47	0xbe373120	-0.17889833
48	0xbdf41ff5	-0.11920158
49	0x3df27516	0.118387386
50	0x3cf508c3	0.029911404
51	0x3d99b5c3	0.075053714
52	0x3c998e28	0.018744543
53	0xbe72f262	-0.23725274
54	0xbe17b333	-0.14814453
55	0xbd6ac6bd	-0.057318438
56	0xbe404392	-0.18775776
57	0xbd376098	-0.044769853
58	0xbdaf5eea	-0.08563025
59	0xbdf209a5	-0.11818246
60	0x3e0e67f3	0.13906841
61	0x3b270521	0.0025485235
62	0x3e28729a	0.16449967
63	0xbdc0870b	-0.094007574
64	0xbd83892c	-0.06422648
65	0x3d420da0	0.047376275
66	0xbdc527a3	-0.09626701
67	0xbdefbd14	-0.11705986
68	0xbcbb3b05	-0.022855291
69	0xbd43db6b	-0.047816675
70	0xbe09a988	-0.13443577
71	0x3dbd88ca	0.09254606
72	0x3e0b10dc	0.1358065
73	0x3c33bcbe	0.010970293
74	0xbd0097cc	-0.031394765
75	0xbe40de6a	-0.18834844
76	0xbdbf4f6d	-0.09341321
77	0x3be56c38	0.007001426
78	0x3d5cefce	0.053939633
79	0xbd4f8238	-0.050661296
80	0xbd9d70e0	-0.07687545
81	0x3e1381df	0.1440501
82	0xbdf59f07	-0.11993223
83	0x3e24e06b	0.16101234
84	0xbd1a6aff	-0.037699696
85	0xbd308688	-0.04309705
86	0xbd0d33f0	-0.03447336
87	0x3cfe0dfb	0.031012526
88	0xbdbae9ed	-0.09126649
89	0x3d4c5961	0.049889926
90	0xbc1ac7c7	-0.009447045
91	0x3e366778	0.17812908
92	0x3e25c892	0.16189793
93	0xbe00b019	-0.12567176
94	0xbe1f8a1c	-0.15580028
95	0x3de03c12	0.109489575
96	0x3e08e750	0.13369489
97	0xbe3d596a	-0.1849114
98	0x3b09c081	0.0021019282
99	0xbe4e5896	-0.2015098
100	0xbe3951bf	-0.1809759
101	0x3d17c8fd	0.03705691
102	0x3c1e0603	0.009644988
103	0x3cca7528	0.024714068
104	0xbd93936a	-0.072058514
105	0x3dbf35e7	0.09336453
106	0x3d94b9b5	0.07261983
107	0xbe12f0d5	-0.14349683
108	0xbd6eec6e	-0.058330946
109	0x3c81204b	0.015762469
110	0x3cf187ac	0.029483639
111	0xbe2f3d64	-0.17113262
112	0x3d414813	0.047187876
113	0xbdcd1320	-0.100134134
114	0xbe20a198	-0.15686643
115	0xbd775941	-0.060387854
116	0x3e5b10e7	0.21393166
117	0x3d9e91e7	0.077426724
118	0x3dfeb5c5	0.124370135
119	0x3ded9a0a	0.11601646
120	0x3dcd6189	0.10028369
121	0xbdd7f3b4	-0.105445296
122	0xbdfe0268	-0.12402803
123	0x3d42dfd7	0.04757675
124	0xbdaebab9	-0.08531708
125	0xbe04885d	-0.12942643
126	0xbc936ef8	-0.01799725
127	0x3ca85673	0.020549035
128	0x3d6f3069	0.058395777
129	0x3d24ca93	0.040232252
130	0xbe0cb39e	-0.13740394
131	0x3d9d90fd	0.0769367
132	0xbdb2a16c	-0.08722195
133	0xbe04b1d1	-0.12958457
134	0x3ddb03f4	0.106941134
135	0xbc5f86ce	-0.01364298
136	0x3e417ba7	0.18894826
137	0x3e24d690	0.16097474
138	0x3d1feb8e	0.039043
139	0x3cd63c76	0.026151877
140	0x3d6f7cc8	0.05846861
141	0xbcbcb804	-0.023036964
142	0x3c2bed98	0.0104936585
143	0x3d168bb3	0.03675432
144	0x3df370e7	0.11886769
145	0x3e402fe7	0.18768273
146	0xbd1e4504	-0.038640037
147	0xbdfad464	-0.122475415
148	0xbdae31a3	-0.08505561
149	0xbd3a8c0c	-0.045543715
150	0x3cda32a4	0.026635475
151	0x3dbec2a7	0.09314471
152	0x3e36a5db	0.17836706
153	0x3deddf24	0.11614826
154	0xbd843441	-0.06455279
155	0xbd523fe5	-0.051330466
156	0x3d3b93a5	0.0457951
157	0xbc99b623	-0.018763607
158	0x3c8dfc52	0.01733223
159	0xbe02f9af	-0.12790559
160	0x3d1c9c69	0.0382351
161	0x3b635ca2	0.0034692665
162	0xbe14014a	-0.14453617
163	0xbdb893ae	-0.09012543
164	0x3e00be2b	0.12572543
165	0xbe36d9aa	-0.1785647
166	0x3dfa18dc	0.12211773
167	0x3b94cfd5	0.004541377
168	0x3baea927	0.005330223
169	0x3dba77c4	0.09104875
170	0xbd564914	-0.052315786
171	0x3d83c738	0.06434482
172	0x3e13a3a6	0.14417896
173	0xbe26d4f7	-0.16292177
174	0x3d9a0e48	0.07522255
175	0x3d21e111	0.03952128
176	0x3d8fc5f2	0.07020177
177	0x3d19af97	0.03752097
178	0x3d75200c	0.059845015
179	0xbdef6bb6	-0.11690466
180	0xbd837668	-0.064190686
181	0x3e388ee8	0.18023264
182	0x3de8fc41	0.113762386
183	0xbd213087	-0.03935292
184	0xbda8e6e3	-0.08247163
185	0x3d6063c3	0.05478264
186	0xbd92edf3	-0.071742915
187	0x3e3919ff	0.18076323
188	0xbd961303	-0.07327845
189	0xbbf973d5	-0.007612685
190	0xbd1c1f52	-0.038115807
191	0x3d626484	0.05527164
192	0x3e2939e8	0.16525996
193	0xbe0127d9	-0.12612857
194	0x3dae5067	0.08511429
195	0x3ddcdc15	0.10784165
196	0x3e2aeba9	0.1669146
197	0xbd44ea50	-0.04807502
198	0xbd81ff7a	-0.063475564
199	0x3d21fd1d	0.03954803
200	0xbde01f4c	-0.109434694
201	0x3d1902b0	0.03735608
202	0xbdb2fa9d	-0.08739207
203	0xbdb75319	-0.089513965
204	0x3ce38860	0.02777499
205	0x3d7b9936	0.06142541
206	0x3d162dcf	0.03666478
207	0x3dfc5487	0.1232081
208	0x3d934ca2	0.07192351
209	0x3e2e3dc2	0.17015746
210	0xbd7f2d42	-0.06229902
211	0xbe058d2e	-0.13042137
212	0xbde91836	-0.11381571
213	0xbdc32903	-0.09529307
214	0xbe3c5123	-0.18390326
215	0xbd5ef196	-0.054429613
216	0xbe43f7c3	-0.19137482
217	0xbe54a227	-0.20764981
218	0xbe0883ad	-0.1333148
219	0xbde99ec7	-0.114072375
220	0xbdaa2bf9	-0.08309168
221	0x3cec0895	0.028812686
222	0x3da1b51a	0.078958705
223	0xbcc03824	-0.02346427
224	0xbd343f72	-0.04400582
225	0x3e310761	0.17287971
226	0xbda7b42f	-0.08188664
227	0xbd906569	-0.070505925
228	0x3db2e8b8	0.08735794
229	0xbe27a924	-0.16373116
230	0x3bda8e83	0.0066698208
231	0x3e11c385	0.14234741
232	0x3c569fae	0.013099594
233	0x3d277468	0.040882498
234	0xbdf2ad4b	-0.11849459
235	0xbca33706	-0.019923698
236	0xbc0d4e77	-0.0086246645
237	0xbc8d6b00	-0.017262936
238	0x3d9c948f	0.07645523
239	0x3e087382	0.13325313
240	0xbdf4f13d	-0.11960075
241	0xbd2321a7	-0.039827015
242	0xbde5d908	-0.11223036
243	0xbdc1be48	-0.094601214
244	0xbc75c112	-0.014999645
245	0xbe185f43	-0.1488009
246	0x3dc5f663	0.09666135
247	0x3b88286e	0.00415521
248	0xbdb6dabc	-0.08928439
249	0x3daa6508	0.083200514
250	0xbe2473af	-0.16059755
251	0xbdac2fc2	-0.084075466
252	0xbd37f444	-0.044910684
253	0xbdf31316	-0.11868875
254	0xbe3149ec	-0.17313355
255	0x3d4531cd	0.048143197

hidden_layers.0.bias f4 [32]
0	0x3e1f3fa2	0.15551618
1	0xbc56dcad	-0.013114137
2	0x3dfae49b	0.12250634
3	0x3dd2b666	0.10288696
4	0x3e147e29	0.14501251
5	0xbe2151d4	-0.15753871
6	0x3decbc0c	0.115593046
7	0xbe074868	-0.13211215
8	0x3e03755f	0.12837742
9	0xbbb08f6c	-0.005388191
10	0xbdcc6534	-0.099802405
11	0x3d38c7bc	0.045112357
12	0xbd0b66ad	-0.034033466
13	0xbe15f209	-0.1464311
14	0xbd8d6167	-0.06903344
15	0x3b70a36a	0.0036718496
16	0x3e03e89c	0.12881702
17	0xbd10449c	-0.03522168
18	0x3d9b1d47	0.075739436
19	0x3d4ab452	0.049488373
20	0x3cca18b4	0.024669982
21	0x3d54d511	0.05196101
22	0xbdf9d7bf	-0.121993534
23	0xbe082f8c	-0.13299388
24	0xbd83b451	-0.06430877
25	0xbe0badb8	-0.13640487
26	0xbd938cbd	-0.07204578
27	0x3d616089	0.055023704
28	0xbdd9008d	-0.10595808
29	0xbd5fe38f	-0.054660376
30	0xbc4df5a9	-0.012570777
31	0xbcefaee5	-0.0292582

lstm.weight_ih_l0 f4 [400, 32]
0	0xbd9de151	-0.07708991
1	0x3cb4b271	0.022057744
2	0x3c9aba51	0.01888767
3	0x3d8b5aaa	0.06804402
4	0xbc5fa2dd	-0.0136496695
5	0xbd96c813	-0.0736238
6	0xbd6a2cee	-0.057171755
7	0x3d57b9b8	0.05266735
8	0xbcbb85da	-0.022890974
9	0xbd843d6f	-0.0645703
10	0x3d42b902	0.04753972
11	0x3b5a0bfb	0.00332713
12	0x3c1bb211	0.009502904
13	0x3d3b820f	0.04577833
14	0xbd2bf3c4	-0.04198052
15	0xbe0abf24	-0.13549477
16	0x3b61c5c4	0.0034450153
17	0xbde35d89	-0.11101825
18	0x3d55f222	0.05223287
19	0xbdc95c7f	-0.09832095
20	0x3ba0b622	0.0049045244
21	0xbda20b3b	-0.07912298
22	0x3d293467	0.04130974
23	0x3d9a1a0e	0.07524501
24	0xbd08ef25	-0.03343119
25	0x3e027c86	0.12742814
26	0xbdd5d0c0	-0.104402065
27	0xbc9f07ef	-0.019412963
28	0x3de74b79	0.11293692
29	0x3cce19ae	0.02515873
30	0xbe13426d	-0.14380808
31	0x3d7df53e	0.06200146
32	0xbd4a267f	-0.04935312
33	0x3c155cec	0.009116393
34	0xbbc61a79	-0.0060456363
35	0xbdb60a9c	-0.08888742
36	0xbe006733	-0.12539367
37	0xbdd6bade	-0.10484861
38	0x3d32aab5	0.04361983
39	0x3d15a0ad	0.036530185
40	0xbdb5bf3f	-0.08874368
41	0xbcf386a6	-0.029727291
42	0xbceefc1b	-0.029172948
43	0xbdc7fa3d	-0.09764526
44	0x3d2b0ec4	0.04176213
45	0x3d3cd90e	0.046105437
46	0x3c876c50	0.01653114
47	0xbdb42f11	-0.0879804
48	0xbd233dac	-0.039853737
49	0xbc0ccba6	-0.008593475
50	0x3dc508bd	0.09620807
51	0xbdbe3a4e	-0.092884645
52	0xbd9c472f	-0.07630765
53	0x3ce0b422	0.027429644
54	0xbc3effe7	-0.011657692
55	0xbd57c0c1	-0.05267406
56	0xbd9aad95	-0.075526394
57	0xbdcd1991	-0.10014642
58	0x3c33233b	0.010933693
59	0xbd2bdd16	-0.04195889
60	0x3da0193a	0.078173116
61	0x3d562023	0.05227674
62	0xbbcafaef	-0.0061944644
63	0x3d0e144c	0.034687325
64	0x3c020ce7	0.0079376465
65	0x3d8f7ddf	0.0700643
66	0xbd9dd946	-0.07707457
67	0x3d17f1c6	0.037095807
68	0xbc83aa6e	-0.016072478
69	0x3cd017bd	0.025401944
70	0xbbbe5329	-0.0058082533
71	0xbd9d5b93	-0.07683482
72	0xbc45816c	-0.012054782
73	0x3d413091	0.047165457
74	0xbd7a95c2	-0.061177976
75	0xbcfe8d2f	-0.031073181
76	0x3c294161	0.010330529
77	0xbd9a0065	-0.075196065
78	0x3d5df82c	0.054191753
79	0x3d5e73a1	0.05430949
80	0xbd0bd13b	-0.034135085
81	0x3d8f56c3	0.0699897
82	0x3c89d26d	0.016823972
83	0xbe06e362	-0.13172677
84	0xbcf912ce	-0.030404475
85	0xbca37231	-0.019951912
86	0xbd811460	-0.06302714
87	0xbdc6eb10	-0.09712803
88	0xbdfb7304	-0.12277797
89	0xbcdf256d	-0.027239526
90	0xbc8c512c	-0.01712855
91	0x3dd3f55c	0.10349533
92	0x3dacb2d6	0.08432548
93	0x3b3b8829	0.0028615093
94	0x3c5faf46	0.013652628
95	0xbd58dbc5	-0.052943964
96	0x3d3165ba	0.043309905
97	0xbd922cfe	-0.07137488
98	0x3d8dcbdc	0.06923649
99	0x3d7a614a	0.06112794
100	0xb9a0647b	-0.00030592442
101	0x3d3504f6	0.044194184
102	0xbd7ba993	-0.061441015
103	0x3e17b9c9	0.14816965
104	0x3d706bef	0.058696683
105	0xba8cfc25	-0.0010756297
106	0x3d8c0602	0.068370834
107	0x3d447e73	0.047972154
108	0x3d457aca	0.048212804
109	0xbc38d65b	-0.011281575
110	0x3d5d3974	0.05400987
111	0xbd6eef7f	-0.05833387
112	0x3d7a374e	0.0610879
113	0x3cec649a	0.028856564
114	0x3dac6181	0.08417035
115	0x3d8b4c6c	0.06801686
116	0x3d66dfdd	0.056365836
117	0xbd1a3672	-0.03764958
118	0xbd1b31bc	-0.037889227
119	0x3d629a1f	0.055322763
120	0x3bff2000	0.007785797
121	0xbc0d45c7	-0.008622593
122	0x3d84f59d	0.064921595
123	0x3d44cb2a	0.048045315
124	0xbd13ad89	-0.036054168
125	0xbc6d8272	-0.014496433
126	0xbd0b2e4a	-0.03397969
127	0xbd065652	-0.032797165
128	0x3cbcd40d	0.023050332
129	0xbce88cc7	-0.02838744
130	0xbd8d1159	-0.068880744
131	0xbbcfd6b5	-0.0063427337
132	0xbd55b3cb	-0.052173417
133	0x3d9f5667	0.07780152
134	0x3ca27c2b	0.019834599
135	0x3db8fefb	0.09033009
136	0x3d1f45ea	0.038885035
137	0xbb8fe557	-0.004391353
138	0x3d5caec7	0.05387762
139	0xbc4b8a49	-0.0124231065
140	0xbde3bf71	-0.11120499
141	0xbda7c85d	-0.08192513
142	0xbd0531e5	-0.032518286
143	0xbd574024	-0.052551404
144	0x3c605284	0.013691548
145	0xbbc1c280	-0.005913079
146	0x3ddb2981	0.107012756
147	0xbcfa50a1	-0.030556025
148	0xbbf168ee	-0.007367245
149	0xbd756ff5	-0.059921224
150	0xbddb20ec	-0.10699639
151	0xbdc4142c	-0.0957416
152	0x3b9d8d03	0.0048080697
153	0x3d99b343	0.075048946
154	0x3d6a1ae7	0.057154562
155	0xbd71df1a	-0.059050657
156	0x3ba65737	0.005076315
157	0xbd64395d	-0.05571877
158	0xbce53097	-0.027977271
159	0x3c9a6024	0.018844672
160	0xbcb0bbaf	-0.02157387
161	0x3d08f26d	0.03343432
162	0xbc59b394	-0.013287444
163	0x3d70591f	0.058678742
164	0xbd5e2d4f	-0.05424243
165	0xbd8ea924	-0.06965855
166	0x3d4727ef	0.048622068
167	0xbca72893	-0.02040509
168	0xbd0b2e5c	-0.03397976
169	0xbc40fe62	-0.0117794
170	0x3d211e0f	0.039335307
171	0xb9cd962f	-0.00039212542
172	0x3b4f9843	0.0031676448
173	0xbd705210	-0.05867201
174	0xbdeef854	-0.116684586
175	0xbc03b8f4	-0.008039702
176	0xbcb405d8	-0.021975443
177	0x3d62df0d	0.0553885
178	0xbb40b8ea	-0.0029407092
179	0xbc870723	-0.016482895
180	0x3d8bf0eb	0.06833061
181	0x3da2ab95	0.07942883
182	0xbd59aebc	-0.053145155
183	0x3d30c532	0.04315681
184	0xbd800268	-0.06250459
185	0xbd8f66bf	-0.07002019
186	0xbd997bc0	-0.074943066
187	0xbd9f3778	-0.07774252
188	0xbc348d7a	-0.011020059
189	0xbd4c8e12	-0.049940176
190	0xbd86aef4	-0.065763384
191	0x3e079def	0.1324384
192	0xbde6069e	-0.11231731
193	0x3d846ce8	0.06466085
194	0xbe07fa1d	-0.13279004
195	0x3d096cfb	0.033551197
196	0x3c6aceab	0.0143315
197	0x3cc514a1	0.024057688
198	0xbd0aa7cc	-0.03385143
199	0x3dd30603	0.10303881
200	0x3da22c11	0.07918561
201	0xbc7718a8	-0.015081562
202	0x3d276278	0.04086539
203	0xbc858fe2	-0.01630396
204	0xbd596f20	-0.053084493
205	0xbdb5d1d9	-0.08877916
206	0xba092644	-0.0005231837
207	0xbe13c596	-0.14430842
208	0xbd84574c	-0.06461963
209	0xbda27a0c	-0.07933435
210	0x3e4643bf	0.1936178
211	0xbdd0bff6	-0.10192864
212	0xbcdfed18	-0.027334735
213	0xbd82370a	-0.06358154
214	0x3badffb7	0.0053100246
215	0x3d3fa87f	0.04679155
216	0x3d7740e6	0.060364626
217	0x3c89f02d	0.016838158
218	0x3c83d96c	0.016094886
219	0xbdc2e2b2	-0.09515895
220	0x3d928857	0.07154911
221	0x3c8811b4	0.016610004
222	0x3aa814b1	0.0012823549
223	0xba98e418	-0.0011664657
224	0xbd297916	-0.041375242
225	0x3db5a7ba	0.08869882
226	0xbd2aa8af	-0.041664775
227	0xbcc02ccc	-0.02345886
228	0xbe159214	-0.14606506
229	0xbd1eafea	-0.038741983
230	0x3ce7e045	0.028305182
231	0x3cac157e	0.021006342
232	0x3d5d5726	0.05403819
233	0xbd104f33	-0.03523178
234	0xbd08c46e	-0.033390455
235	0xbd43bbfe	-0.047786705
236	0xbd3c4a3d	-0.045969237
237	0xbe064199	-0.13110961
238	0x3caaf6eb	0.020869693
239	0xbde4c831	-0.11170996
240	0xbd5fa718	-0.054602712
241	0xbdfe84b2	-0.12427653
242	0x3d37c2ad	0.04486339
243	0xbda13acc	-0.07872543
244	0x3dd13252	0.10214676
245	0xbdad0483	-0.08448126
246	0x3c82f644	0.01598657
247	0xbdc21e18	-0.09478396
248	0xb89c1bde	-7.44385e-05
249	0xbdbafa4e	-0.09129773
250	0x3d6c8191	0.05774075
251	0xbdc4f65d	-0.096173026
252	0x3d8be618	0.06830996
253	0xbd861bed	-0.06548295
254	0xbcb9ee88	-0.022696748
255	0x3db70768	0.089369595

lstm.weight_hh_l0 f4 [400, 100]
0	0x3dd99387	0.10623842
1	0xbdf7376c	-0.12071118
2	0x3bb596fd	0.005541681
3	0x3b9f5723	0.0048626824
4	0xbdab8ba8	-0.08376247
5	0xbde00021	-0.109375246
6	0x3d06d3de	0.032916896
7	0xbd80af4a	-0.06283434
8	0x3d00d398	0.03145179
9	0xbd1b11c2	-0.037858732
10	0xbd86fb6d	-0.065909244
11	0xbcc89e3b	-0.024489513
12	0x3c808c77	0.015691979
13	0xbd1ddc12	-0.038539954
14	0xbdaf95e8	-0.08573514
15	0x3d9697af	0.0735315
16	0xbceb3672	-0.028712485
17	0xbd3cdfa0	-0.046111703
18	0x3d82f208	0.0639382
19	0xbbd881d6	-0.0066072745
20	0x3c0bda8d	0.008535993
21	0xbb1a37d9	-0.0023531823
22	0x3cc1ef7b	0.023673763
23	0x3d1c07cd	0.038093377
24	0x3d218668	0.03943482
25	0xbc4a7ede	-0.012359349
26	0x3da8e096	0.08245961
27	0x3d942dcb	0.07235297
28	0xbcac50a3	-0.021034544
29	0xbd0627af	-0.03275269
30	0xbc472ca7	-0.012156642
31	0x3d9628f6	0.073320314
32	0xbd5dd041	-0.054153685
33	0x3d9173ce	0.07102166
34	0xbc0a4bb4	-0.008440901
35	0x3df8cf95	0.12148968
36	0x3d5a0024	0.05322279
37	0x3b781bd0	0.0037858374
38	0xbd2c50df	-0.042069312
39	0x3de5b468	0.112160504
40	0x3dce4328	0.10071403
41	0xbd7bdb5c	-0.061488494
42	0xbd123a77	-0.035700288
43	0xbdca633d	-0.098822095
44	0xbdb36d83	-0.08761122
45	0x3d9da4b3	0.076974295
46	0xbd231f4a	-0.03982476
47	0x3ab98e01	0.00141567
48	0xbd9293e8	-0.07157117
49	0xbdb828c3	-0.0899215
50	0x3de685c2	0.11255981
51	0x3bec36da	0.0072086873
52	0xbcd6649a	-0.026171017
53	0xbd111448	-0.035419732
54	0x3dd21689	0.102582045
55	0x3dcde2c8	0.10053021
56	0x3da50153	0.08056893
57	0x3dbef6de	0.0932443
58	0x3d0dc69e	0.034613244
59	0x3d216629	0.03940407
60	0x3d2e1f05	0.04251005
61	0xbd0969e1	-0.03354824
62	0xbdc379e5	-0.09544734
63	0x3d9b115c	0.075716704
64	0x3df2ca09	0.118549414
65	0xbc1e3682	-0.00965655
66	0x3aa7b92a	0.0012796272
67	0x3d2bbd38	0.0419285
68	0xbce3c810	-0.027805358
69	0x3bbc683b	0.00574973
70	0xbca0de38	-0.019637212
71	0xbd3d3c03	-0.04619981
72	0xbdc0e375	-0.09418384
73	0x3de38b7d	0.1111059
74	0x3ced5306	0.028970253
75	0x3dcfe081	0.101502426
76	0xbd9c2f18	-0.0762617
77	0xbd89dba6	-0.06731348
78	0x3c4151e4	0.011799309
79	0x3d47bd9e	0.048764817
80	0x3dab0c80	0.083519936
81	0x3d80b026	0.06283598
82	0xbdb475c5	-0.08811525
83	0xbd0ff4d5	-0.0351456
84	0x3d4fe913	0.050759386
85	0xbd487a0a	-0.04894451
86	0xbdbec360	-0.093146086
87	0xbc77cde3	-0.015124771
88	0xbd45ae2b	-0.048261803
89	0x3c284c2c	0.010272067
90	0xbdd0d87e	-0.101975426
91	0xbd1977a2	-0.037467606
92	0xbd14faea	-0.036372103
93	0x3d83a416	0.06427781
94	0x3dc29911	0.09501851
95	0xbd8e9ed4	-0.06963888
96	0xbd1e46df	-0.038641807
97	0x3d5d8c66	0.054088973
98	0x3d4a61c2	0.049409635
99	0xbded054f	-0.11573278
100	0xbd8247f8	-0.06361383
101	0x3c00574c	0.007833313
102	0x3d1172f6	0.035510026
103	0xbd9cb3f8	-0.07651514
104	0x3ca458b2	0.020061824
105	0x3c1146a7	0.0088669425
106	0xbd53acbe	-0.05167841
107	0xbdf212c3	-0.11819985
108	0x3bee48d2	0.0072718645
109	0x3cde2018	0.027114913
110	0x3c28dcf0	0.010306582
111	0x3d0f40d6	0.03497394
112	0x3e0e7741	0.1391268
113	0x3dcad319	0.09903545
114	0xbcdce90a	-0.02696659
115	0xbcb7e3d0	-0.022447497
116	0xbdfe90b0	-0.12429941
117	0x3da5dff6	0.08099358
118	0xbe093930	-0.13400722
119	0xbda81bb2	-0.082084075
120	0xbdbce784	-0.092238456
121	0xbd26b759	-0.040702198
122	0xbcee675e	-0.029102024
123	0x3d963e9e	0.07336162
124	0xbdf44716	-0.11927621
125	0x3d046521	0.032323007
126	0xbd3d42cb	-0.046206277
127	0x3d3f644a	0.046726502
128	0xbd7ca826	-0.061683796
129	0x3997e31b	0.0002897017
130	0x3dabf889	0.08397014
131	0x3a72646d	0.0009246532
132	0x3c8861a2	0.016648117
133	0xbcc240ac	-0.023712479
134	0xbd6feacc	-0.05857353
135	0x3cbd472d	0.023105228
136	0x3d9369bc	0.071979016
137	0xba343ead	-0.00068757945
138	0x3da45fbf	0.080260746
139	0x3c8e2eb3	0.017356252
140	0x3d8e756b	0.069559895
141	0x3daa7b06	0.08324246
142	0x3d561c11	0.05227286
143	0xbd6a2343	-0.057162534
144	0x3db15dc2	0.08660461
145	0xbde8f8f4	-0.11375609
146	0xbd8ed1a5	-0.0697358
147	0x3d420fd0	0.04737836
148	0x3da19183	0.07889082
149	0x3d9de86a	0.07710345
150	0xbab8a4d8	-0.0014087213
151	0xbd845216	-0.06460969
152	0x3dd10bf6	0.102073595
153	0xbd7aea08	-0.061258346
154	0x3d5b3e45	0.05352618
155	0xbc154453	-0.009110528
156	0x3cf555e7	0.029948188
157	0x3c5168ac	0.012781303
158	0x3c31de21	0.010856182
159	0xbcec2266	-0.028824996
160	0xbcce7950	-0.02520433
161	0xbd338a14	-0.043832853
162	0xbd8ac0f5	-0.06775085
163	0x3c9cf859	0.01916139
164	0x3d22eb7f	0.039775368
165	0xbe027895	-0.12741311
166	0xbcd76955	-0.026295343
167	0xbdf5f594	-0.12009731
168	0xbcfd2284	-0.030900247
169	0xbd253357	-0.040332165
170	0x3e14edf3	0.14543895
171	0xbd93a8ff	-0.07209968
172	0xbd72bf08	-0.059264213
173	0x3d87e21a	0.06634922
174	0xbcf8ff0c	-0.030395053
175	0x3da92b27	0.08260184
176	0xbda2ba0b	-0.07945641
177	0x3d0bc03a	0.03411887
178	0xbdad1eda	-0.0845315
179	0xbd86252b	-0.06550058
180	0xbd9f4e06	-0.07778554
181	0x3d89be44	0.067257434
182	0xba80e51d	-0.0009833906
183	0xba9f60f0	-0.0012159627
184	0xbd0e0fec	-0.034683153
185	0x3c8860ba	0.016647685
186	0xbd8a7d71	-0.06762207
187	0xbd90c412	-0.070686474
188	0x3cb5bbed	0.022184337
189	0x3d63bdb2	0.05560083
190	0xbd5d40b9	-0.054016802
191	0x3df6ed26	0.12056951
192	0xbc1ad29a	-0.009449625
193	0x3d743b90	0.059627116
194	0x3dc79bee	0.09746538
195	0x3dc20993	0.094744824
196	0x3cfd98f3	0.030956721
197	0xbd7499bf	-0.059716936
198	0x3d95d937	0.07316821
199	0xbd921803	-0.07133486
200	0xbda3e30a	-0.08002289
201	0xbdc84060	-0.097779036
202	0x3e1f347d	0.15547366
203	0x3c2e112b	0.01062421
204	0xb6ec8b9b	-7.0496003e-06
205	0xbda97594	-0.082743794
206	0xbd25aa53	-0.040445637
207	0xbc986bfd	-0.01860618
208	0xbda540f9	-0.08069033
209	0x3d34db26	0.04415431
210	0xbde4df13	-0.111753605
211	0x3c49330c	0.012280237
212	0x3e2fc3d4	0.17164546
213	0xbddf356c	-0.10898861
214	0xbc487d2e	-0.012236876
215	0xbd23b092	-0.039963312
216	0xbd12a3c0	-0.035800695
217	0xbd9b69e1	-0.07588554
218	0xbd77fb89	-0.060542617
219	0xbc8c000c	-0.017089866
220	0x3e0db74a	0.1383945
221	0xbdb67cb3	-0.08910503
222	0x3bfccfd6	0.0077152057
223	0xbcda3655	-0.026637236
224	0xbb92c1b6	-0.0044786585
225	0xbb62f455	-0.0034630497
226	0x3db3e59c	0.08784029
227	0x3d83cd56	0.06435649
228	0xba656a11	-0.0008751462
229	0x3dd526a1	0.104077585
230	0xbccb2dfa	-0.024802197
231	0xbcaac7f2	-0.020847294
232	0xbdcc0132	-0.099611655
233	0xbd0f5148	-0.034989625
234	0x3dbd9ff6	0.09259026
235	0x3ba342b4	0.004982317
236	0x39d31d41	0.00040266852
237	0xbd826914	-0.06367698
238	0x3c1e6d9e	0.009669689
239	0x3e8a3dc6	0.27000254
240	0xbcea919f	-0.02863389
241	0xbd47404e	-0.04864531
242	0x3d84dff4	0.06488028
243	0x3d1a8b77	0.03773066
244	0x3e0a6b95	0.13517602
245	0x3d907dc3	0.07055237
246	0xbd3e217c	-0.046418652
247	0x3d73387c	0.05938004
248	0x3e17336e	0.14765713
249	0x3d5c50b8	0.053787917
250	0xbc75ad3e	-0.014994917
251	0x3d78e130	0.06076163
252	0x3c966e91	0.018363269
253	0x3d5f897e	0.054574482
254	0xbda052ab	-0.07828268
255	0x3d53bf2e	0.051695995

lstm.bias_ih_l0 f4 [400]
0	0x3c79e749	0.015252897
1	0xbca4896f	-0.020085065
2	0xbc02bd01	-0.007979632
3	0xbd67a587	-0.056554344
4	0x3cfa2cff	0.030539034
5	0xbd9a40a0	-0.075318575
6	0xbccd84e5	-0.025087783
7	0x3d4a9104	0.049454704
8	0xbd6e091c	-0.058114156
9	0x3c6df548	0.014523812
10	0x3d8a1145	0.06741575
11	0x3c1a8faa	0.009433666
12	0xbd809776	-0.06278889
13	0xbdd44b01	-0.10365868
14	0xbdf30a53	-0.118672036
15	0xbd7a69b2	-0.061135955
16	0x3de3eccb	0.11129149
17	0xbdcba965	-0.09944419
18	0xbc3a01e1	-0.011352987
19	0xbcff7521	-0.031183781
20	0x3d24d12c	0.040238544
21	0xbd1172fe	-0.035510056
22	0xb96afc7f	-0.00022410041
23	0x3d71b164	0.059007064
24	0xbdb198f1	-0.086717494
25	0xbc8df186	-0.017327081
26	0x3cf0c34a	0.029389996
27	0x3c40152d	0.011723799
28	0xbc956ac9	-0.018239396
29	0xbd22aed5	-0.039717514
30	0x3d16f69b	0.036856275
31	0x3c3407b6	0.010988167
32	0xbdc332fe	-0.0953121
33	0x3c3b44de	0.011429993
34	0xbc2601d5	-0.010132273
35	0x3d24cb05	0.040232677
36	0xbd1f587e	-0.038902752
37	0xbd8d088e	-0.06886397
38	0xbcadfed3	-0.021239674
39	0xbb5a17d5	-0.0033278365
40	0x3ba60804	0.0050668735
41	0x3df2828b	0.11841305
42	0xbcaed772	-0.021342967
43	0xbdfde86f	-0.12397849
44	0x3d0ea697	0.03482684
45	0xbd1bd3cf	-0.038043793
46	0x3c72809e	0.014801173
47	0xbc98246f	-0.01857206
48	0xbcd5f10d	-0.026115919
49	0x3b98037d	0.0046390877
50	0xbd646023	-0.055755746
51	0x3bd254ad	0.0064187855
52	0xbdb3bf2d	-0.08776698
53	0xbc7958e8	-0.015218951
54	0x3d35abb3	0.0443532
55	0xbd20e183	-0.039277565
56	0xbc872544	-0.016497262
57	0x3cfad5e7	0.030619575
58	0xbc59066c	-0.01324616
59	0xbdc88e4f	-0.09792768
60	0xbb337d4b	-0.0027387913
61	0x3c7f4aab	0.015581767
62	0xbdb39f3f	-0.08770608
63	0xbd42a45b	-0.047520023
64	0xbc87a76f	-0.01655933
65	0x3d307d48	0.043088228
66	0x3d750bc4	0.059825674
67	0xbdc96b69	-0.0983494
68	0xbc1d64d8	-0.009606563
69	0x3dc8fadf	0.09813475
70	0xbca4aa5a	-0.020100761
71	0xbda71235	-0.081577696
72	0xbd7bdc50	-0.061489403
73	0x3c92df8a	0.017928857
74	0x3d051d8a	0.032498874
75	0xbda0f0a5	-0.07858399
76	0xbd0f9b55	-0.035060246
77	0xbd1ff7f0	-0.03905481
78	0xbb2c4611	-0.002628688
79	0xbbc465f6	-0.0059936
80	0x3db003b4	0.08594456
81	0x3cf3527a	0.029702414
82	0xbcea46ed	-0.028598273
83	0xbb8b18d5	-0.0042449036
84	0xbdacf79c	-0.08445665
85	0xbdcdf24f	-0.10055982
86	0x3d8d1057	0.06887882
87	0xbc5116dc	-0.012761798
88	0xbdead097	-0.114655666
89	0xbd138b4c	-0.036021516
90	0xbca1eb09	-0.019765394
91	0xbd8bb2b9	-0.06821198
92	0xbcd80202	-0.026368145
93	0x3d65b4aa	0.056080498
94	0x3d4850a5	0.048905034
95	0xbd983787	-0.07432466
96	0xbdb1393e	-0.08653496
97	0xbd80aea6	-0.062833115
98	0xbd293224	-0.041307583
99	0xbdf214d4	-0.11820379
100	0xbcf067d3	-0.029346382
101	0x3cb9f445	0.022699485
102	0x3d0b71e8	0.034044176
103	0xbd82e2fe	-0.063909516
104	0xbdcad863	-0.09904554
105	0x3db62edb	0.08895656
106	0x3dc21472	0.09476556
107	0x3d429b3d	0.047511328
108	0x3dbe0462	0.0927818
109	0x3dcf4b16	0.101217434
110	0x3dd60188	0.10449511
111	0x3d8fe905	0.07026867
112	0xbda638cb	-0.08116301
113	0xbcf3cd5c	-0.029761009
114	0xbd9aede4	-0.07564905
115	0x3d19ae83	0.037519943
116	0x3d2a960e	0.04164701
117	0x3d477371	0.048694078
118	0xbc343bc5	-0.011000578
119	0x3d62ba7f	0.055353638
120	0xbcf81c51	-0.03028694
121	0xbd54c97d	-0.051949967
122	0x3de54120	0.11194062
123	0x3b23ce12	0.0024994654
124	0xbdb297c2	-0.08720352
125	0x3dab10a5	0.08352784
126	0xbd8e0cbb	-0.06936022
127	0x3e029ae5	0.127544
128	0xbd227bb1	-0.039668743
129	0x3cea9ac4	0.028638251
130	0xbd60d4e7	-0.05489054
131	0xbd99ccfa	-0.07509799
132	0xbc55c385	-0.013047104
133	0x3d3ca06d	0.04605143
134	0x3d1f0a86	0.038828395
135	0x3d240a0c	0.040048644
136	0xbdbb5e17	-0.091488056
137	0xbb5f6cdc	-0.0034091985
138	0x3d71f256	0.059069
139	0x3d453deb	0.048154753
140	0xbdaf65bf	-0.085643284
141	0x3deee9d9	0.11665697
142	0xbd03425d	-0.03204571
143	0xbd912494	-0.07087055
144	0xbddb0b89	-0.106955595
145	0x3db92938	0.09041065
146	0x3ddbc029	0.10730011
147	0x3d70c16e	0.05877822
148	0x3d12aafb	0.03580759
149	0xbc890da7	-0.016730143
150	0xbc2759bd	-0.010214266
151	0xbc351011	-0.011051194
152	0x3ba9e4b8	0.005184736
153	0xbcade0d0	-0.021225363
154	0xbdd5dd88	-0.10442644
155	0x3d895032	0.06704749
156	0xbd9d2e43	-0.07674839
157	0xbd21754e	-0.03941851
158	0x3d85ddf0	0.06536472
159	0xbd4e5f6c	-0.05038397
160	0x3d80b16a	0.06283839
161	0xbdadfdca	-0.08495672
162	0xbd68a736	-0.05680009
163	0x3d9cbacd	0.07652817
164	0xbdadbfcd	-0.08483849
165	0x3b05eb51	0.002043445
166	0xbd6630d9	-0.05619893
167	0x3e5f72c8	0.2182113
168	0x3c78806d	0.015167338
169	0x3db33c52	0.087517396
170	0xbcbcb5de	-0.02303594
171	0x3dc262da	0.09491511
172	0x3c739d3c	0.014869031
173	0xbd1e4886	-0.038643382
174	0xbcd4857a	-0.025942553
175	0x3d69583c	0.056968912
176	0xbc503817	-0.012708685
177	0xbbb63922	-0.00556101
178	0x3b4cef54	0.003127058
179	0x3ce18d8e	0.027533319
180	0xbd3931d7	-0.045213547
181	0xbd0f5a27	-0.034998085
182	0xbc9a47df	-0.018833099
183	0x3cb08a92	0.02155045
184	0xbdab5342	-0.083654895
185	0xbda7b8d1	-0.08189548
186	0xbda8010d	-0.082033254
187	0xbd579192	-0.05262906
188	0x3d342df4	0.043989137
189	0x3c955abd	0.018231744
190	0x3e63e84a	0.2225658
191	0xbcd5a519	-0.026079701
192	0xbd77f742	-0.060538538
193	0x3bf42023	0.00745012
194	0x3df838da	0.121202186
195	0x3dad4eab	0.0846227
196	0xbc98c182	-0.01864696
197	0x3d248c90	0.040173113
198	0x3d499388	0.049212962
199	0xbcaff80e	-0.021480586
200	0x3d98f07a	0.07467742
201	0x3cda49ce	0.026646521
202	0x3d5d01af	0.053956684
203	0x3d35b167	0.044358637
204	0x3c56b1f6	0.013103953
205	0x3d4cdb5f	0.050013896
206	0xbc790e05	-0.015201096
207	0x3cad9ed2	0.021193895
208	0xbd464c98	-0.04841289
209	0xbc91b763	-0.01778764
210	0x3cc853a2	0.024453942
211	0xbcfc3dc9	-0.03079118
212	0xbdcf33e1	-0.10117317
213	0xbcdacddc	-0.02670949
214	0x3d47f417	0.048816767
215	0x3c833952	0.016018543
216	0x3db0c0ae	0.08630501
217	0x3bf013c0	0.007326573
218	0x3c3cd25a	0.011524761
219	0x3d0d4859	0.034492824
220	0xbd8cb281	-0.068699844
221	0x3d4b3f73	0.049621057
222	0xbd3ff35c	-0.046862945
223	0xbd559d3c	-0.052151904
224	0xbd77ba85	-0.060480613
225	0x3d8e5adb	0.06950923
226	0xbdc6a232	-0.09698905
227	0xbd17856c	-0.036992475
228	0xbdbd24ae	-0.09235512
229	0x3d406054	0.046966866
230	0xbd893fb1	-0.06701601
231	0xbdc24670	-0.09486091
232	0x3b54247d	0.0032370382
233	0xbda44118	-0.08020228
234	0x3daff6ca	0.08591993
235	0xbdac539c	-0.08414385
236	0x3dad17e7	0.08451825
237	0xbd456d18	-0.048199743
238	0xbd10e650	-0.035375893
239	0xbd8bd9c4	-0.06828645
240	0xbd873264	-0.06601408
241	0xbd24a165	-0.04019298
242	0x3cf266d8	0.029590055
243	0xbd630058	-0.05542025
244	0xbd92c404	-0.07166293
245	0x3d7f2825	0.062294144
246	0x3da9abf8	0.082847536
247	0x3ca3d406	0.019998562
248	0x3cc11be5	0.023572871
249	0xbcfaa532	-0.03059635
250	0xbd2383d4	-0.039920643
251	0x392c4d32	0.00016431956
252	0x3d1ec9cb	0.038766664
253	0x3d1ac54c	0.037785813
254	0x3d3fcadb	0.046824317
255	0xbde65405	-0.11246494

lstm.bias_hh_l0 f4 [400]
0	0x3d4176b1	0.047232334
1	0x3d9e28cc	0.07722625
2	0xbd8de26c	-0.06927952
3	0x3d381e80	0.044950962
4	0xbda5baf3	-0.08092298
5	0xbcf8e4cb	-0.030382534
6	0x3d9684d5	0.073495544
7	0xbdcf50f7	-0.10122865
8	0x3db07f88	0.08618075
9	0x3d318b7d	0.043345917
10	0x3d7ae638	0.06125471
11	0xbdb303fd	-0.08740995
12	0x3da3ae0e	0.07992183
13	0x3d5ed1f2	0.05439944
14	0xbda9bea3	-0.08288314
15	0xbd709d88	-0.058743984
16	0x3df81cd9	0.12114877
17	0xbc55cf9c	-0.013049986
18	0xbc3c5c19	-0.011496567
19	0xbd962013	-0.073303364
20	0xbdd65a9e	-0.104665026
21	0x3da5445a	0.08069678
22	0x3d863caa	0.065545395
23	0xbddb5e3a	-0.10711332
24	0xbbdfd5bc	-0.006830899
25	0xbd26a530	-0.04068488
26	0x3d881446	0.06644492
27	0x3d58dc87	0.052944686
28	0x3d8b1296	0.06790654
29	0xbcb8b0c9	-0.022545235
30	0xbda8d65c	-0.08244011
31	0xbdfc9fcd	-0.12335167
32	0xbdde8f17	-0.10867136
33	0x3ca1b8ce	0.019741442
34	0xbd8de8c4	-0.06929162
35	0x3c72ab8b	0.014811407
36	0xbd50bd5b	-0.050961833
37	0x3d374460	0.04474294
38	0x3d077bd7	0.033077087
39	0x3baf21a0	0.0053445846
40	0x3d80dc50	0.06292021
41	0xbd892456	-0.06696384
42	0xbcf97656	-0.030451935
43	0xbe152951	-0.14566542
44	0xbde13d77	-0.109980516
45	0xbbadff7f	-0.0053099985
46	0x3db70d78	0.08938116
47	0xbd9b5168	-0.075838864
48	0xbdddb974	-0.10826388
49	0xbd9170b2	-0.07101573
50	0xbdb61fe8	-0.088928044
51	0xbdc3882d	-0.09547458
52	0x3d47d6b3	0.048788738
53	0x3d255ebe	0.040373556
54	0xbbd70136	-0.0065614237
55	0x3cb0607e	0.021530386
56	0x3b99eae7	0.004697192
57	0xbd807fdb	-0.062743865
58	0xbdbf1201	-0.09329606
59	0x3c2d0b75	0.010561814
60	0xbd841766	-0.064497754
61	0xbd871223	-0.06595256
62	0x3d686674	0.056738332
63	0xbcd8a0c4	-0.026443847
64	0xbd08964b	-0.033346456
65	0x3d669e01	0.056303028
66	0x3cdb3f71	0.02676365
67	0xbd6d341f	-0.057911035
68	0xbdba238f	-0.090888135
69	0x3db621e0	0.0889318
70	0x3d87f5f2	0.06638707
71	0xbc6dab84	-0.014506225
72	0xbce4076b	-0.027835568
73	0x3d41c5b6	0.047307692
74	0xbde9ebe9	-0.114219494
75	0x3d254f90	0.04035908
76	0x3ca68095	0.020324985
77	0xbd44d974	-0.048058942
78	0x3d543710	0.051810324
79	0xbdbdc376	-0.09265797
80	0xbd9aca43	-0.075581096
81	0x3d9aa966	0.075518414
82	0x3c81949f	0.015817938
83	0xbd9a0164	-0.075197965
84	0xbda8d9ee	-0.08244692
85	0x3d0c8640	0.03430772
86	0xbd931216	-0.07181184
87	0xbd4dcf99	-0.05024681
88	0xbd947be9	-0.072501965
89	0xbd929673	-0.07157602
90	0xbb7b0138	-0.0038300287
91	0xbd499e3a	-0.049223162
92	0x3cb5d4e2	0.022196237
93	0x3ca42a7d	0.020039791
94	0x3cb2fef3	0.021850085
95	0xba870fba	-0.001030437
96	0xbd90c683	-0.07069113
97	0x3c4327e3	0.011911365
98	0xbdf47694	-0.119366795
99	0x3cae7e89	0.021300571
100	0xbd6d78a0	-0.057976365
101	0x3da80816	0.08204667
102	0xbd301b3d	-0.042994726
103	0xbd72f16e	-0.059312277
104	0xbd8b828f	-0.068120115
105	0x3cd8399c	0.026394658
106	0xbd82cf98	-0.063872516
107	0x3c45e5d7	0.012078724
108	0xbd9c5ab1	-0.076344855
109	0xbce17635	-0.027522186
110	0x3d09697a	0.033547856
111	0x3bfeb8f9	0.0077735153
112	0xbd4faf73	-0.05070443
113	0x3d86982c	0.06571993
114	0xbd2ca84f	-0.0421527
115	0x3d57381b	0.05254374
116	0x3d96fe11	0.07372678
117	0xbd0ba42a	-0.034092106
118	0x3da00703	0.078138374
119	0x3d0a50bc	0.0337684
120	0xbd8d4837	-0.068985395
121	0x3d9ab9d8	0.07554978
122	0xbd0361da	-0.03207574
123	0x3dbbb6f7	0.09165757
124	0xbdb3078a	-0.08741672
125	0x3ced8e55	0.028998533
126	0xbd990bf0	-0.0747298
127	0x3da4bfee	0.0804442
128	0x3b10dd15	0.0022104431
129	0x3d4388f2	0.047738023
130	0x3d8ba14c	0.06817874
131	0xbd955561	-0.07291675
132	0xbd1e61b5	-0.0386674
133	0xbd04de7a	-0.032438733
134	0x3d3fd0d2	0.046830006
135	0xbcc4e1fb	-0.024033537
136	0x3d1aa08d	0.03775077
137	0x3dbd7cda	0.09252329
138	0x3dc6b130	0.097017646
139	0x3c1aec5a	0.009455765
140	0xbc8284bb	-0.015932431
141	0x3de250a7	0.110505395
142	0xbbdc9804	-0.006731989
143	0xbcafb7a1	-0.021449866
144	0xbde0f3c4	-0.109839946
145	0x3dc1bf11	0.09460271
146	0x3a199543	0.00058587285
147	0x3d8e201b	0.069397174
148	0x3d3397e4	0.043846026
149	0xbdc7717c	-0.09738442
150	0x3d2adacc	0.041712567
151	0xbd1f60bb	-0.03891061
152	0x3d878c18	0.06618518
153	0x3d977acf	0.07396471
154	0xbddc10ba	-0.10745378
155	0xbd931a45	-0.07182745
156	0x38f5ec4c	0.00011726524
157	0xbdb0f2a8	-0.08640033
158	0x3d0c500d	0.03425603
159	0xbde11ce4	-0.109918386
160	0xbdca2e2f	-0.0987209
161	0xbc745276	-0.014912238
162	0x3d8e778d	0.06956396
163	0xbda42748	-0.08015305
164	0xbcb57d49	-0.022154467
165	0xbc188da7	-0.009311116
166	0xbdc8e1f0	-0.09808719
167	0x3e3bdc31	0.18345715
168	0x3db4e983	0.08833601
169	0xbd7f4755	-0.062323887
170	0x3da3fde8	0.08007413
171	0xbd68a4b6	-0.056797706
172	0xbd3e4294	-0.046450213
173	0xbd1ea1c1	-0.03872848
174	0x3cdda6df	0.02705711
175	0x3d9898c9	0.074510165
176	0xbd8095bf	-0.06278562
177	0x3c421795	0.011846443
178	0x3dc1a141	0.09454585
179	0x3d13f974	0.03612657
180	0x3dc19e7c	0.094540566
181	0xbda55ecf	-0.08074724
182	0xbdba047d	-0.09082887
183	0x3d41442a	0.047184147
184	0x3d1abe8e	0.037779383
185	0xbdd037ba	-0.10166879
186	0xbcbc288c	-0.022968553
187	0x3c0f12d5	0.008732517
188	0xbd9cf7c0	-0.07664442
189	0x3d97b5df	0.07407736
190	0x3e05881e	0.13040206
191	0x3d6f44ef	0.05841535
192	0xbca542e6	-0.020173501
193	0x3d707e4b	0.058714192
194	0x3db0925b	0.08621665
195	0x3d3b1a2b	0.045679253
196	0x3d8abbf7	0.06774133
197	0xbb016f63	-0.001975023
198	0xbdbb3a24	-0.09141949
199	0x3ce085f0	0.027407616
200	0x3cddba31	0.027066322
201	0x3db00059	0.08593816
202	0xbdd05f9f	-0.10174488
203	0x3be49ae4	0.006976472
204	0xbda0a3f7	-0.07843774
205	0x3d873bd5	0.06603209
206	0xbd1ab692	-0.03777177
207	0xbc927d42	-0.017881993
208	0x3dd86f42	0.10568096
209	0x3d4dc398	0.05023536
210	0xbd8497d1	-0.06474269
211	0x3cfe2705	0.031024465
212	0xbc053810	-0.008131042
213	0xbd8ee15a	-0.06976576
214	0x3d94e6b8	0.072705686
215	0xbc96a1fb	-0.018387785
216	0xbd72402b	-0.059143227
217	0x3c85f9aa	0.0163544
218	0x3dcffbcc	0.10155448
219	0x3dd7de03	0.10540392
220	0x3c6b4b0e	0.014361156
221	0x3d8f9a2c	0.07011828
222	0xbb6d0077	-0.0036163607
223	0xbd6c3edb	-0.05767713
224	0x3dd1330e	0.10214816
225	0xbc5cf1af	-0.013485356
226	0xbd10d115	-0.035355646
227	0xbd6de1a6	-0.058076523
228	0x3d8c37fc	0.06846616
229	0x3de14f9d	0.11001513
230	0xbd9d61d3	-0.07684674
231	0x3bfb8a8e	0.007676429
232	0x3df551e8	0.11978513
233	0x3ce9d772	0.028545115
234	0x3cd1553f	0.025553344
235	0x3ddb9690	0.10722077
236	0xbd610a88	-0.054941684
237	0x3d13d5bb	0.0360925
238	0xbdc15fad	-0.09442077
239	0xbd920e69	-0.07131655
240	0xbc92292f	-0.017841903
241	0x3d27e6cb	0.040991586
242	0x3df62698	0.1201908
243	0xbc9ac9a7	-0.018894983
244	0xbd3bacc9	-0.045819078
245	0xbdabfcdf	-0.08397841
246	0xbc91d2cf	-0.017800717
247	0xbd7b6ec7	-0.061384942
248	0x3d89c796	0.06727521
249	0xbd8e3da6	-0.06945352
250	0xbd79b672	-0.06096501
251	0x3da081ab	0.07837232
252	0xbda48f0c	-0.080350965
253	0xbd786121	-0.060639504
254	0xbcbd388d	-0.023098255
255	0x3d85e01e	0.065368876

post_lstm_layers.0.weight f4 [100, 100]
0	0xbd7d77ac	-0.061881706
1	0xbd92901a	-0.071563914
2	0xbdb0552c	-0.08609995
3	0xbd6b2904	-0.057412162
4	0x3c006010	0.007835403
5	0x3d1bf6a5	0.038077015
6	0x3d8fa6ff	0.07014274
7	0x3d95e5e5	0.073192395
8	0x3cfcc4b6	0.030855518
9	0xbdbd4a6c	-0.092427105
10	0x3dbe574f	0.092939965
11	0xba901e00	-0.0010995269
12	0x3c28b2bb	0.010296519
13	0xbd8b0f26	-0.06789999
14	0xbd893e22	-0.06701304
15	0xbc98a14a	-0.018631596
16	0x3ced4186	0.028961908
17	0x3d95fc33	0.07323494
18	0xbd149fe4	-0.036285296
19	0x3d0a23b4	0.033725455
20	0x3b019a11	0.0019775669
21	0x3d81cf8e	0.06338416
22	0x3d85ffe6	0.065429494
23	0x3d05d58d	0.03267436
24	0x3d4a120d	0.04933362
25	0x3db8b69c	0.09019205
26	0x3d8d1998	0.06889647
27	0x3d8a77c3	0.06761124
28	0xbc9ac7da	-0.018894125
29	0xbce3b981	-0.027798416
30	0xbd43c9ec	-0.04779999
31	0x3c416f17	0.011806271
32	0xbd0bd3a7	-0.034137394
33	0x3d2211f8	0.039567918
34	0xbc53563f	-0.012898981
35	0xbc57dc52	-0.013175087
36	0xbd8e3232	-0.06943168
37	0xbc727958	-0.014799438
38	0xbd6ba75f	-0.057532664
39	0x3c957309	0.01824333
40	0xbc7620f6	-0.015022507
41	0x3da3824e	0.07983838
42	0xbd443016	-0.04789742
43	0xbce23b34	-0.02761612
44	0x3b288251	0.002571244
45	0x3dae4cb4	0.08510724
46	0xbd2451a4	-0.04011692
47	0xbdcb09f1	-0.099140055
48	0xbd973a64	-0.07384184
49	0xbd4c9963	-0.04995097
50	0x3cc8da59	0.024518179
51	0xbdd014e0	-0.101602316
52	0x3b73c9f4	0.003719923
53	0xbc245a06	-0.010031229
54	0x3d1f2a2f	0.03885859
55	0xbdace25c	-0.08441612
56	0xbc30849b	-0.010773803
57	0xbd15d61e	-0.03658115
58	0xbd76b81f	-0.060234185
59	0x3d42544b	0.04744367
60	0xbd857ac0	-0.06517553
61	0xbd01f484	-0.03172733
62	0xbdb9843f	-0.09058427
63	0x3cdd4b24	0.027013369
64	0x3cea973d	0.02863657
65	0x3dde4cfe	0.10854529
66	0x3d05fb9e	0.032710664
67	0xbcfdb6a9	-0.030970888
68	0xbd8f039b	-0.069831096
69	0xbc1503e6	-0.009095168
70	0xbcb7fb14	-0.02245859
71	0xbc797cf5	-0.015227546
72	0xbcdef863	-0.02721805
73	0x3d3385da	0.043828823
74	0xbcf0d274	-0.029397227
75	0xbd91eae3	-0.07124879
76	0x3d147bad	0.03625076
77	0xbd52d96b	-0.051476877
78	0x3d97fdc9	0.074214526
79	0x3d613ce2	0.054989703
80	0x3cedc8ad	0.029026354
81	0xbd654dc4	-0.055982366
82	0x3dc9fa08	0.09862143
83	0xbd4b048d	-0.049564887
84	0x3e05da6f	0.13071607
85	0xbcb9723d	-0.02263748
86	0xbdb4302c	-0.087982506
87	0x3d93787e	0.072007164
88	0x3d9d38f4	0.076768786
89	0x3d84d360	0.06485629
90	0x3d222bf2	0.03959269
91	0xbd111020	-0.03541577
92	0xbba4b9d8	-0.005027037
93	0x3d927eab	0.07153066
94	0xbcbf1cf9	-0.023329245
95	0xbd051893	-0.03249414
96	0xbd9d3ce3	-0.07677629
97	0xbc0d79bc	-0.008634981
98	0xbe141bc4	-0.14463717
99	0xbd7a3bfa	-0.061092354
100	0xbd5566e4	-0.052100077
101	0xbd57f4c2	-0.052723654
102	0xbdb0e29c	-0.08636972
103	0x3b8c32d9	0.0042785225
104	0x3d1de440	0.038547754
105	0xbdcffd85	-0.10155777
106	0x3dee498c	0.11635122
107	0x3d9d9400	0.076942444
108	0x3dc4a1dc	0.09601185
109	0x3cfe8970	0.031071395
110	0x3d87b41e	0.066261515
111	0x3d50b8d8	0.05095753
112	0xbd32c9b6	-0.043649398
113	0x3b455fb4	0.0030116858
114	0xbd52f198	-0.051499933
115	0xbd3fc2ef	-0.046816763
116	0x3d85c235	0.06531183
117	0x3d957449	0.0729757
118	0x3d99c172	0.075076
119	0xbd2a752e	-0.041615658
120	0x3bd78bdd	0.0065779523
121	0x3cdf4a7e	0.0272572
122	0xbc8541cc	-0.016266726
123	0x3cbf6037	0.023361309
124	0x3d8b5655	0.06803576
125	0x3d0bd6f2	0.034140535
126	0xbd46c079	-0.0485234
127	0xbbe214dd	-0.0068994598
128	0xbbd8fbdb	-0.0066218204
129	0x3d3295da	0.04359994
130	0xbc81b232	-0.01583204
131	0x3cce8e45	0.025214324
132	0xbd4a70e6	-0.049424075
133	0xbd77471a	-0.060370542
134	0xbd4caeb4	-0.049971297
135	0xbca3d237	-0.0199977
136	0xbd7e8ed6	-0.062147938
137	0x3c4cfa6b	0.012510876
138	0xbbfae367	-0.007656503
139	0x3cc67e5c	0.024230175
140	0x3d319014	0.043350294
141	0xbd9a7a0f	-0.07542812
142	0xbcbe5260	-0.023232639
143	0xbbe176a8	-0.0068806
144	0x3c0b013b	0.00848418
145	0x3d061de4	0.03274335
146	0x3ca9d2a9	0.020730333
147	0xbd786edf	-0.06065261
148	0xbcc631e5	-0.024193713
149	0x3d63b902	0.05559636
150	0x3d3c1f5c	0.045928344
151	0xbd7ea869	-0.062172327
152	0x3c80d107	0.015724672
153	0x3c4d5abc	0.01253384
154	0x3dd284b1	0.10279215
155	0x3d3d925c	0.046282157
156	0xbd5ba650	-0.053625405
157	0x3b9a7e19	0.004714739
158	0x3d98115a	0.074251845
159	0xbd155be2	-0.03646458
160	0x3d8e3e99	0.06945533
161	0xbd3902b5	-0.045168597
162	0xbd3dd3eb	-0.04634468
163	0x3d01ad79	0.031659577
164	0x3d2971dc	0.04136835
165	0x3d954f69	0.07290537
166	0x3c91b8bb	0.017788282
167	0xbd1aa7e7	-0.03775778
168	0x3d8cdaaf	0.06877648
169	0xbda000a6	-0.07812624
170	0xbd9cbd2e	-0.07653271
171	0xbce91e95	-0.028456965
172	0xbd86cb32	-0.06581725
173	0x3dbc627a	0.091984704
174	0x3d2906ca	0.04126624
175	0xbd8c8c48	-0.06862694
176	0xbdb2255d	-0.08698533
177	0x3c6b1a84	0.014349584
178	0x3d9e9715	0.0774366
179	0x3d9e84f4	0.077402025
180	0x3c99c09d	0.018768603
181	0x3c2d8ffa	0.010593409
182	0x3dc91bdd	0.098197676
183	0xbcd9c81b	-0.026584676
184	0x3e310106	0.17285547
185	0xbcb36c60	-0.021902263
186	0x3a40e220	0.0007357914
187	0x3deca72b	0.11555322
188	0x3db7c5fb	0.08973309
189	0xbc4f0d85	-0.012637501
190	0x3d8ef4c7	0.06980281
191	0x3ccbb6bd	0.02486741
192	0xbbb0f5c7	-0.0054003927
193	0xbd7fd9ae	-0.062463455
194	0x3d5151ce	0.051103406
195	0xbd078f8e	-0.03309589
196	0x3d2c4335	0.04205628
197	0xbd707a08	-0.058710128
198	0xbdb2270e	-0.08698855
199	0xbd3356ff	-0.043784138
200	0xbbec7515	-0.0072161057
201	0xbd043148	-0.03227356
202	0x3dc2ffe5	0.09521464
203	0x3b1db201	0.0024062397
204	0x3c05c912	0.008165615
205	0x3c88622d	0.016648376
206	0xbdbfb69a	-0.09361
207	0x3c55e223	0.0130544035
208	0x3cdf8ba7	0.027288271
209	0xbd437686	-0.047720455
210	0x3d7b187c	0.061302647
211	0x3c399ac1	0.0113284
212	0xbd51eb25	-0.051249642
213	0x3d917439	0.07102246
214	0x3c3c2e2d	0.011485619
215	0x3db21e2d	0.08697162
216	0x3d37868a	0.04480604
217	0xbcd6e6dc	-0.02623313
218	0xbc284372	-0.010269986
219	0xbd04d036	-0.032425128
220	0xbd1299fe	-0.03579139
221	0x3da0584c	0.07829341
222	0x3c20adeb	0.00980709
223	0xbd15b319	-0.036547754
224	0x3dab191c	0.083543986
225	0xbd03f271	-0.032213632
226	0x3d9826a3	0.07429244
227	0x3d56c767	0.05243626
228	0xbc837103	-0.0160451
229	0x3dbf6731	0.09345854
230	0x3c1ab9c7	0.009443707
231	0xbcd2bc74	-0.025724627
232	0x3d1ed83c	0.038780436
233	0xbcbd4364	-0.023103423
234	0x3dad8af1	0.084737666
235	0xbdc18d33	-0.0945076
236	0x3da4f79a	0.08055039
237	0xbda2b4ac	-0.07944617
238	0x3cd49e79	0.025954472
239	0x3d5d8e8d	0.054091025
240	0x3d949176	0.07254307
241	0x3d791bf1	0.060817663
242	0x38bd24d5	9.019083e-05
243	0xbdb26b03	-0.08711817
244	0xbc621e21	-0.013801129
245	0xbdee7069	-0.11642534
246	0x3c7bc505	0.015366797
247	0x3bcf05d7	0.006317835
248	0xbc4076a2	-0.011747034
249	0x3c3efc18	0.0116567835
250	0x3d523c1c	0.051326856
251	0x3b5f950f	0.0034115945
252	0x3c8c0af3	0.017095065
253	0xbd012eaa	-0.031538643
254	0x3cc7ba91	0.024380954
255	0xbd7ba382	-0.06143523
