ml/models/best_model_tbnn_w_hparm.pth (torch, 984840 bytes, 22 tensors)

linear.weight f4 [20, 10]
0	0x3e7d1ff7	0.24719225
1	0x3e839c8d	0.25705376
2	0xbe167ad1	-0.14695288
3	0x3e79ef9b	0.24407808
4	0xbe239fc8	-0.1597892
5	0xbcdaa702	-0.026690964
6	0xbbdc78e2	-0.0067282775
7	0x3e75d241	0.24005987
8	0x3e9b41dc	0.30323684
9	0xbe9fccbf	-0.31210896
10	0x3ecda263	0.40162954
11	0xbd8a65e7	-0.067577176
12	0x3e7b338c	0.24531382
13	0x3c0ca717	0.008584759
14	0x3e1f0c37	0.15532003
15	0xbd2b409e	-0.04180967
16	0x3e634ed7	0.22198044
17	0xbc579202	-0.01315737
18	0xbd4734c3	-0.048634302
19	0x3defd1e6	0.11709957
20	0x3c1079c7	0.0088180965
21	0xbe443243	-0.19159798
22	0xbdb41047	-0.08792167
23	0x3e1d3b54	0.15354663
24	0xbe95d7d0	-0.29266214
25	0xbe415b10	-0.18882394
26	0xbdd941ad	-0.1060823
27	0xbdafe739	-0.08589024
28	0x3e5ac1d7	0.21363007
29	0xbea6b363	-0.32558736
30	0x3e8337a0	0.25628376
31	0xbe7510b4	-0.23932153
32	0x3e570dbc	0.21001333
33	0x3e384cd6	0.1799806
34	0xbe5952a7	-0.21222936
35	0x3dafd9fe	0.085865006
36	0x3d4a511c	0.04939376
37	0x3ee83244	0.4535085
38	0x3cef6223	0.0292216
39	0xbe87c5ea	-0.26518184
40	0x3e04d8f4	0.12973386
41	0xbe05a7e8	-0.13052332
42	0x3dccaaa4	0.099934846
43	0x3e683e20	0.22679949
44	0x3e1337f5	0.14376815
45	0xbe3587f3	-0.17727642
46	0x3e3db48c	0.18525904
47	0x3e902706	0.28154773
48	0x3e364afe	0.17802045
49	0xbe9cbfda	-0.3061512
50	0xbec0f737	-0.3768861
51	0xbd6ee4dc	-0.058323726
52	0xbe8d0f22	-0.27550608
53	0x3e8cbfff	0.2749023
54	0x3e43158a	0.19051185
55	0x3e6bf213	0.23041563
56	0x3dbb9e7d	0.091610886
57	0x3d38699e	0.0450226
58	0x3e921c49	0.28537205
59	0xbe36af96	-0.17840418
60	0x3e0e5df9	0.13903035
61	0xbeab7f3f	-0.3349552
62	0x3c1b88e2	0.009493085
63	0xbdf55db8	-0.11980766
64	0x3d954d48	0.07290131
65	0xbdb81301	-0.08988
66	0x3e6827ca	0.22671428
67	0xbd30d4ba	-0.04317162
68	0x3d3b0cca	0.045666493
69	0xbdb146c5	-0.08656076
70	0x3e74e88b	0.23916833
71	0x3e1a4215	0.15064271
72	0x3e96cc3c	0.29452693
73	0xbed23399	-0.4105499
74	0xbea22442	-0.31668288
75	0xbe80393c	-0.25043666
76	0xbdade2f7	-0.08490556
77	0x3d9c1f37	0.07623141
78	0x3d654151	0.055970494
79	0x3e573799	0.21017303
80	0xbe34f70b	-0.17672364
81	0xbe4f0330	-0.2021606
82	0x3cb35508	0.021891132
83	0xbe12e50a	-0.14345184
84	0x3e2fd22b	0.17170016
85	0xbdc31acb	-0.09526595
86	0x3dfc2431	0.123115905
87	0x3dd97840	0.10618639
88	0xbe359dd0	-0.17735982
89	0xbdb48f07	-0.08816343
90	0x3e50e8e7	0.20401345
91	0xbe5f032b	-0.21778552
92	0x3d86b791	0.06577981
93	0x3eac4dc1	0.33653072
94	0xbe72f392	-0.23725727
95	0xbe3500c5	-0.17676075
96	0x3e7d1711	0.2471583
97	0x3dd7399f	0.10509037
98	0x3d963ff6	0.07336418
99	0xbeb42945	-0.35187736
100	0xbe782d10	-0.2423594
101	0x3e0fa0af	0.1402614
102	0xbe0829b1	-0.13297154
103	0xbec1b319	-0.37831953
104	0x3d21c13e	0.03949093
105	0xbe3c5905	-0.18393333
106	0xbe2c64be	-0.16835305
107	0x3d9e0560	0.07715869
108	0xbeaf634b	-0.34255442
109	0xbe884b28	-0.2661984
110	0x3eb5cb8b	0.35506853
111	0x3caa1842	0.02076352
112	0x3c1d495c	0.00960001
113	0xbe8e811a	-0.27832872
114	0xbe75e398	-0.24012601
115	0xbe0cffbf	-0.13769434
116	0x3d692538	0.05692026
117	0xbe158000	-0.1459961
118	0xbb00881f	-0.0019612384
119	0xbe45e3bc	-0.19325155
120	0x3dab03ea	0.08350356
121	0xbe4d1b0d	-0.2002985
122	0x3c709461	0.014683814
123	0x3d1ae511	0.03781611
124	0xbe83acb4	-0.257177
125	0xbe65ffcb	-0.22460859
126	0xbdded900	-0.10881233
127	0xbe422661	-0.18959953
128	0x3eee96e8	0.46599507
129	0x3c82ea90	0.015980989
130	0x3eda1927	0.42597315
131	0xbd62c67f	-0.055365082
132	0xbe41c10d	-0.189213
133	0x3d87b135	0.066255964
134	0xbd026e8d	-0.03184371
135	0xbd8746d0	-0.06605303
136	0xbec1f61d	-0.37883082
137	0xbed8c659	-0.42338827
138	0x3e8693fd	0.2628478
139	0x3c4129e9	0.011789777
140	0x3d9faba9	0.077964135
141	0xbe5b8231	-0.21436383
142	0x3e5f91bf	0.21832941
143	0xbe7a0288	-0.24415028
144	0xbd64a3d3	-0.055820297
145	0x3d84c839	0.06483502
146	0x3e0955d5	0.13411649
147	0x3e2f3b37	0.17112432
148	0x3ea49683	0.3214608
149	0xbe7adc28	-0.24498045
150	0x3d92affa	0.07162471
151	0xbe0321a8	-0.12805808
152	0x3c0fde57	0.008781037
153	0xbe4017e7	-0.18759118
154	0x3e5f0416	0.21778902
155	0xbe9accdf	-0.3023443
156	0x3e442b92	0.19157246
157	0x3d0cd64e	0.034384064
158	0x3e021914	0.12704879
159	0xbeac5a57	-0.33662674
160	0x3e0b3bd6	0.13597044
161	0x3e6241d8	0.2209543
162	0x3e868d9e	0.2627992
163	0xbedcb548	-0.43107057
164	0x3ec6870b	0.38774905
165	0x3e5489e6	0.20755729
166	0xbc4aa0ec	-0.012367468
167	0x3e148ad6	0.14506087
168	0xbe254297	-0.16138683
169	0xbe6d008d	-0.23144741
170	0xbddd9abe	-0.1082053
171	0xbd891d93	-0.06695094
172	0x3e894977	0.26813862
173	0xbe50131a	-0.20319787
174	0x3dff54eb	0.12467369
175	0x3e4989b4	0.19681436
176	0xbeceb277	-0.40370533
177	0xbd81b002	-0.06332399
178	0x3e8ec15a	0.2788189
179	0xbe290d93	-0.16509084
180	0x3c0039f5	0.007826318
181	0x3e6a7966	0.22897872
182	0xbd195e00	-0.03744316
183	0xbdf65496	-0.12027852
184	0x3e85ea9a	0.2615555
185	0x3e867ea1	0.26268485
186	0x3dac7222	0.084202066
187	0x3d483725	0.048880715
188	0xbe2aabb2	-0.16667059
189	0x3dcbd565	0.09952811
190	0xbca8b2e2	-0.02059311
191	0xbe049d67	-0.12950669
192	0x3e13a15b	0.14417021
193	0x3e5ae101	0.21374895
194	0xbde821fb	-0.11334606
195	0xbe1c82df	-0.15284298
196	0x3b465e73	0.0030268698
197	0x3d4c636a	0.049899496
198	0x3d4eef30	0.050521076
199	0xbca5cd52	-0.020239506

linear.bias f4 [20]
0	0xbebb4747	-0.36577818
1	0xbda5149f	-0.08060574
2	0x3e801111	0.2501302
3	0xbd148b35	-0.03626557
4	0xbdf9d262	-0.121983305
5	0xbe13bb9f	-0.1442704
6	0xbdb20913	-0.08693137
7	0xbea96a7c	-0.33089054
8	0xbe8d8603	-0.27641305
9	0x3d85359c	0.06504366
10	0x3e141c07	0.14463817
11	0x3e17942d	0.14802618
12	0xbe4ca02b	-0.19982974
13	0xbde81cf4	-0.11333647
14	0xbd2c3554	-0.042043045
15	0x3e13f6f8	0.1444968
16	0xbb093b50	-0.0020939894
17	0x3d5350c0	0.05159068
18	0x3e483fab	0.19555537
19	0xbe656813	-0.22402982

hidden_layers.0.weight f4 [20, 20]
0	0xbdb16ebc	-0.08663699
1	0x3e2d5624	0.16927391
2	0xbdba01b5	-0.09082357
3	0xbc1722b6	-0.009224584
4	0xbe26ea42	-0.163003
5	0x3e4bc82c	0.19900578
6	0x3e484e49	0.19561113
7	0x3d99cbc8	0.07509571
8	0xbe01a3b8	-0.1266011
9	0xbe3f76fa	-0.1869773
10	0xbdc2b656	-0.09507434
11	0x3e376eed	0.17913409
12	0x3d7b693b	0.061379652
13	0x3dad1cef	0.08452784
14	0x3df37a63	0.11888578
15	0x3dbca50a	0.09211166
16	0x3d674951	0.056466404
17	0xbe143716	-0.14474139
18	0xbe0859af	-0.13315462
19	0xbe10a8b8	-0.14126861
20	0xbdf345b4	-0.11878529
21	0xbdb6b808	-0.0892182
22	0xbe26e43f	-0.16298006
23	0xbe313ca6	-0.17308292
24	0xbe5a822c	-0.21338719
25	0xbe746761	-0.23867561
26	0xbe16e221	-0.14734699
27	0x3d86d11b	0.065828525
28	0x3cad9817	0.021190686
29	0xbd3b9a6d	-0.04580157
30	0xbd9a07b0	-0.075209975
31	0xbdfdc90c	-0.12391862
32	0xbd97884e	-0.07399045
33	0xbe1538f7	-0.14572512
34	0xbe0c3885	-0.13693435
35	0xbe811213	-0.25209102
36	0x3d8b9f6b	0.06817516
37	0xbe5129a4	-0.20426041
38	0x3e938bfd	0.2881774
39	0x3dd06fc9	0.10177571
40	0x3e2d0194	0.16895133
41	0xbe1fda6b	-0.15610664
42	0x3de1ad2c	0.11019358
43	0xbd8a2ef0	-0.06747234
44	0x3df9e74d	0.1220232
45	0x3e89013f	0.26758763
46	0x3c921b51	0.017835291
47	0xbe02f3f4	-0.12788373
48	0xbb1a985c	-0.0023589348
49	0xbe36aeb2	-0.17840078
50	0x3dbb9c66	0.0916069
51	0xbe4e7491	-0.20161654
52	0x3d832e17	0.06405275
53	0x3e1e29c8	0.15445626
54	0x3e8292f7	0.2550275
55	0xbbe12092	-0.0068703378
56	0xbe65a761	-0.22427131
57	0xbcaf7fb2	-0.021423195
58	0x3e2eaf2c	0.1705901
59	0xbe82570f	-0.25457045
60	0x3db24efe	0.08706473
61	0xbe07382d	-0.13205023
62	0xbcd03559	-0.025416063
63	0xbe79bf17	-0.24389301
64	0xbe350ca5	-0.17680605
65	0x3c241748	0.010015316
66	0xbe9b2291	-0.3029981
67	0x3d4a10ba	0.049332358
68	0x3e7d2640	0.24721622
69	0xbe1a5f16	-0.15075335
70	0x3d90f57f	0.07078075
71	0xbe79da6a	-0.24399725
72	0xbeaa6afe	-0.33284754
73	0xbe42bc96	-0.19017252
74	0xbcc3c264	-0.023896404
75	0xbe7e1eec	-0.24816483
76	0xbe35a857	-0.17739998
77	0xbd7f09c3	-0.06226517
78	0x3d414a62	0.047190078
79	0xbd068fe5	-0.032852072
80	0x3db54ed1	0.08852924
81	0xbd80642c	-0.06269106
82	0xbd4618e2	-0.048363574
83	0xbdb3a11a	-0.08770962
84	0xbe3ba8b6	-0.18326077
85	0x3e816788	0.252743
86	0xbdb1dae7	-0.086843304
87	0x3bc71145	0.0060750567
88	0xbcf57c58	-0.029966518
89	0x3cd328e1	0.025776329
90	0x3f12bf4f	0.57323164
91	0x3d92ad65	0.07161979
92	0xbe2fc7ad	-0.17166014
93	0x3e107015	0.14105256
94	0x3e62fcb4	0.22166711
95	0x3d9ddbe9	0.0770796
96	0x3e22943d	0.15876861
97	0x3e8fa2bf	0.28053853
98	0x3d4b6f7f	0.049666878
99	0xbb7cd5c1	-0.0038579556
100	0xbb657625	-0.0035013047
101	0xbdeb69ab	-0.11494764
102	0x3e21959a	0.15779725
103	0xbce09704	-0.02741576
104	0xbe71a038	-0.23596275
105	0xbd0d80ae	-0.034546547
106	0xbe7ce030	-0.24694896
107	0xbebf9366	-0.37417144
108	0xbe322920	-0.173985
109	0xbe118a37	-0.14212881
110	0x3e7a458e	0.24440596
111	0xbe00b113	-0.12567548
112	0xbe6e7290	-0.2328589
113	0xbe0bfe61	-0.13671257
114	0xbdf2aa12	-0.118488446
115	0xbe4d39bf	-0.2004156
116	0xbd7cab1c	-0.06168662
117	0x3c640b44	0.013918702
118	0xbd6ce393	-0.05783422
119	0xbcd092a7	-0.025460554
120	0xbd7c8335	-0.061648566
121	0xbd861900	-0.06547737
122	0xbe1941ac	-0.14966458
123	0xbe8a531d	-0.27016535
124	0xbefe00c9	-0.49609974
125	0xbd6e4b60	-0.058177352
126	0x3e235683	0.1595097
127	0xbdb636da	-0.08897181
128	0xbd36684a	-0.04453305
129	0xbde3a8bb	-0.11116167
130	0x3e9d9357	0.30776474
131	0x3dfb4b39	0.12270207
132	0x3e635d89	0.2220365
133	0x3e79c485	0.24391373
134	0xbe511fe8	-0.20422328
135	0x3d802613	0.06257262
136	0x3e54e979	0.20792188
137	0x3dce1487	0.10062509
138	0x3bccebb3	0.0062536835
139	0x3ddec527	0.108774476
140	0xbdb20cab	-0.086938225
141	0xbdc03042	-0.093842044
142	0xbe8120b3	-0.2522026
143	0xbd4bf8c4	-0.04979779
144	0xbc34aca5	-0.01102749
145	0x3d5d63ef	0.054050382
146	0x39bd65dd	0.00036124783
147	0xbe75f86c	-0.24020547
148	0xbe00f6fa	-0.12594214
149	0xbe0c63dc	-0.13709968
150	0x3e98621e	0.29762357
151	0x3da2468d	0.07923613
152	0xbe4c4035	-0.19946368
153	0xbcdebcc8	-0.027189627
154	0xbe2fca9f	-0.17167138
155	0xbe1a4d2e	-0.15068504
156	0x3b91440f	0.004433162
157	0x3dd960cf	0.10614168
158	0x3e7f2783	0.24917416
159	0xbe11e48b	-0.14247338
160	0x3e77d86d	0.24203654
161	0xbe7893fa	-0.24275199
162	0x3e1613cb	0.14655988
163	0x3dc69867	0.09697037
164	0xbd0361a2	-0.03207553
165	0x3e6fbe24	0.23412377
166	0xbe46154d	-0.19344063
167	0xbe88f07c	-0.26745975
168	0x3ca72111	0.02040151
169	0x3d631ceb	0.0554475
170	0xbceec580	-0.02914691
171	0xbdf6de38	-0.120541036
172	0x3e3d04db	0.18458883
173	0x3e0b0557	0.13576256
174	0xbceb83f7	-0.02874945
175	0xbdc9a4c8	-0.09845883
176	0xbe957e43	-0.29197893
177	0xbd2b09e9	-0.041757498
178	0xbc6921f4	-0.014229286
179	0xbe19ff50	-0.150388
180	0xbe68b746	-0.22726163
181	0x3ddc7de9	0.10766203
182	0xbe005481	-0.12532236
183	0xbb021e5e	-0.0019854526
184	0xbd99bfb4	-0.075072676
185	0xbe8ede9e	-0.27904218
186	0xbe2fab54	-0.171552
187	0xbd64b99b	-0.05584107
188	0xbddd339d	-0.1080086
189	0x3c85e885	0.016346226
190	0xbe6f7d1c	-0.23387569
191	0xbd8769bb	-0.06611963
192	0x3e07f33e	0.13276383
193	0x3e243b08	0.16038144
194	0x3da96adc	0.08272335
195	0xbe12e23d	-0.14344116
196	0xbd96784a	-0.07347162
197	0x3e18b243	0.14911751
198	0xbde40ccc	-0.11135253
199	0xbd129156	-0.035783134
200	0xbd6db49a	-0.058033563
201	0xbdda9a39	-0.10673947
202	0xbe53efbd	-0.20696922
203	0x3de905a4	0.11378029
204	0x3e48bb3f	0.19602679
205	0x3d4c6c16	0.049907766
206	0xbc91a51f	-0.017778931
207	0xbea4b83b	-0.32171807
208	0xbdc49ac3	-0.09599831
209	0x3d592d33	0.05302162
210	0x3e1296db	0.1431536
211	0xbd0500cb	-0.03247146
212	0xbe1a2ad2	-0.15055397
213	0x3db62169	0.08893091
214	0xbe40da14	-0.1883319
215	0x3e1f8e85	0.1558171
216	0xbddf11d2	-0.10892071
217	0xbd70b8c3	-0.058769953
218	0xbcffd1ba	-0.031227935
219	0xbc0f3561	-0.008740754
220	0xbe208700	-0.15676498
221	0x3e28974d	0.16463967
222	0xbf035e56	-0.5131582
223	0x3e4afc86	0.19822893
224	0x3e5df460	0.21675253
225	0xbdbf8e94	-0.093533665
226	0xbe0d9d10	-0.13829446
227	0x3e53ad49	0.20671572
228	0x3e412709	0.18862547
229	0xbe28f779	-0.16500653
230	0x3ea7a109	0.32740048
231	0xbe3c9613	-0.18416624
232	0xbdd44f4d	-0.10366688
233	0xbe5b89bb	-0.21439259
234	0x3d7de84e	0.06198912
235	0x3d811797	0.063033275
236	0x3da1789c	0.078843325
237	0x3e8df445	0.27725425
238	0x3de187c5	0.11012224
239	0xbdee5c1b	-0.116386615
240	0x3dd26eec	0.10275063
241	0x3db65b33	0.089041136
242	0x3df76106	0.120790526
243	0xbd93422a	-0.07190354
244	0x3e031ccc	0.12803954
245	0xbd2a0b78	-0.041514844
246	0xbde17b9c	-0.11009905
247	0xbdfd76b6	-0.12376158
248	0x3e6c0d4e	0.2305195
249	0x3e4023cd	0.18763657
250	0x3e3b367d	0.18282504
251	0x3e2cbdc6	0.16869268
252	0x3e365404	0.17805487
253	0xbe396c0d	-0.18107624
254	0xbd5e900f	-0.054336604
255	0x3def42bf	0.11682653

hidden_layers.0.bias f4 [20]
0	0xbe2a5783	-0.16634946
1	0x3db2a7c5	0.08723406
2	0xbe230af3	-0.15922146
3	0xbe119d2c	-0.14220113
4	0xbc99bfbf	-0.01876819
5	0xbe0e8c8d	-0.13920803
6	0x3cc6863d	0.024233932
7	0x3dd3b6c3	0.103375934
8	0xbe89d2ae	-0.26918548
9	0x3ddbd0a1	0.10733152
10	0xbe041c83	-0.12901501
11	0xbe1ffefc	-0.15624613
12	0xbd9743c0	-0.07385969
13	0x3d187281	0.037218574
14	0xbda9ed3f	-0.08297204
15	0xbe56da13	-0.20981626
16	0xbe9a8d67	-0.30186006
17	0x3d36f0c9	0.044663224
18	0xbe255d24	-0.16148812
19	0xbe2e4b19	-0.17020835

hidden_layers.1.weight f4 [20, 20]
0	0x3e03651f	0.12831543
1	0xbe5a275d	-0.21304078
2	0x3e612592	0.21986988
3	0x3dca1dd4	0.098689705
4	0xbe43d512	-0.19124249
5	0xbd9128a0	-0.07087827
6	0x3d835044	0.06411794
7	0xbca60081	-0.020263912
8	0xbcf9b3ef	-0.030481307
9	0xbe11fe8d	-0.1425726
10	0x3e59ac7b	0.21257202
11	0xbd9320dd	-0.071840025
12	0x3e408e89	0.18804373
13	0x3c858a7a	0.016301382
14	0x3b1fb871	0.002437141
15	0x3e417c2d	0.18895026
16	0x3d485111	0.048905436
17	0xbe68b725	-0.22726114
18	0x3b69bee9	0.003566677
19	0x3e40a264	0.18811947
20	0xbdcea6fd	-0.10090444
21	0xbc1db324	-0.00962523
22	0xbe1ca597	-0.15297543
23	0x3cfeedd3	0.031119263
24	0x3dddfab4	0.108388335
25	0xbd255c9a	-0.040371515
26	0x3cca1eff	0.024672983
27	0xbc80cf42	-0.015723828
28	0x3dfe366e	0.124127254
29	0xbe23e15a	-0.16003934
30	0xbd80e304	-0.062933
31	0x3d8fbc68	0.070183575
32	0x3e1dc310	0.15406442
33	0x3df8c876	0.1214761
34	0xbe64ac77	-0.22331415
35	0x3e355abd	0.17710395
36	0xbd5d690f	-0.05405527
37	0xbdd949d7	-0.10609787
38	0xbe3c14e5	-0.18367346
39	0xbd950d43	-0.0727792
40	0x3deba9f4	0.11507025
41	0x3de2b6f8	0.11070055
42	0xbe16b5b5	-0.14717753
43	0x3dbf016b	0.09326442
44	0xbd121bd9	-0.03567109
45	0x3e476874	0.1947344
46	0xbe3f8411	-0.18702723
47	0xbd21d892	-0.03951318
48	0xbe94c97a	-0.29059964
49	0xbda7dfb5	-0.081969656
50	0x3e06941f	0.13142441
51	0x3e783fd7	0.24243103
52	0x3c21b077	0.009868733
53	0x3e4441d1	0.19165732
54	0x3d3e7332	0.046496578
55	0x3e17170f	0.1475489
56	0x3e70f7c3	0.23532014
57	0x3e3b9018	0.18316686
58	0xbdbe5915	-0.09294335
59	0x3e5868d4	0.21133739
60	0x3da63711	0.08115972
61	0xbde27c1c	-0.11058828
62	0xbd8fef95	-0.070281185
63	0xbe1fc448	-0.15602219
64	0x3c981bfe	0.018568035
65	0xbe1626d9	-0.14663257
66	0x3b56e4ca	0.0032790178
67	0x3d8454d8	0.06461495
68	0xbe29cbbd	-0.16581626
69	0x3d8900fe	0.06689642
70	0xbd7639fa	-0.060113885
71	0x3d6bf7bd	0.05760931
72	0x3debe2f2	0.11517896
73	0xbe3f678e	-0.18691847
74	0x3e0ea59e	0.13930365
75	0x3e45cb14	0.1931575
76	0x3d5d303e	0.054001085
77	0xbe40a897	-0.18814312
78	0xbdc6f80f	-0.09715282
79	0xbd74d54a	-0.05977372
80	0xbb67edfb	-0.003538965
81	0x3dad3c20	0.084587336
82	0x3deb4bae	0.11489044
83	0x3e25888a	0.16165367
84	0xbda2cfb2	-0.07949771
85	0x3dbf4217	0.093387775
86	0x3db802c8	0.089849055
87	0xbe11638b	-0.14198129
88	0xbdeb4b6b	-0.11488994
89	0xbe57c424	-0.21070915
90	0x3e51fe28	0.20507109
91	0xbe84d653	-0.25944766
92	0xbe3dc3b6	-0.18531689
93	0x3dd43e91	0.10363496
94	0x3ddfc19a	0.109255984
95	0x3e3ec1cd	0.18628617
96	0xbe2dc693	-0.16970281
97	0xbe57fb89	-0.21092047
98	0x3e1142a6	0.1418558
99	0x3e0d9ba5	0.13828905
100	0x3e2e6cdc	0.17033714
101	0xbd2cbf15	-0.042174418
102	0x3d9a0315	0.07520119
103	0x3dffca5e	0.1248977
104	0xbde81a1a	-0.113331035
105	0xbe24ea49	-0.16104998
106	0x3e49cdfc	0.19707483
107	0xbe50111e	-0.2031903
108	0xbe697d0d	-0.2280161
109	0x3e786b6c	0.24259728
110	0x3d755204	0.05989267
111	0x3d8c0ed6	0.06838767
112	0xbdbd3ca8	-0.09240085
113	0x3d55d2f9	0.052203152
114	0x3d9d87fe	0.07691954
115	0xbe0cb850	-0.13742185
116	0xba1777cc	-0.0005778044
117	0x3e1fd7e1	0.15609695
118	0xbe8f5a0b	-0.27998385
119	0x3e752b4d	0.23942299
120	0xbd814743	-0.0631242
121	0x3d1aaf82	0.037765034
122	0xbe4651b8	-0.1936711
123	0xbdad3c9f	-0.08458828
124	0xbe8d15ac	-0.27555597
125	0x3dd8eadb	0.1059167
126	0x3e30ff9c	0.17285007
127	0xbe10072d	-0.14065237
128	0xbe4959d0	-0.19663167
129	0x3ea1e61d	0.31620875
130	0x3c842940	0.01613295
131	0x3dbb6552	0.09150185
132	0xbe74053f	-0.23830126
133	0xbe1c577b	-0.15267746
134	0x3c6124b7	0.013741664
135	0xbdccb057	-0.09994572
136	0xbcc388c7	-0.023868931
137	0x3dd601c7	0.10449558
138	0xbcbc8828	-0.023014143
139	0xbd716cd7	-0.05894169
140	0xbd485c95	-0.048916418
141	0x3dd02b42	0.10164501
142	0xbae1684b	-0.001719722
143	0x3e3541c8	0.17700875
144	0xbe512ddb	-0.20427649
145	0xbe1f5f73	-0.15563755
146	0x3cdfa180	0.027298689
147	0x3e0ca5d3	0.13735132
148	0xbda9afe5	-0.08285502
149	0x3e326c03	0.17424016
150	0xbd99c3e3	-0.075080656
151	0x3db59d9a	0.08867951
152	0x3db47b03	0.08812525
153	0xbe5b217c	-0.21399492
154	0x3e81fbbd	0.25387374
155	0xbe51491d	-0.20438047
156	0xbdcbc75a	-0.09950133
157	0x3cef3f1f	0.029204903
158	0xbdec1aae	-0.11528526
159	0x3e5c3d2f	0.21507715
160	0x3c82b617	0.015955968
161	0x3c69123d	0.01422554
162	0xbe41cd59	-0.1892599
163	0x3da0d755	0.07853571
164	0x3d41641c	0.047214612
165	0xbe79dbc5	-0.24400242
166	0x3e31f28c	0.1737768
167	0x3d4f0d5a	0.050549842
168	0x3e568f5a	0.20953122
169	0xbe3d0108	-0.18457425
170	0xbe0fa980	-0.14029503
171	0x3d113533	0.035451125
172	0x3d825dc9	0.06365544
173	0x3de59363	0.112097524
174	0x3c14b418	0.009076141
175	0xbd658cea	-0.05604259
176	0x3dda50a6	0.10659914
177	0x3df2bf48	0.1185289
178	0xbd354d03	-0.044262897
179	0x3e0dc187	0.13843356
180	0x3d3dc350	0.046328843
181	0xba95dc89	-0.0011433522
182	0xbd74d5f1	-0.059774343
183	0xbe690a6d	-0.22757883
184	0xbd1282f6	-0.035769425
185	0xbda77a80	-0.08177662
186	0x3e0209d6	0.12699065
187	0xbe862fa9	-0.26208237
188	0x3d53baa1	0.051691655
189	0xbd85967a	-0.06522842
190	0x3c563900	0.013075113
191	0xbd779c1c	-0.060451612
192	0xbddecb52	-0.10878624
193	0xbd0ce36a	-0.034396566
194	0xbe9a1a34	-0.30098116
195	0x3d4beb0b	0.0497847
196	0xbe4e7ff0	-0.20165992
197	0xbe33f91a	-0.17575493
198	0xbcb2e581	-0.021837952
199	0xbe076039	-0.132203
200	0x3d42933f	0.047503706
201	0xbe73866c	-0.23781747
202	0xbe284dd1	-0.16435935
203	0xbe6b54fb	-0.22981636
204	0x3c6696ea	0.014074067
205	0xbe20cfb9	-0.1570424
206	0xbcb028df	-0.021503864
207	0xbd9b416b	-0.07580837
208	0x3d0713b0	0.03297776
209	0x3e52a8f0	0.20572257
210	0x3be01742	0.00683871
211	0xbdc546f1	-0.096326716
212	0xbe87bf7d	-0.2651328
213	0x3dba20f9	0.0908832
214	0xbe044a97	-0.12919079
215	0x3dcc2955	0.09968821
216	0x3df7f258	0.1210677
217	0x3d3ccf2d	0.046096016
218	0x3e1f056b	0.1552941
219	0x3e435ead	0.19079085
220	0x3dbf85bd	0.093516804
221	0xbe06d4f0	-0.13167167
222	0x3e604581	0.21901514
223	0xbd4bf6f7	-0.04979607
224	0x3ce9b5df	0.028529106
225	0x3e45bcbf	0.19310282
226	0x3e72e6f0	0.23720908
227	0x3de68773	0.11256304
228	0x3d815d18	0.06316584
229	0xbe183423	-0.14863639
230	0x3d49d833	0.04927845
231	0x3e503c00	0.20335388
232	0x3d93ffec	0.072265476
233	0x3cc3ae54	0.023886837
234	0xbaa24acb	-0.0012381909
235	0xbda5a3ee	-0.08087908
236	0x3e03a47c	0.12855715
237	0x3e1c7cad	0.15281935
238	0x3e5960e5	0.21228369
239	0xbd7801d1	-0.060548607
240	0x3daaa90c	0.083330244
241	0x3e233e1a	0.15941659
242	0x3d8baa34	0.06819573
243	0x3e2f0d7c	0.17094988
244	0x3e8b9eb2	0.27269512
245	0x3e1da8df	0.1539645
246	0x3e77ed0c	0.2421152
247	0xbd7040f1	-0.058655683
248	0xbe3b5656	-0.18294653
249	0x3e01b818	0.12667882
250	0x3d0f7ad8	0.035029262
251	0x3c1fb3fa	0.0097475
252	0xbcf999ed	-0.030468905
253	0x3d63b7f8	0.05559537
254	0x3e413c36	0.18870625
255	0x3db7634c	0.08954486

hidden_layers.1.bias f4 [20]
0	0xbe919e7d	-0.2844123
1	0x3d366782	0.044532306
2	0xbd4b3882	-0.049614437
3	0x3ca05ab6	0.019574504
4	0xbdebb93b	-0.11509939
5	0xbd82b605	-0.06382374
6	0x3d9c9aaf	0.07646691
7	0x3e244db4	0.16045266
8	0xbdec8fbc	-0.11550853
9	0xbe1a5f94	-0.15075523
10	0x3e333e25	0.17504175
11	0xbd204a58	-0.0391334
12	0xbdf17fd0	-0.117919564
13	0xbe10ef29	-0.14153732
14	0x3e7d81af	0.24756502
15	0xbd8d08e6	-0.06886463
16	0xbd12c38f	-0.03583103
17	0xbda194b8	-0.07889694
18	0xbd56b879	-0.05242202
19	0xbe664449	-0.22486986

hidden_layers.2.weight f4 [20, 20]
0	0xbe089b3c	-0.13340467
1	0x3e21c87f	0.1579914
2	0x3e39f1c7	0.18158637
3	0x3e6dcbdc	0.23222297
4	0xbdaa63af	-0.083197944
5	0x3dfeafd3	0.124358796
6	0xbdb8b984	-0.09019759
7	0x3e18a8dc	0.14908165
8	0x3e2f25fd	0.17104335
9	0x3e2b0ca6	0.16704044
10	0x3e13634c	0.14393348
11	0x3e22356b	0.1584069
12	0x3d8d5499	0.06900901
13	0x3e01942b	0.12654178
14	0xbd4d6c4a	-0.0501521
15	0x3d95928f	0.073033445
16	0xbd9d12c3	-0.07669594
17	0xbd9fa84a	-0.077957705
18	0xbd9ad23d	-0.07559631
19	0x39373a79	0.00017474023
20	0xbe4c335d	-0.19941469
21	0xbe403ea5	-0.18773897
22	0xbe1be5d5	-0.15224393
23	0xbe271512	-0.16316631
24	0x3b72210e	0.0036945972
25	0x3e1e221b	0.15442698
26	0x3e6bdd7e	0.23033711
27	0x3e46c2ed	0.19410296
28	0xbe4a891a	-0.19778863
29	0xbe477c95	-0.19481118
30	0x3da0064a	0.078136995
31	0x3d595711	0.05306155
32	0xbe3a27eb	-0.1817929
33	0xbd4fd31c	-0.05073844
34	0x3e2759b9	0.1634282
35	0x3cf40b4f	0.029790549
36	0xbccc727e	-0.024956938
37	0x3e4ccc89	0.19999899
38	0x3df94f4c	0.12173328
39	0x3d51fda7	0.051267292
40	0xbdcc026f	-0.09961402
41	0x3dacf428	0.084450066
42	0xbe399ab3	-0.1812542
43	0x3e3c1c78	0.18370235
44	0xb78e8e41	-1.6993961e-05
45	0x3e291e70	0.16515517
46	0x3e823477	0.25430652
47	0x3d95e4ed	0.07319055
48	0xbd6a8b0d	-0.057261515
49	0x3dde79fe	0.10863112
50	0xbbb1b6e6	-0.0054234145
51	0xbe7f96c4	-0.24959856
52	0xbe2c5ee4	-0.16833073
53	0x3defc7a2	0.11707999
54	0xba87d5e8	-0.0010363432
55	0x3d589de2	0.052884944
56	0xbdd4f6a4	-0.103986055
57	0x3e2dc1b6	0.16968426
58	0x3ebe1616	0.37126225
59	0x3da296be	0.07938908
60	0xbe39def9	-0.18151464
61	0xbe814013	-0.25244197
62	0x3d0bc3f6	0.03412243
63	0xbdf5d52b	-0.12003549
64	0x3e5bfd5b	0.21483366
65	0xbe28b451	-0.16475035
66	0x3d72804f	0.059204396
67	0x3e5fc467	0.21852265
68	0x3e08ac75	0.13347037
69	0xbd32151c	-0.043477163
70	0xbe945e3e	-0.2897815
71	0x3dfcb9d6	0.12340133
72	0x3d14fefe	0.036375992
73	0xbe83c259	-0.25734213
74	0x3e7aa2af	0.24476121
75	0xbe348ab3	-0.17631035
76	0x3dac588e	0.08415328
77	0x3e84a655	0.2590815
78	0xbdf8b103	-0.12143137
79	0xbe257e04	-0.16161352
80	0x3d2b8c66	0.04188194
81	0xbc0c487d	-0.008562204
82	0x3d6f0350	0.05835277
83	0xbde92f3f	-0.113859646
84	0x3d7a1c62	0.061062224
85	0xbd938f8b	-0.07205113
86	0xbe0b08fd	-0.13577648
87	0xbe3b136e	-0.1826913
88	0x3e0bc7f8	0.13650501
89	0x3d072363	0.03299273
90	0xbdfdb436	-0.12387888
91	0x3e69b67b	0.22823517
92	0x3df66089	0.12030131
93	0x3d778aad	0.060434986
94	0xbde11cde	-0.10991834
95	0xbcf62c4b	-0.030050417
96	0x3e53c75c	0.20681518
97	0x3e1b2caf	0.15153764
98	0xbe4cff23	-0.20019202
99	0x3e7df194	0.24799186
100	0x3d0e96e7	0.03481188
101	0x3db05d04	0.08611491
102	0x3e138d86	0.14409456
103	0x3e5c9317	0.21540485
104	0xbdb7bfc4	-0.08972123
105	0x3e809a51	0.25117734
106	0xbd8b58f3	-0.06804075
107	0x3cc8ca91	0.024510654
108	0xbdc3d6db	-0.09562465
109	0xbda14668	-0.07874757
110	0x3d2a21f4	0.041536286
111	0xbc422498	-0.011849545
112	0x3d14f4d1	0.036366288
113	0x3c26d5c5	0.010182803
114	0x3e68c7a4	0.22732407
115	0x3d89e0f1	0.06732357
116	0x3d9ae690	0.075635076
117	0x3d90c1a3	0.07068183
118	0x3e8acd84	0.2710992
119	0x3dbe8bba	0.093039945
120	0xbd3520f7	-0.04422089
121	0xbc40862c	-0.011750739
122	0xbe771982	-0.24130824
123	0xbe7722fc	-0.24134439
124	0xbc0980e1	-0.0083925435
125	0xbd5f7c52	-0.05456192
126	0xbccca1e4	-0.02497954
127	0xbcb71e01	-0.022353174
128	0xbc955769	-0.018230157
129	0x3e080c43	0.13285927
130	0xbdcb7950	-0.09935248
131	0x3e625b8c	0.22105235
132	0x3e802dd7	0.25034973
133	0xbe38e5be	-0.1805639
134	0xbe3f810d	-0.18701573
135	0xbe51bd8b	-0.20482461
136	0xbd6956c0	-0.056967497
137	0xbd61e692	-0.05515153
138	0xbd95832c	-0.0730041
139	0xbdb65196	-0.0890228
140	0xbd95ad09	-0.073083945
141	0xbd975950	-0.07390082
142	0xbddca3ab	-0.10773405
143	0x3e5a969b	0.21346514
144	0xbd81758b	-0.06321248
145	0xbda7a0f8	-0.08184999
146	0x3dd0f547	0.10203033
147	0xbc5ba3cc	-0.013405751
148	0x3e4b7f0e	0.19872686
149	0x3e4f2bbd	0.20231529
150	0x3e68cdea	0.227348
151	0xbe26ce26	-0.16289577
152	0x3e22e464	0.15907437
153	0x3e2fbea1	0.17162563
154	0xbe3a3681	-0.18184854
155	0x3e3c932f	0.18415521
156	0x3dcb1821	0.099167116
157	0xbdd35d0f	-0.10320484
158	0x3e1cdb95	0.15318139
159	0xbc144b48	-0.009051152
160	0xbe88e524	-0.2673732
161	0xbc95c32d	-0.018281544
162	0x3d0855e7	0.033285048
163	0xbdfe0259	-0.124027915
164	0x3cab8ab0	0.020940155
165	0xbe03bf8d	-0.1286604
166	0x3e7a529c	0.24445575
167	0x3e612c55	0.21989568
168	0x3d3f60e9	0.04672328
169	0xbe6d80ae	-0.23193619
170	0x3d75eb50	0.060038865
171	0xba99eb88	-0.0011743167
172	0x3de35bf4	0.11101523
173	0x3d1cf7b1	0.038322154
174	0x3e8fa162	0.28052813
175	0xbe12e8ae	-0.14346573
176	0xbd81a025	-0.06329373
177	0x3e133e12	0.14379147
178	0xbd6eef96	-0.058333956
179	0x3e2764a2	0.16346982
180	0xbbfad127	-0.0076543274
181	0x3bd92ff0	0.006628029
182	0x3ce057bb	0.027385583
183	0xbd2b9fdd	-0.041900504
184	0x3d8c4f8f	0.06851112
185	0xbddd220a	-0.10797508
186	0xbe2d40fc	-0.16919321
187	0xbda26c0f	-0.07930767
188	0xbdde1b20	-0.108450174
189	0x3db67536	0.08909075
190	0xbbe0f8dc	-0.006865604
191	0xbe85429d	-0.26027384
192	0xbe5d851f	-0.21632813
193	0xbc593edb	-0.013259615
194	0xbd0656d8	-0.032797664
195	0x3e47c7e4	0.19509846
196	0xbd8731a9	-0.06601269
197	0x3d974d29	0.07387764
198	0x3d2d1205	0.042253513
199	0xbe2326d9	-0.15932788
200	0x3cffc356	0.031221073
201	0x3e2cad2f	0.1686294
202	0xbe383ab2	-0.1799114
203	0xbe08d200	-0.13361359
204	0x3e7636f8	0.24044406
205	0x3db5f2a7	0.08884173
206	0xbe35dcc1	-0.17759992
207	0x3dae9afc	0.08525655
208	0xbd7ad265	-0.061235804
209	0xbe370929	-0.17874588
210	0x3a70926c	0.0009177092
211	0x3d3b9490	0.045795977
212	0xbd862ff8	-0.06552118
213	0x3cde437f	0.027131794
214	0xbe5e8f69	-0.21734394
215	0x3e3d8ed3	0.18511514
216	0x3dffefb5	0.12496892
217	0x3d3f1f56	0.046660744
218	0x3dbb4651	0.09144271
219	0x3d86fe8a	0.06591518
220	0xbe8ede27	-0.27903864
221	0xbe1101d3	-0.14160852
222	0xbd18833b	-0.037234526
223	0xbdb98e7b	-0.09060379
224	0xbe897091	-0.26843694
225	0x3e447a57	0.19187294
226	0x3e96531e	0.29360288
227	0xbdab460a	-0.08362968
228	0xbc87988c	-0.016552232
229	0x3df78943	0.120867275
230	0x3e1fad99	0.15593566
231	0x3b9afe4a	0.0047300206
232	0x3e2ed3c6	0.17072973
233	0xbe14c191	-0.14526965
234	0x3e21d2e8	0.1580311
235	0x3df5f31c	0.1200926
236	0xbe777dc1	-0.24169065
237	0xbe2fe545	-0.17177303
238	0x3d6db6bf	0.05803561
239	0x3ded55e1	0.11588646
240	0xbe4b7c3f	-0.19871615
241	0xbd13947e	-0.036030285
242	0xbce59344	-0.028024323
243	0xbc360e61	-0.011111827
244	0xbe310050	-0.17285275
245	0x3e16f4c6	0.14741811
246	0x3e122ee0	0.14275694
247	0xbdf4c6e4	-0.11951998
248	0x3c4f5054	0.012653429
249	0xbd4c4b94	-0.049876764
250	0x3c716c24	0.014735255
251	0x3e256868	0.16153109
252	0x3df65eeb	0.12029823
253	0xbdbe9b9c	-0.09307024
254	0x3e46ba5f	0.19407032
255	0xbe24fc63	-0.16111903

hidden_layers.2.bias f4 [20]
0	0xbe55ce26	-0.2087942
1	0x3e316723	0.173245
2	0xbc00bbe5	-0.007857298
3	0xbdc8bb28	-0.09801322
4	0xbd807a75	-0.06273357
5	0xbe14eb2b	-0.14542834
6	0x3e438b80	0.19096184
7	0xbd83844b	-0.06421717
8	0x3e13e81f	0.14444016
9	0x3e819d66	0.25315398
10	0xb6ac1d2b	-5.129395e-06
11	0x3d8d7404	0.06906894
12	0x3cc3e3ac	0.023912273
13	0x3e456465	0.19276579
14	0xbe2b049b	-0.16700976
15	0x3d22a31f	0.039706346
16	0xbd5fd955	-0.054650623
17	0x3e49b838	0.1969918
18	0xbcf62fbb	-0.030052057
19	0x3c057da5	0.008147632

lstm.weight_ih_l0 f4 [512, 20]
0	0xbd7dbf1c	-0.061949834
1	0x3d400949	0.046883855
2	0xbda19659	-0.07890005
3	0xbd39ca93	-0.045359205
4	0xbd7c13b1	-0.061542217
5	0xbdab062c	-0.083507866
6	0x3dd26695	0.10273472
7	0x3c79e34e	0.015251948
8	0xbc31c712	-0.010850685
9	0x3d88ac90	0.06673539
10	0xbd7bb42a	-0.061451115
11	0xbdae9d56	-0.08526103
12	0xbd6d1338	-0.057879657
13	0xbd206d37	-0.039166655
14	0xbd5da9d8	-0.054117054
15	0xbc0e7732	-0.008695411
16	0xbdb8e5ea	-0.090282276
17	0x3d06ff42	0.032958277
18	0xba90ff32	-0.0011062382
19	0x3dc25483	0.094887756
20	0x3c5f585d	0.013631907
21	0x3d46dd0b	0.048550647
22	0xbd84967d	-0.06474016
23	0xbc36700e	-0.011135114
24	0x3dcd8580	0.10035229
25	0xbcd775ca	-0.026301283
26	0x3dcecfed	0.100982524
27	0xbd59ec64	-0.053203955
28	0x3da09adf	0.07842039
29	0x3ce9eea2	0.028556172
30	0xbcf1cee2	-0.029517595
31	0x3c41c32b	0.011826317
32	0x3d11fc0f	0.035640772
33	0x3dcf9681	0.10136128
34	0x3c4c5b3c	0.012472924
35	0x3daba4ef	0.08381068
36	0x3df47b54	0.119375855
37	0x3d1ecf49	0.0387719
38	0x3de97fd9	0.11401338
39	0x3cd8d755	0.026469866
40	0x3cbd5921	0.023113789
41	0x3c71ef3f	0.014766513
42	0x3d2661d3	0.040620636
43	0x3c06f239	0.008236461
44	0x3c561d54	0.013068516
45	0xbd41d551	-0.047322575
46	0x3d0e2eff	0.034712788
47	0x3b698ae4	0.0035635764
48	0xbd68831e	-0.056765668
49	0xbd6e654b	-0.05820207
50	0x3c05e17f	0.008171438
51	0x3d171857	0.036888447
52	0xbd81b723	-0.06333759
53	0xbd054087	-0.03253224
54	0xbdbbaabd	-0.09163425
55	0xbc92ac4a	-0.01790442
56	0xbcf9774a	-0.03045239
57	0x3d4855d9	0.048909996
58	0xbda4c925	-0.08046178
59	0xbda492cd	-0.080358125
60	0xbc112e65	-0.008861159
61	0x3d737ceb	0.059445303
62	0x3cc7c87e	0.024387594
63	0x3d6ef073	0.05833478
64	0x3b48fb66	0.0030667423
65	0x3b448598	0.0029986855
66	0x3d297bee	0.041377954
67	0x3c6ae10b	0.014335881
68	0xbdad72c7	-0.08469158
69	0xbdbe9654	-0.093060166
70	0xbc5174a7	-0.01278416
71	0xb9bec234	-0.00036384317
72	0x3d721e98	0.059111208
73	0x3d08dda3	0.033414494
74	0x3d1e9c8f	0.038723525
75	0xbbe86567	-0.007092166
76	0xbc8a3645	-0.01687158
77	0xbdd3b66b	-0.10337528
78	0xbd16a784	-0.03678085
79	0xbdb0127b	-0.08597275
80	0x3c4a30ee	0.012340767
81	0x3cbdd352	0.023172054
82	0x3d3b911e	0.04579269
83	0xbc1d6039	-0.009605461
84	0x3ce800f9	0.028320776
85	0xbc907af2	-0.01763675
86	0x3d28945a	0.041157104
87	0x3c0bf5bd	0.008542475
88	0xbd5da937	-0.054116454
89	0x3d3b6fb9	0.045760844
90	0x3d9b6b31	0.075888045
91	0xbd1c91b4	-0.03822489
92	0xbdeb75a0	-0.114970446
93	0xbd5e9669	-0.05434266
94	0x3cc5b646	0.024134766
95	0x3d557025	0.052108902
96	0xbcd7b777	-0.0263326
97	0x3d748a35	0.059702117
98	0x3d13f144	0.03611876
99	0x3c317a75	0.010832419
100	0xbd896b41	-0.0670991
101	0x3b8d686e	0.0043154275
102	0x3b824532	0.003975534
103	0xbbb7a686	-0.005604568
104	0xbda828f8	-0.08210939
105	0xbc2a5387	-0.010395891
106	0xbca3e082	-0.020004515
107	0x3cea5fe6	0.028610181
108	0x3c218e7c	0.009860631
109	0x3dde7087	0.10861307
110	0xbd700b2a	-0.058604397
111	0x3dd64ae1	0.10463501
112	0x3cdbc549	0.026827471
113	0xbd3f1104	-0.046647087
114	0x3cb29832	0.021801088
115	0xbc1afe42	-0.009460034
116	0xbd9aeba0	-0.07564473
117	0x3d5ab7e8	0.053398043
118	0xbdab6a0d	-0.08369837
119	0x3d4fc90b	0.05072884
120	0xbcac344b	-0.021021029
121	0x3cfa4c60	0.030553997
122	0xbd9b146a	-0.07572253
123	0xbcaf456a	-0.021395404
124	0x3d81fdcc	0.06347236
125	0x3e268908	0.16263211
126	0xbca42255	-0.020035902
127	0x3cb76c6b	0.022390565
128	0x3d3997b0	0.045310676
129	0x3d046c30	0.03232974
130	0x3b6318ac	0.0034652157
131	0x3d717f25	0.058959145
132	0xbce63a4d	-0.028103972
133	0xbd4e4aa0	-0.050364137
134	0x3d734468	0.05939141
135	0xbd941f8f	-0.07232582
136	0x3db70d63	0.089381
137	0xbd87169f	-0.065961115
138	0x3e1e950f	0.15486549
139	0xbd2bb8e3	-0.04192437
140	0xbd8dbe31	-0.06921042
141	0xbb86e8ef	-0.0041171233
142	0x3d658920	0.056038976
143	0x3cbf7770	0.023372382
144	0x3d15c824	0.036567822
145	0xbdbdeac4	-0.092732936
146	0x3e0c432d	0.136975
147	0xbcf8491a	-0.030308295
148	0x3d8f18fb	0.069871865
149	0xbd3a41e9	-0.045473013
150	0x3d048953	0.032357525
151	0x3d8ebf27	0.06970053
152	0x3db15126	0.08658056
153	0x3cf548f8	0.02994202
154	0xbdc285c6	-0.094981715
155	0xbdc5b82f	-0.09654271
156	0xbdf29640	-0.11845064
157	0x3c170419	0.009217286
158	0x3b876faa	0.0041331844
159	0xbafaba49	-0.0019129004
160	0x3bdfc895	0.006829331
161	0x3d06181f	0.032737847
162	0xbd9a1f43	-0.07525494
163	0x3c2a06e9	0.010377624
164	0xbb0f648f	-0.0021880006
165	0xbd1f839e	-0.03894388
166	0x3e0ce57e	0.1375942
167	0xbd94e2ca	-0.07269819
168	0x3c97297a	0.018452395
169	0xbdfbd869	-0.12297136
170	0xbca4cc27	-0.020116879
171	0x3d09e069	0.03366128
172	0x3d9fb421	0.07798029
173	0xbd54b449	-0.051929746
174	0x3d70c222	0.05877889
175	0xbda1ba07	-0.0789681
176	0x3d860e04	0.06545642
177	0xbc4cb724	-0.012494836
178	0x3d2aaa06	0.041666053
179	0xbd586d44	-0.05283858
180	0x3d814cca	0.063134745
181	0xbcfdcd4d	-0.030981684
182	0x3d5f86c7	0.054571893
183	0xbae4a6f3	-0.0017444774
184	0xbd0c8fa4	-0.034316674
185	0x3d84aa4c	0.06477794
186	0xbdec1ab1	-0.115285285
187	0x3dd44d91	0.10366357
188	0xbd4807d6	-0.048835598
189	0x3cb0ae4a	0.021567483
190	0xbd0ab176	-0.033860646
191	0xbc9fd08b	-0.01950862
192	0xbdac593a	-0.08415456
193	0x3cfca31e	0.0308395
194	0xbb11a662	-0.0022224416
195	0x3bf7c69b	0.0075615174
196	0x3d2bb23a	0.041918017
197	0xbe0fb180	-0.14032555
198	0x3d02e75b	0.03195892
199	0xbdae921e	-0.085239634
200	0xbcf11eea	-0.029433686
201	0x3cad8c0a	0.02118494
202	0x3dca365b	0.09873649
203	0x3d9301f6	0.071781084
204	0xbd8af2cd	-0.06784592
205	0x3ce22874	0.02760718
206	0xbe32c99f	-0.17459725
207	0xbc6ab8fa	-0.014326328
208	0xbd34b31b	-0.04411612
209	0x3dc85d99	0.09783477
210	0xbdc135b2	-0.0943407
211	0xbd88ed1b	-0.06685849
212	0x3d3b1902	0.045678146
213	0x3dc72f7f	0.09725856
214	0xbce091b3	-0.027413225
215	0xbdd96a4f	-0.1061598
216	0xbce438a5	-0.027859041
217	0xbb98920e	-0.004656083
218	0xbd7a5044	-0.061111704
219	0xbb51aa50	-0.0031992383
220	0xbd80119f	-0.06253361
221	0x3caf72be	0.021417018
222	0x3dde62ea	0.1085871
223	0xbc0ba483	-0.008523109
224	0x3cd63c1d	0.026151711
225	0x3cde160f	0.027110128
226	0x3d8dfdb4	0.06933156
227	0x3c9eebc2	0.019399527
228	0xbc9aa039	-0.018875228
229	0x3e899ade	0.26875967
230	0x3d83f4c7	0.06443172
231	0x3d236879	0.039894555
232	0xbdf90707	-0.121595435
233	0x3d75178c	0.05983691
234	0x3d9b7674	0.075909525
235	0xbc072fba	-0.008251125
236	0x3b3c3a44	0.0028721252
237	0x3d47c16e	0.048768453
238	0x3d866557	0.06562298
239	0xbc9fab97	-0.019491
240	0x3ce71575	0.028208474
241	0x3d9a1b9b	0.075247966
242	0xbdca8b41	-0.09889842
243	0xbd74eb42	-0.05979467
244	0xbbd33294	-0.0064452384
245	0x3d8d364e	0.068951234
246	0x3cf123c2	0.029435996
247	0xbda7a5c4	-0.08185914
248	0x3dae15a3	0.085002206
249	0xbdb76aa1	-0.08955885
250	0xbbf2f7fe	-0.007414817
251	0x3dc67352	0.09689964
252	0x3d8ae99e	0.0678284
253	0x3c5751e4	0.013142083
254	0x3c194faf	0.009357377
255	0xbb8e1ca5	-0.004336911

lstm.weight_hh_l0 f4 [512, 128]
0	0x3d5f67cf	0.05454236
1	0x3b9edf60	0.0048484057
2	0x3d901bb5	0.07036535
3	0xbc05f966	-0.008177137
4	0x3e336eae	0.1752269
5	0x3d21a646	0.03946521
6	0xbdc459b6	-0.095874235
7	0xbdef69ad	-0.11690078
8	0x3d807c46	0.06273703
9	0xbe01890c	-0.12649935
10	0xbdd9d24f	-0.10635816
11	0x3cee4d7c	0.029089682
12	0x3d043d92	0.03228528
13	0xbdf72d46	-0.12069182
14	0xbc9e6d8b	-0.019339344
15	0x3dd6561b	0.10465642
16	0xbe0d339d	-0.1378922
17	0xbe32c116	-0.17456469
18	0xbbda3a14	-0.0066597555
19	0xbd642481	-0.055698875
20	0x3e1b9428	0.15193236
21	0xbde1f7bb	-0.11033579
22	0x3b0b0ff4	0.0021219226
23	0xbd9ef1b7	-0.07760947
24	0xbde84599	-0.113414
25	0xbd3a69a9	-0.04551092
26	0xbc8a1d63	-0.016859716
27	0xbe3fdbbf	-0.1873617
28	0xbbc76bb8	-0.006085839
29	0x3e14e54b	0.14540593
30	0xbda7d912	-0.081957
31	0xbdca9815	-0.098922886
32	0x3dc07117	0.0939657
33	0xbb7485a1	-0.0037311094
34	0xbdce82a6	-0.10083513
35	0xbe1fb2b8	-0.1559552
36	0x3d049522	0.032368787
37	0xbc91a55d	-0.017779047
38	0x3dfeb933	0.12437668
39	0x3d7f0db6	0.062268935
40	0x3d5bf216	0.053697668
41	0xbd48a6db	-0.04898725
42	0xbd96df41	-0.07366801
43	0xbd4e501c	-0.050369367
44	0x3d212db5	0.03935023
45	0x3e37a4ed	0.17934008
46	0x3e42f4e1	0.19038726
47	0xbd9a32b7	-0.07529204
48	0x3de2acfb	0.1106815
49	0xbcedaa05	-0.029011736
50	0xbd18d9e3	-0.037317168
51	0x3c90b351	0.01766363
52	0x3d31600d	0.04330449
53	0x3d2f43b7	0.042789187
54	0xbd472c71	-0.048626367
55	0xbcc68a5c	-0.024235897
56	0xbd807b6c	-0.06273541
57	0x3d2873ad	0.041125942
58	0x3e249119	0.16070975
59	0xbd9151b6	-0.07095663
60	0x3deb8fee	0.11502062
61	0xbe02d666	-0.12777099
62	0xbd0f59b1	-0.034997646
63	0x3caa22c4	0.02076853
64	0xbe3c0345	-0.18360622
65	0x3c5968bc	0.0132695995
66	0xbdb2ec68	-0.08736497
67	0x3dedf3c2	0.11618759
68	0x3d85b25e	0.065281615
69	0x3d373771	0.044730607
70	0x3e990fd2	0.29894882
71	0xbd830cf3	-0.06398954
72	0x3c8bd736	0.017070394
73	0x3dc08448	0.09400231
74	0xbde5181a	-0.11186238
75	0x3dc866fd	0.097852685
76	0x3e40b224	0.18817955
77	0x3bd39229	0.0064566326
78	0x3d8feb96	0.07027356
79	0xbd944c98	-0.072411716
80	0x3c3d04a3	0.01153675
81	0xbe0998de	-0.1343722
82	0x3e19aeba	0.15008059
83	0xbe07cc87	-0.13261615
84	0xbba8f309	-0.005155925
85	0x3db9971f	0.09062027
86	0xbda98f3a	-0.082792714
87	0x3abfb942	0.0014627355
88	0x3d53035e	0.051516883
89	0xbde1b972	-0.11021699
90	0x3df4584a	0.11930902
91	0x3c9369aa	0.01799472
92	0x37b1d0fc	2.119736e-05
93	0xbca54a46	-0.020177018
94	0x3d4f4ceb	0.050610464
95	0xbe233ac7	-0.1594039
96	0x3d6b57ca	0.05745677
97	0x3c4e43a5	0.01258937
98	0xbddfe67d	-0.10932634
99	0xbda8b1a3	-0.082370065
100	0xbd2d8cc7	-0.042370584
101	0x3db31c33	0.08745613
102	0xbd2ef981	-0.042718414
103	0x3e823ff9	0.25439432
104	0x3cc51713	0.024058854
105	0x3d1a3375	0.03764673
106	0xbd4049e2	-0.04694546
107	0xbe331cdf	-0.17491482
108	0x3cdf6fc0	0.027274966
109	0x3e15e5b5	0.14638408
110	0xbd0b33e0	-0.03398502
111	0xbde08ad6	-0.10963981
112	0xbdd7368e	-0.10508452
113	0xbd02518a	-0.031816043
114	0xbe10f386	-0.14155397
115	0x3ddc70fd	0.10763738
116	0x3d23221f	0.039827462
117	0x3d00c344	0.03143622
118	0xbcfb404e	-0.030670311
119	0xbe73d6d5	-0.2381242
120	0xbd3b0431	-0.045658294
121	0xbdfcf7a9	-0.12351925
122	0x3b9571b8	0.0045606755
123	0xba954858	-0.0011389358
124	0x3c05b934	0.008161832
125	0xbddfc73f	-0.10926675
126	0xbd73f2fa	-0.059557892
127	0x3db9dd8e	0.09075461
128	0x3de03b1a	0.10948773
129	0xbdbc2639	-0.09186978
130	0x3d9bc102	0.07605173
131	0x3d53c0d8	0.051697582
132	0x3ddaedce	0.10689889
133	0xbcb90860	-0.022587001
134	0xbdac85a1	-0.08423925
135	0xbdce1ef2	-0.10064496
136	0xbd825ee6	-0.06365757
137	0x3cd4ce88	0.025977388
138	0x3d5f433c	0.05450748
139	0x3d355835	0.044273574
140	0xbd7d36ef	-0.061819967
141	0xbd218154	-0.039429978
142	0x3d388bd5	0.04505523
143	0x3cae73bd	0.021295423
144	0xbd996eb9	-0.07491822
145	0xbd62323e	-0.055223696
146	0x3da8dad3	0.082448624
147	0xbc8d3561	-0.017237367
148	0x3d544e79	0.05183265
149	0xbd8640ca	-0.06555326
150	0x3dbc27b3	0.091872595
151	0x3d8e7ff1	0.06957997
152	0xbd4e53fe	-0.05037307
153	0x3caa3464	0.020776935
154	0xbd0bac81	-0.03410006
155	0xbc364da5	-0.01112691
156	0xbdc87328	-0.09787589
157	0x3be97cb1	0.00712546
158	0xbcf796f4	-0.030223347
159	0x3ddd6f94	0.108122975
160	0xbba4a00d	-0.0050239624
161	0x3e05256f	0.13002561
162	0x3c84768b	0.016169807
163	0x3cdf08bb	0.027225843
164	0xbdbd7500	-0.092508316
165	0x3c2abe52	0.010421352
166	0xbc77e0b0	-0.015129253
167	0x3e10ca0d	0.14139576
168	0xbdca342b	-0.098732315
169	0x3cc79dde	0.02436727
170	0xbc8da838	-0.017292127
171	0x3d74f46a	0.059803404
172	0xbcd567a8	-0.026050404
173	0x3e2c5f9d	0.16833349
174	0x3d1b334a	0.03789071
175	0xbccc91fb	-0.024971953
176	0x3d84334b	0.06455096
177	0xbb9bee03	-0.004758598
178	0xbd4ed80b	-0.050499003
179	0xbd367f0f	-0.044554766
180	0xbd72c6ef	-0.05927175
181	0x3de8af2b	0.11361536
182	0x3d90af40	0.07064676
183	0xbc46bda7	-0.012130178
184	0xbd651bd3	-0.05593474
185	0x3e198d89	0.14995398
186	0x3d778823	0.060432564
187	0xbe05dba5	-0.13072069
188	0x3d7dc148	0.061951905
189	0xbc72dd5a	-0.014823282
190	0x3c43ff30	0.011962697
191	0xbd58bc3f	-0.0529139
192	0xbe075dcd	-0.13219376
193	0xbc807e50	-0.01568523
194	0xbc5e94af	-0.013585254
195	0x3daa45f9	0.083141275
196	0xbd48e4b9	-0.049046252
197	0xbd85d872	-0.06535424
198	0x3d9c9ce3	0.07647111
199	0xbd734502	-0.059391983
200	0x3b6e72ac	0.0036384268
201	0xbd5e56d0	-0.05428201
202	0xbd0987e6	-0.03357687
203	0x3e41d889	0.18930258
204	0x3bad28d5	0.0052844086
205	0xbc0d61a8	-0.00862924
206	0xbd40a209	-0.04702953
207	0xbdbb4024	-0.09143093
208	0x3dd648ca	0.10463102
209	0x3d3a4e4d	0.04548483
210	0x3d72252e	0.05911749
211	0xbe0d3dbe	-0.13793084
212	0x3cd904b4	0.0264915
213	0x3c03a531	0.00803499
214	0xbe17b414	-0.14814788
215	0xbd619b76	-0.0550799
216	0x3e4b2b22	0.19840673
217	0xbdc4c16b	-0.09607204
218	0x3d8cd071	0.068756945
219	0x3d0de0c9	0.0346382
220	0xbc5921ac	-0.013252657
221	0x3c8c56af	0.017131178
222	0xbc9b6ea6	-0.01897366
223	0x3c6cd8d0	0.014455989
224	0xbd93500f	-0.07193004
225	0x3db9fdcb	0.0908161
226	0x3d5eeb4e	0.054423623
227	0x3d8f2c3e	0.069908604
228	0xbd02142e	-0.031757526
229	0x3da8a06f	0.08233725
230	0x3d3469d0	0.044046223
231	0x3e554e46	0.2083064
232	0x3d85a33e	0.065252766
233	0x3b4fce81	0.003170878
234	0x3d3a0047	0.04541042
235	0xbd82b268	-0.063816845
236	0x3db0ac40	0.08626604
237	0xbd85ecd7	-0.06539314
238	0xba179630	-0.00057825726
239	0xbe137be3	-0.14402728
240	0x3c186c09	0.009303101
241	0xbda3f13b	-0.080049954
242	0xbbffb4f8	-0.0078035556
243	0x3d917e7e	0.071042046
244	0x3d85501a	0.06509419
245	0x3cfe6909	0.031055944
246	0xbd321691	-0.043478552
247	0x3d04a338	0.03238222
248	0x3d9d8eb6	0.076932356
249	0x3dbf14a9	0.093301125
250	0x3caecc1b	0.02133756
251	0xbcd3f099	-0.025871562
252	0xbded59f5	-0.115894236
253	0xbd84fdc0	-0.064937115
254	0xbd241739	-0.04006121
255	0x3db07dd7	0.08617752

lstm.bias_ih_l0 f4 [512]
0	0x3b94dd8f	0.0045430134
1	0x3be61445	0.0070214593
2	0x3d9e7850	0.077377915
3	0xb99ce2f6	-0.00029923738
4	0x3e07b913	0.13254194
5	0x3d5a1d98	0.05325088
6	0x3caca635	0.021075347
7	0xbd1916f9	-0.037375424
8	0x3cbd4ade	0.023106989
9	0x3d1c67ff	0.038185116
10	0x3daf1150	0.08548224
11	0x3dd5f83d	0.10447738
12	0xbd85a43d	-0.065254666
13	0x3d96c2f5	0.07361404
14	0x3dcb20ea	0.09918387
15	0xbbac00ad	-0.005249104
16	0x3cdb6561	0.02678174
17	0xbc455f48	-0.012046643
18	0x3d0ebc53	0.03484757
19	0x3db5b428	0.08872253
20	0x3d891b81	0.06694699
21	0x3c8df8e9	0.017330604
22	0xbdcbe938	-0.09956592
23	0x3d8f599e	0.06999515
24	0x3deaa217	0.114566974
25	0xbd260f38	-0.040541857
26	0x3e1365dd	0.14394327
27	0x3da6ebd7	0.08150452
28	0x3e34f4cf	0.17671512
29	0x3cfffd9e	0.031248864
30	0xbcc5d856	-0.024151009
31	0xbd84b502	-0.06479837
32	0xbdcb87f8	-0.09938043
33	0x3de4709f	0.11154293
34	0x3dcb8afb	0.09938618
35	0xbce2798b	-0.027645847
36	0xbceba5f3	-0.028765654
37	0xbd9d4a20	-0.07680154
38	0x3d147d6d	0.036252428
39	0x3c99524f	0.018716006
40	0xbcecb1f8	-0.028893456
41	0xbc51d485	-0.012807016
42	0x3d8553fa	0.06510158
43	0x3d9a98de	0.07548688
44	0x3a33c2fc	0.0006857363
45	0xbd079148	-0.033097535
46	0xbc556b3f	-0.013026058
47	0xbbf29275	-0.007402713
48	0x3deb6f58	0.114958465
49	0xbcb2a85f	-0.021808801
50	0x3d414a85	0.047190208
51	0xbc3bc126	-0.011459624
52	0x3da532a5	0.080663
53	0xba7d8d31	-0.0009672223
54	0x3de9262d	0.113842346
55	0x3d0a0b45	0.033702154
56	0x3e29fe64	0.16600949
57	0x3dd32c71	0.10311211
58	0x3d2433b2	0.040088363
59	0xbd23b1b9	-0.03996441
60	0x3dd50c82	0.10402776
61	0xbce2745a	-0.027643371
62	0xbcec3d36	-0.028837781
63	0xbbf64171	-0.0075151254
64	0x3c9f20d8	0.01942484
65	0xbd841943	-0.06450131
66	0xbd4834c5	-0.04887845
67	0x3bf3684e	0.0074282056
68	0xbc4fdb77	-0.012686602
69	0x3da9d1e0	0.082919836
70	0x3dd6781a	0.10472126
71	0x3dc0ae0e	0.09408198
72	0xbc58c6d6	-0.013231
73	0x3ce311e0	0.027718484
74	0x3dab0b9d	0.083518244
75	0xbd854ca5	-0.065087594
76	0x3dbc55fc	0.09196088
77	0x3d7b6270	0.061373174
78	0x3e18068e	0.1484625
79	0xbbe96544	-0.0071226675
80	0x3d8672f6	0.06564896
81	0x3db35891	0.08757127
82	0xbd00ddd5	-0.031461556
83	0x3cfe0283	0.031007057
84	0xbd8a1085	-0.06741432
85	0x3ab20c58	0.0013584001
86	0xbd12ee15	-0.035871584
87	0x3d92643b	0.07148024
88	0x3d4d6b90	0.050151408
89	0x3d542351	0.051791493
90	0x3c87a914	0.016560115
91	0x3e03cf27	0.12871991
92	0xbd5e3855	-0.05425294
93	0x3dec224f	0.11529981
94	0x3d6ecb1a	0.05829916
95	0xbbd0eb64	-0.006375717
96	0x3d8c52a6	0.068517014
97	0xbcd768db	-0.026295116
98	0x3e1d35c1	0.15352537
99	0xbc4ce800	-0.012506485
100	0xbd2669b1	-0.04062814
101	0x3d941bd1	0.07231868
102	0x3db1529d	0.08658335
103	0x3b76226d	0.003755714
104	0x3db8a670	0.090161204
105	0xbc647ffa	-0.013946528
106	0xbce51ba8	-0.02796729
107	0x3bf295ca	0.00740311
108	0x3e073133	0.13202362
109	0xbd747851	-0.059685055
110	0xbc457baf	-0.012053414
111	0x3d0e3afa	0.034724213
112	0x3dc6a44d	0.09699307
113	0x3d082041	0.033233885
114	0xbbe6f0bb	-0.0070477403
115	0x3d95f7e7	0.07322674
116	0x3d948ff8	0.07254022
117	0x3c95be5b	0.018279245
118	0x3c26ae61	0.010173411
119	0x3dbadb44	0.09123853
120	0xbd2d9295	-0.04237612
121	0x3dee67db	0.116409026
122	0xbda10411	-0.07862104
123	0x3d9b83e7	0.07593518
124	0x3d8e21bc	0.06940028
125	0x3cbf8417	0.023378415
126	0xbbf93d4d	-0.0076061846
127	0xbca93d40	-0.02065909
128	0x3d32c1b6	0.04364177
129	0xbd6901e8	-0.056886584
130	0x3d4d3b48	0.050105363
131	0x3ccc3f92	0.024932656
132	0x3deb4e03	0.11489489
133	0x3d44db9a	0.04806099
134	0xbdcba3cd	-0.09943352
135	0x3cb51a59	0.02210729
136	0xbd2d94bf	-0.042378183
137	0xbd712248	-0.058870584
138	0x3e1613ef	0.14656042
139	0xbadea2bf	-0.0016985758
140	0x3d8cc76f	0.068739764
141	0x3df9c84d	0.121964075
142	0xbc257742	-0.010099234
143	0x3db59050	0.08865416
144	0x3e196905	0.14981468
145	0x3d64900e	0.055801444
146	0x3d6f4c33	0.05842228
147	0x3e0d9db6	0.13829693
148	0xbc2fb92c	-0.010725301
149	0xbdf50e02	-0.119655624
150	0xbd1cf08b	-0.038315337
151	0x3d8ce9d9	0.068805404
152	0x3b7f44c6	0.0038950904
153	0x3dba0d74	0.09084597
154	0x3dfee8d4	0.12446752
155	0x3de05483	0.10953619
156	0xbd5cb951	-0.05388767
157	0x3bb0cec6	0.005395743
158	0x3d47f667	0.048818972
159	0xbdb50a89	-0.088399
160	0x3d3d59f8	0.04622838
161	0xbda53074	-0.08065882
162	0x3d8a7ad0	0.06761706
163	0x3d898387	0.0671454
164	0x3d000f5d	0.03126465
165	0x3cdd754d	0.027033472
166	0x3cc0a304	0.023515232
167	0x3ca23a2b	0.019803127
168	0x3d6768eb	0.056496542
169	0x3d970cf2	0.07375516
170	0x3e18021c	0.14844555
171	0x3da0617b	0.07831093
172	0xbccfd7a1	-0.025371375
173	0x3d7ad2ae	0.061236076
174	0x3d9de901	0.077104576
175	0xbd5f35bf	-0.054494616
176	0xbd1e4d48	-0.03864792
177	0x3bac8125	0.0052644187
178	0x3d6a2938	0.057168216
179	0xbdc71377	-0.097205095
180	0xbdaa0f29	-0.08303673
181	0xbc6666d0	-0.014062598
182	0x3d083459	0.033253048
183	0x3db41521	0.087930925
184	0xbd6117c1	-0.054954294
185	0x3ca276ad	0.01983198
186	0x3850726c	4.9697628e-05
187	0x3d83bd99	0.06432647
188	0x3d918ac0	0.071065426
189	0x3e0ec429	0.13942017
190	0x3dd07aef	0.10179698
191	0xbd389a6f	-0.045069154
192	0x3de876e0	0.113507986
193	0x3e008646	0.12551221
194	0x3cf5fab8	0.030026779
195	0x3cc00cba	0.023443568
196	0xbcce3da9	-0.025175886
197	0x3c4b5803	0.01241112
198	0x3e01ec00	0.12687683
199	0x3e07f78d	0.13278027
200	0x3d7e455c	0.062077865
201	0x3db7987d	0.08964632
202	0xbd58f91f	-0.052971955
203	0x3c12ded6	0.008964261
204	0x3e033122	0.12811711
205	0xbcce4930	-0.025181383
206	0x3ac6cf87	0.0015168049
207	0x3e0be6d1	0.13662268
208	0x3d10844b	0.035282414
209	0x3da20f20	0.07913041
210	0xbd9b1b64	-0.07573584
211	0xbd73026e	-0.05932849
212	0x3dac6106	0.08416943
213	0x3d09d30e	0.033648543
214	0x3e3d5a24	0.18491417
215	0x3d91fff1	0.07128895
216	0x3cb78561	0.022402467
217	0x3cece5e2	0.02891821
218	0xbd220ee5	-0.039564986
219	0x3d307bce	0.04308682
220	0xbd20c276	-0.039247952
221	0x3cddc75e	0.027072605
222	0xbcbf57e8	-0.023357347
223	0xbc574199	-0.013138198
224	0x3dad9fcf	0.08477747
225	0xbd333959	-0.043755863
226	0x3e2f5541	0.17122366
227	0x3dd6ce4c	0.10488567
228	0x3e1381fc	0.14405054
229	0xbbd57c44	-0.0065150578
230	0x3dbfa898	0.093583286
231	0x3dd702b7	0.10498565
232	0x3da3beab	0.079953514
233	0x3d86980a	0.06571968
234	0x3c30e344	0.010796372
235	0x3ddd87af	0.10816895
236	0x3e126706	0.14297113
237	0xbc83a7dd	-0.016071254
238	0x3d5d1524	0.05397524
239	0x3d3aba8d	0.045588065
240	0xbdf3bbda	-0.11901064
241	0xbdbe78cb	-0.09300383
242	0x3d871187	0.0659514
243	0xbd3cfa68	-0.046137244
244	0x3d58d4d4	0.052937344
245	0x3d537386	0.051623844
246	0x3d80844b	0.06275233
247	0x3ce1ac9c	0.027548127
248	0x3c22062c	0.009889167
249	0x3dddc789	0.10829074
250	0xbcf0a57c	-0.029375784
251	0xbd25a189	-0.040437255
252	0xbc23fbed	-0.010008794
253	0x3bacefc3	0.0052776053
254	0xbd2b1922	-0.041772015
255	0x3d320401	0.04346085
